prototype/chainer_prototype/learned_model/v1.model (npz, 246981 bytes, 16 tensors)

predictor/fc1/W f4 [512, 32]
0.070560046 0.41718212 -0.052431602 -0.17479192 0.20385626 0.3775707 0.035905562 -0.0637749
0.17675415 0.09557615 -0.36352888 0.14783165 0.04525173 0.07464171 -0.48251003 -0.10584682
0.13450675 0.12967393 0.065901175 0.004106019 0.09125581 0.01682526 0.19512168 -0.3955537
-0.021315822 -0.31689504 -0.25838688 0.05072996 -0.35252658 -0.022100842 0.032642476 -0.059735414
-0.076328255 0.0024339785 0.2356269 0.04100738 0.3051337 0.25110427 0.0012640861 0.12334898
-0.26357558 -0.3206137 -0.31214386 0.14851598 0.17569865 0.33065498 -0.35595575 -0.18533409
0.11482797 -0.0060915356 0.16674356 0.15872341 0.08627189 0.12310176 0.58657384 -0.26809618
0.28718832 0.32594708 -0.12735546 0.07054437 -0.106654875 0.17300901 0.06367046 0.06323873
0.4018511 0.14076263 -0.08117723 -0.036183625 0.22971176 0.025992073 0.392238 0.2632144
0.6056021 0.2428416 -0.016671427 -0.07498894 -0.013645679 -0.30843183 0.045850467 0.40470934
-0.12953089 -0.08900116 -0.17865846 -0.020950396 0.28955045 0.17678086 0.09189257 -0.13261071
-0.33089992 -0.27508548 -0.2669449 -0.05349997 -0.02571604 -0.07094335 -0.13968362 -0.31957301
0.063551106 -0.016817464 -0.2826361 -0.027345562 0.045070738 -0.29049787 0.09908099 0.064813934
0.038588673 -0.13500983 0.16836335 -0.1424729 -0.35447043 0.12726617 0.545423 0.052872226
-0.19642003 0.05224807 0.18080674 -0.32180628 0.15537803 -0.034795865 0.007297653 0.06970552
0.2706631 -0.32631156 -0.1223424 -0.5837954 -0.03417589 -0.14993797 -0.12604 0.12719959
0.12956162 0.05919671 -0.06586624 0.10855663 -0.18514626 0.17304695 0.3275623 0.2043011
0.0074307434 0.11885795 0.16551222 0.1504775 -0.3682925 0.3784101 -0.026420942 -0.38743156
-0.09146035 -0.3604662 -0.0005906601 -0.5784696 -0.32902417 -0.078818314 -0.20777504 0.10910166
0.21164238 -0.3076338 -0.2669739 -0.18562439 -0.06806508 -0.16983235 -0.30631208 -0.41442338
0.37331212 0.1373717 0.15115447 0.13726653 0.10084398 0.33865407 0.13159147 0.018325925
0.3662212 -0.0042730635 -0.061256144 0.75920707 0.023866918 0.06521604 0.09440123 0.30502346
0.00096919324 -0.307587 0.18615122 -0.4618424 -0.1964456 -0.3310899 -0.079448834 -0.033212233
0.18506882 -0.2882681 -0.4589372 -0.45230004 -0.01620344 -0.10492263 0.15442583 -0.300303
0.12076132 -0.53635454 -0.1799802 -0.22434518 -0.205681 0.0061429003 0.13780063 -0.23905137
-0.0810368 -0.5519516 0.12192814 -0.20070577 -0.053897407 -0.08773945 0.3939078 -0.09020024
-0.25492752 0.05835665 0.022091184 0.003973844 -0.2487618 0.14196149 0.11529893 -0.4419773
-0.22096495 0.13873042 -0.20275654 0.024102421 0.028135134 -0.21781789 0.08924208 -0.14699677
0.20242283 0.10995955 -0.13268104 -0.0991394 0.2879612 -0.36552516 0.029294422 0.32334703
-0.39516887 0.05066165 0.25244835 -0.034380946 -0.00847858 -0.13025478 0.36204723 0.060149815
0.100895435 -0.006322905 -0.0009860678 0.1914345 0.2887955 -0.047360167 -0.16537406 0.32764924
0.21981475 -0.04122693 0.23745951 -0.03724964 0.081258565 -0.037403908 -0.024584075 0.24429774
00000000: c981 903d e598 d53e 85c2 56bd a7fc 32be
00000010: b2bf 503e f250 c13e b611 133d 6a9c 82bd
00000020: 0aff 343e 6ebd c33d 7520 babe 2e61 173e
00000030: e159 393d c1dd 983d 8e0b f7be 38c6 d8bd
00000040: 23bc 093e 3ec9 043e 32f7 863d c98b 863b
00000050: 53e4 ba3d 21d5 893c facd 473e 0486 cabe
00000060: 859e aebc 1140 a2be 494b 84be 38ca 4f3d
00000070: 5d7e b4be d30c b5bc 1eb4 053d 1fad 74bd
00000080: fd51 9cbd 6283 1f3b 2e48 713e 5bf7 273d
00000090: 7c3a 9c3e bd90 803e b1af a53a 649e fc3d
000000a0: 61f3 86be 7b27 a4be 52d1 9fbe 9314 183e
000000b0: 59ea 333e 9c4b a93e d53f b6be 38c8 3dbe
000000c0: ed2a eb3d 819b c7bb d3be 2a3e 6488 223e
000000d0: 51af b03d c71c fc3d b429 163f e743 89be
000000e0: 590a 933e 89e2 a63e 7869 02be 9179 903d
000000f0: df6d dabd 4629 313e a865 823d 4f83 813d
00000100: 6dbf cd3e 1424 103e 3f40 a6bd 4835 14bd
00000110: 8f39 6b3e 54ed d43c 6bd3 c83e 0ac4 863e
00000120: bd08 1b3f 78ab 783e 8492 88bc cd93 99bd
00000130: 2092 5fbc c7ea 9dbe b3cd 3b3d 1036 cf3e
00000140: bfa3 04be 3d46 b6bd 3ef2 36be 2aa0 abbc
00000150: f53f 943e 0b06 353e 2c32 bc3d 1acb 07be
00000160: b76b a9be 01d8 8cbe 00ad 88be c922 5bbd
00000170: 72aa d2bc bf4a 91bd 3909 0fbe 139f a3be
00000180: 1527 823d c7c4 89bc aeb5 90be cd03 e0bc
00000190: 189c 383d 23bc 94be f9ea ca3d 2bbd 843d
000001a0: 280f 1e3d 0440 0abe 7167 2c3e 6ae4 11be
000001b0: 267d b5be 1052 023e d7a0 0b3f 8c90 583d
000001c0: 5522 49be 1202 563d 6725 393e cbc3 a4be
000001d0: 6b1b 1f3e 1c86 0ebd 2621 ef3b c5c1 8e3d
000001e0: 5b94 8a3e 4f12 a7be a78e fabd 9e73 15bf
000001f0: 05fc 0bbd 5789 19be a110 01be 9c40 023e
00000200: cdab 043e 4078 723d e1e4 86bd f052 de3d
00000210: fb96 3dbe 3833 313e 3fb6 a73e 4f34 513e
00000220: 987d f33b cc6b f33d 097c 293e c616 1a3e
00000230: d690 bcbe f8be c13e bb70 d8bc 6e5d c6be
00000240: 904f bbbd 078f b8be 87d6 1aba 9516 14bf
00000250: db75 a8be 7f6b a1bd fbc2 54be b170 df3d
00000260: c8b8 583e 2d82 9dbe ceb0 88be 5214 3ebe
00000270: b465 8bbd 88e8 2dbe f0d4 9cbe 4d2f d4be
00000280: c422 bf3e 2bab 0c3e 3dc8 1a3e 998f 0c3e
00000290: 4a87 ce3d 1164 ad3e eabf 063e 4020 963c
000002a0: 5881 bb3e 0e05 8cbb b9e7 7abd 655b 423f
000002b0: 8e84 c33c fd8f 853d 6f55 c13d 092c 9c3e
000002c0: 7511 7e3a 0b7c 9dbe 6d9e 3e3e 9b76 ecbe
000002d0: 0929 49be 9e84 a9be 12b6 a2bd 8d09 08bd
000002e0: ae82 3d3e e097 93be d1f9 eabe df93 e7be
000002f0: 14bd 84bc ade1 d6bd ce21 1e3e 51c1 99be
00000300: b651 f73d 884e 09bf bb4c 38be beba 65be
00000310: 0a9e 52be 624a c93b 9c1b 0d3e e2c9 74be
00000320: 9ff6 a5bd b34c 0dbf 76b5 f93d d085 4dbe
00000330: 87c3 5cbd beb0 b3bd 48ae c93e e7ba b8bd
00000340: dc85 82be 6207 6f3d 92f8 b43c 0537 823b
00000350: 6abb 7ebe 5a5e 113e d821 ec3d d94a e2be
00000360: a344 62be 590f 0e3e 699f 4fbe 7172 c53c
00000370: a77b e63c a70b 5fbe 8dc4 b63d 5286 16be
00000380: ee47 4f3e 7932 e13d 8add 07be 9909 cbbd
00000390: a76f 933e 1d26 bbbe dbfa ef3c be8d a53e
000003a0: 9353 cabe 9782 4f3d e940 813e 09d3 0cbd
000003b0: bee9 0abc 8261 05be 415e b93e a75f 763d
000003c0: 44a2 ce3d 5f30 cfbb f23e 81ba 6807 443e
000003d0: 01dd 933e bcfc 41bd d157 29be a4c1 a73e
000003e0: 1e17 613e 92dd 28bd 9628 733e 1493 18bd
000003f0: e46a a63d d734 19bd 8b64 c9bc 3029 7a3e

predictor/fc1/b f4 [512]
0.029370945 0.051943824 0.032920245 -0.018566823 -0.058410253 -0.015771642 -0.063674375 0.05737758
0.08126389 0.018719565 -0.012535757 0.07909323 -0.054016843 0.026734363 -0.036621094 0.0057260557
0.012819647 0.0045853998 -0.044708252 0.053669173 -0.017627418 -0.17867596 -0.046370987 0.038671777
-0.08139041 -0.079041965 0.029696506 -0.037809648 -0.040252764 -0.040066157 0.064184666 -0.036702834
0.07113754 -0.013407206 0.028629066 0.012747525 0.0629045 -0.047214583 0.0922882 0.06869494
0.08373378 -0.015609914 -0.043850705 -0.027665421 -0.021936407 0.029350933 0.030233126 0.0062678233
-0.11965213 -0.044256955 0.070572816 -0.042523306 -0.0644212 -0.085703306 -0.05861645 -0.02691331
0.07427731 0.05716508 0.064896025 -0.011049982 0.010561798 0.01198894 -0.04675307 -0.16603023
-0.026357813 0.07999499 0.03384628 0.023275683 -0.072992675 -0.16511558 0.0027948956 0.046111614
0.011690673 0.05136579 -0.09818571 -0.000335186 -0.020046102 -0.07751403 -0.02558831 -0.04866249
0.07067709 0.049577806 -0.025102276 0.018554782 0.029719342 0.0 -0.0394341 0.077624045
-0.088579245 -0.06330103 0.023305314 0.05264817 -0.020037143 -0.17283392 0.017605519 -0.14665633
0.0 0.052150633 -0.030032355 -0.035294995 0.049629673 0.011796204 -0.011159558 0.046632733
0.055467844 -0.083338864 0.061251245 0.04336607 -0.048483226 -0.054004595 0.11022642 -0.018690264
-0.08209383 0.066802464 0.04049621 -0.074117266 -0.039337102 -0.039605137 -0.05526266 0.022208484
-0.009845498 -0.021735603 -0.027088128 -0.043839667 0.07427823 0.033281032 -0.08482166 0.04803705
0.011027821 0.079781964 0.08958998 -0.05543411 0.043165542 -0.1698091 0.022369107 0.05441903
-0.06431613 -0.0006159672 -0.06877608 -0.05638124 -0.026691115 -0.0041387714 -0.033390976 0.016096698
-0.015590455 0.0582013 0.06341706 -0.14495933 -0.018895837 0.05093422 0.0 -0.028333608
-0.010873127 0.0046241973 -0.035850078 -0.0051588723 0.06545864 -0.11697159 0.06266 -0.04373911
-0.08811037 -0.037944317 0.089258246 -0.03370634 -0.051498115 -0.09081862 -0.042696968 -0.06428699
0.074419506 0.06810901 0.11648616 -0.044512495 0.04081202 0.048432384 0.051673613 -0.16779166
0.046031583 -0.13883254 -0.08539911 -0.035427876 -0.07827561 0.05777149 -0.12620497 -0.06443641
-0.104934186 -0.049957894 -0.0601624 0.038163878 0.00610871 -0.023928206 0.07164054 -0.056840144
0.042710666 -0.005054089 -0.0077639916 -0.019774938 -0.116811626 -0.0037802076 -0.16665371 -0.06276927
-0.064207345 -0.013917497 -0.046206255 -0.032816548 -0.083627276 0.06674443 0.004085928 -0.07505722
-0.0004912612 0.076081224 -0.06486514 -0.026757661 -0.08699868 0.1046678 -0.044995096 -0.0027275372
-0.13077523 -0.048068926 0.021939375 -0.18779808 0.037027065 0.072367586 -0.009343567 0.057892844
-0.07142717 0.022728268 0.01742035 -0.11911175 0.0131047405 -0.013570593 -0.031423077 0.09469813
0.020843118 0.060576003 0.009641779 0.020186119 -0.037287675 0.045948483 -0.00339489 -0.030807333
0.0808934 -0.07429851 0.0700977 -0.005535918 0.054129805 0.012790132 -0.028303882 0.016301202
-0.07059861 0.009127504 -0.0055724834 -0.05132488 -0.025854276 0.026063388 -0.076206215 0.023530059
00000000: 569b f03c 0cc3 543d 61d7 063d 7319 98bc
00000010: 973f 6fbd 8833 81bc b667 82bd c104 6b3d
00000020: af6d a63d c659 993c c762 4dbc a2fb a13d
00000030: c440 5dbd 0602 db3c 0000 16bd a3a1 bb3b
00000040: 7f09 523c 1f41 963b 0020 37bd 35d4 5b3d
00000050: 6067 90bc d5f6 36be 81ef 3dbd 4c66 1e3d
00000060: 04b0 a6bd c1e0 a1bd 1646 f33c 4ade 1abd
00000070: 15e0 24bd 691c 24bd 4073 833d b655 16bd
00000080: 8fb0 913d e6a9 5bbc 8187 ea3c ffda 503c
00000090: 13d4 803d 1464 41bd 9901 bd3d efaf 8c3d
000000a0: 9e7c ab3d bac0 7fbc cc9c 33bd 98a2 e2bc
000000b0: fbb3 b3bc 5e71 f03c 76ab f73c 5062 cd3b
000000c0: 2d0c f5bd c846 35bd 7b88 903d eb2c 2ebd
000000d0: 43ef 83bd 3785 afbd cd17 70bd 4d79 dcbc
000000e0: b41e 983d ee25 6a3d 35e8 843d fc0a 35bc
000000f0: 640b 2d3c 426d 443c 2680 3fbd d403 2abe
00000100: 57ec d7bc 6ad4 a33d 66a2 0a3d a5ac be3c
00000110: 2f7d 95bd 0f14 29be 912a 373b 88df 3c3d
00000120: 3d8a 3f3c ef64 523d 9715 c9bd e7bb afb9
00000130: b937 a4bc adbf 9ebd 939e d1bc 5252 47bd
00000140: 26bf 903d 1912 4b3d 4aa3 cdbc 3300 983c
00000150: fa75 f33c 0000 0000 a785 21bd 5bf9 9e3d
00000160: 0969 b5bd f8a3 81bd c9ea be3c 9ca5 573d
00000170: ef24 a4bc 60fb 30be 7339 903c 142d 16be
00000180: 0000 0000 e79b 553d 6a06 f6bc 7c91 10bd
00000190: 7c48 4b3d de44 413c 94d6 36bc f701 3f3d
000001a0: 4032 633d 91ad aabd 96e2 7a3d 9fa0 313d
000001b0: 5996 46bd ec33 5dbd 64be e13d 531c 99bc
000001c0: cf20 a8bd bbcf 883d 5bdf 253d cbca 97bd
000001d0: f11f 21bd ff38 22bd 195b 62bd 91ee b53c
000001e0: 034f 21bc dd0e b2bc ece7 ddbc 3991 33bd
000001f0: 2f1f 983d b151 083d fab6 adbd 7fc2 443d
00000200: 09ae 343c ba64 a33d f47a b73d e10e 63bd
00000210: 5ace 303d 70e2 2dbe 6b3f b73c 7de6 5e3d
00000220: 2db8 83bd dc78 21ba 79da 8cbd 04f0 66bd
00000230: 53a7 dabc 889e 87bb fac4 08bd 39dd 833c
00000240: 1c6f 7fbc 7d64 6e3d cee0 813d 3870 14be
00000250: 71cb 9abc 67a0 503d 0000 0000 e21b e8bc
00000260: 3325 32bc 9486 973b 88d7 12bd c20b a9bb
00000270: 2e0f 863d cd8e efbd e353 803d c827 33bd
00000280: 3673 b4bd 806b 1bbd 07cd b63d a90f 0abd
00000290: b0ef 52bd 1dff b9bd 04e3 2ebd e6a8 83bd
000002a0: 4169 983d bd7c 8b3d 4c90 ee3d bc52 36bd
000002b0: 812a 273d 0961 463d b6a7 533d 94d1 2bbe
000002c0: 9d8b 3c3d 1e2a 0ebe bbe5 aebd d21c 11bd
000002d0: f74e a0bd cca1 6c3d e03b 01be 3df7 83bd
000002e0: bce7 d6bd a6a0 4cbd d96c 76bd ba51 1c3d
000002f0: 932b c83b 1605 c4bc 47b8 923d 36d1 68bd
00000300: 61f1 2e3d c59c a5bb 1569 febb 0dff a1bc
00000310: ef3a efbd 5cbd 77bb 45a7 2abe 2d8d 80bd
00000320: 247f 83bd 3706 64bc c542 3dbd a56a 06bd
00000330: c744 abbd 4eb1 883d 40e3 853b 9ab7 99bd
00000340: fbc7 00ba 79d0 9b3d 04d8 84bd e232 dbbc
00000350: 5d2c b2bd 125c d63d c74c 38bd 7bc0 32bb
00000360: f1e9 05be ece3 44bd 34ba b33c 244e 40be
00000370: b1a9 173d 7535 943d c315 19bc 0c21 6d3d
00000380: 6848 92bd a230 ba3c 1fb5 8e3c dcf0 f3bd
00000390: 44b5 563c 3157 5ebc 7cb5 00bd 18f1 c13d
000003a0: 30bf aa3c 8b1e 783d 8df8 1d3c 5c5d a53c
000003b0: f6ba 18bd 7a34 3c3d ce7c 5ebb a95f fcbc
000003c0: 70ab a53d d129 98bd 628f 8f3d a566 b5bb
000003d0: 37b7 5d3d b48d 513c 8bdd e7bc 198a 853c
000003e0: 0196 90bd 878b 153c 6199 b6bb 0a3a 52bd
000003f0: 59cc d3bc e382 d53c 0112 9cbd 1cc2 c03c

predictor/conv2/W f4 [32, 32, 3, 3]
0.067720905 0.09153047 -0.18272588 -0.14444974 0.029107526 0.036607694 0.114449665 0.049182467
0.26697692 -0.088566504 -0.38582686 0.25684804 0.0029283033 0.12391242 0.036020827 0.12654956
0.18729144 -0.09790105 -0.02030237 0.18448386 -0.13690946 0.010763603 0.19670384 -0.022839468
-0.16731179 0.0032641657 0.1034875 -0.65019435 -0.47243088 -0.23250695 0.0119453175 0.23208538
-0.31664938 -0.09737778 0.06892585 -0.3984375 0.04975508 -0.025030741 -0.2812338 0.11884263
-0.009590257 0.04095586 -0.02806414 0.17107685 0.13439423 0.22305337 0.25242263 0.10887466
0.10959852 -0.016642403 -0.14176694 -0.024782943 -0.1934116 0.09776498 -0.16294636 0.1830875
0.2400717 0.11424492 -0.062334243 -0.0069093187 -0.14119667 -0.034838002 0.07886088 -0.044174723
0.004746753 0.29090157 -0.12990268 -0.36928317 -0.1108428 0.017717995 -0.023043765 0.110480934
-0.050123688 -0.091818094 -0.15948309 -0.20049167 0.10091524 -0.013824867 0.1612924 -0.08531543
0.08820803 0.012007924 0.111473955 -0.02838412 -0.22293116 -0.06630295 -0.02095852 -0.0034430772
-0.33419588 0.1801223 -0.10754849 -0.07002431 -0.15327103 0.051742867 -0.0046412232 -0.08512354
0.1814437 0.05810111 0.18394172 0.08281283 -0.009318958 -0.11529685 0.04940779 -0.010996464
-0.07063318 0.12995508 -0.006011253 0.22967805 -0.23996173 -0.44228274 -0.19558737 0.07881261
-0.34900293 -0.106842734 -0.16945527 -0.051205166 -0.14530945 0.32438403 -0.10458149 -0.1439714
0.14370313 -0.21521033 -0.5164543 -0.006165279 0.20445605 -0.11969187 0.19061159 0.10351957
0.35756654 -0.4744988 -0.2073588 0.054072816 -0.7384462 -0.4629888 0.13537274 0.041002333
0.14216684 -0.12936059 -0.031891156 0.04594125 -0.08250294 -0.24911232 0.04945729 -0.08124482
0.5046796 -0.019177474 0.287229 0.20682111 -0.04912977 -0.5264151 -0.1337179 -0.061378248
-0.6654979 0.16527429 0.064936414 -0.27007082 0.09406522 -0.0520934 -0.031052213 0.068908624
-0.11259604 0.39614895 -0.05362036 -0.03191798 0.13387488 -0.08362854 -0.11284782 0.13043033
-0.074195676 0.031222582 -0.31719047 -0.15343447 -0.11823416 -0.124467246 0.017587382 0.0064836186
0.22415233 0.15182602 0.19633198 0.019911718 -0.03994536 0.10395016 -0.3028039 -0.06926667
-0.3158779 -0.23403354 0.081775434 -0.17360662 -0.08278945 -0.24537271 0.02018486 0.057004135
0.21977453 -0.09283559 0.18542045 -0.10860873 0.114103734 -0.0900067 -0.032204457 0.10851611
-0.046846338 -0.085786976 0.0395957 -0.12928158 -0.08072446 0.110519715 0.14917898 0.12388603
0.07675295 -0.18204302 -0.022829186 -0.02135298 0.07829185 0.041959494 -0.120452546 0.02909595
-0.08133683 0.15436968 0.050526187 -0.3149217 0.009743566 0.22480208 0.37044507 0.072750114
-0.2756141 0.0897487 0.023917444 0.07137278 0.018921785 0.13465822 0.022274293 -0.03755682
-0.07420997 -0.08545178 -0.0559258 -0.010844202 0.067484476 -0.5656304 -0.0049713277 -0.19669105
-0.6497945 -0.13455904 -0.09967094 0.09680525 0.046646494 -0.1907785 0.09847694 0.039105225
0.07921278 0.05582629 -0.009793564 -0.02701477 0.036370955 0.11137042 -0.019933682 -0.052528303
00000000: 42b1 8a3d 5474 bb3d 7e1c 3bbe a2ea 13be
00000010: e872 ee3c f3f1 153d 9664 ea3d 8e73 493d
00000020: 33b1 883e 5b62 b5bd 198b c5be 9681 833e
00000030: c7e8 3f3b cbc5 fd3d 938a 133d 3596 013e
00000040: 54c9 3f3e 5880 c8bd 2851 a6bc 56e9 3c3e
00000050: fe31 0cbe d359 303c bb6c 493e d619 bbbc
00000060: c853 2bbe 9deb 553b 41f1 d33d 2373 26bf
00000070: 76e2 f1be 4d16 6ebe 4bb6 433c caa7 6d3e
00000080: de1f a2be 006e c7bd ff28 8d3d 0000 ccbe
00000090: fccb 4b3d 450d cdbc e0fd 8fbe c463 f33d
000000a0: 7420 1dbc 55c1 273d c4e6 e5bc c52e 2f3e
000000b0: a49e 093e 1a68 643e 8a3d 813e aef9 de3d
000000c0: 3075 e03d a655 88bc 5a2b 11be 9905 cbbc
000000d0: b10d 46be 0139 c83d 69db 26be 4a7b 3b3e
000000e0: 5bd5 753e 3ef9 e93d 3152 7fbd 9167 e2bb
000000f0: dc95 10be 4bb2 0ebd d081 a13d 8ef0 34bd
00000100: a68a 9b3b 0df1 943e 3505 05be af12 bdbe
00000110: 8d01 e3bd 5425 913c 47c6 bcbc d443 e23d
00000120: 7f4e 4dbd 200b bcbd 894f 23be b04d 4dbe
00000130: a6ac ce3d b281 62bc d629 253e dbb9 aebd
00000140: 69a6 b43d e2bc 443c 754c e43d d085 e8bc
00000150: 1148 64be d7c9 87bd 34b1 abbc 40a5 61bb
00000160: b91b abbe fb71 383e 6242 dcbd e868 8fbd
00000170: 15f3 1cbe 54f0 533d 6715 98bb 4055 aebd
00000180: 61cc 393e 6efb 6d3d 385b 3c3e c699 a93d
00000190: 8bae 18bc c120 ecbd d35f 4a3d 832a 34bc
000001a0: 21a8 90bd f212 053e 0cfa c4bb b930 6b3e
000001b0: 87b8 75be e272 e2be 0e48 48be 8168 a13d
000001c0: 83b0 b2be 5dd0 dabd af85 2dbe 82bc 51bd
000001d0: 00cc 14be aa15 a63e d22e d6bd 3d6d 13be
000001e0: ea26 133e 1960 5cbe 5936 04bf 1c06 cabb
000001f0: ed5c 513e 0321 f5bd af2f 433e 1102 d43d
00000200: f612 b73e 82f1 f2be de55 54be 757b 5d3d
00000210: cf0a 3dbf de0c edbe 279f 0a3e 10f2 273d
00000220: 2f94 113e 1a77 04be 4da0 02bd e42c 3c3d
00000230: 4df7 a8bd 4d17 7fbe ba93 4a3d af63 a6bd
00000240: af32 013f 141a 9dbc ae0f 933e eac8 533e
00000250: 4c3c 49bd 24c3 06bf 58ed 08be c267 7bbd
00000260: 125e 2abf aa3d 293e 62fd 843d b946 8abe
00000270: 44a5 c03d e45f 55bd 3661 febc f71f 8d3d
00000280: c198 e6bd 09d4 ca3e 06a1 5bbd 6ebc 02bd
00000290: 7f16 093e 7145 abbd c21c e7bd 878f 053e
000002a0: e7f3 97bd 80c6 ff3c ca66 a2be ed1d 1dbe
000002b0: c024 f2bd afe8 febd 6a13 903c 8974 d43b
000002c0: 3088 653e 4878 1b3e 400b 493e e61d a33c
000002d0: bf9d 23bd d2e3 d43d 1d09 9bbe afdb 8dbd
000002e0: c0ba a1be 7da6 6fbe e179 a73d efc5 31be
000002f0: 848d a9bd fc42 7bbe b85a a53c 2b7d 693d
00000300: 930c 613e 9620 bebd dcde 3d3e 416e debd
00000310: 38af e93d 6f55 b8bd d2e8 03bd b23d de3d
00000320: f2e1 3fbd 15b1 afbd 1a2f 223d 6462 04be
00000330: de52 a5bd 2958 e23d 60c2 183e f5b7 fd3d
00000340: a730 9d3d 7c69 3abe 4604 bbbc 72ec aebc
00000350: 7a57 a03d b8dd 2b3d d3af f6bd a15a ee3c
00000360: ed93 a6bd 1613 1e3e 8cf4 4e3d 6b3d a1be
00000370: 7aa3 1f3c 8432 663e faaa bd3e 03fe 943d
00000380: 4b1d 8dbe 2bce b73d 84ee c33c e42b 923d
00000390: dc01 9b3c d8e3 093e 9478 b63c 2ed5 19bd
000003a0: 66fb 97bd 5801 afbd 7412 65bd e1ab 31bc
000003b0: 4d35 8a3d 27cd 10bf 85e6 a2bb 6169 49be
000003c0: ef58 26bf d8c9 09be 4720 ccbd d541 c63d
000003d0: 6510 3f3d 705b 43be 47ae c93d cd2c 203d
000003e0: 4f3a a23d 1caa 643d 2f75 20bc 144e ddbc
000003f0: b6f9 143d 2d16 e43d f64b a3bc eb27 57bd

predictor/conv2/b f4 [32]
0.06845045 0.07410325 -0.022196919 -0.03487846 -0.05044758 0.04772723 0.08906186 -0.07276391
-0.061914403 0.11111343 -0.07012583 0.17948605 -0.17561135 0.10378374 -0.039787494 -0.046162248
0.19386202 0.18763846 -0.083710074 -0.031377822 0.06397999 0.03604972 -0.029620744 0.08493873
-0.04607023 -0.042787153 -0.023228781 0.05058649 0.10551373 -0.20637824 0.087652884 0.09252566
00000000: c02f 8c3d 72c3 973d 50d6 b5bc b7dc 0ebd
00000010: 1fa2 4ebd a17d 433d 1166 b63d 3f05 95bd
00000020: f599 7dbd 708f e33d 229e 8fbd 31cb 373e
00000030: 76d3 33be 928c d43d 36f8 22bd a014 3dbd
00000040: c483 463e 4c24 403e 3070 abbd 0886 00bd
00000050: f107 833d dfa8 133d 34a7 f2bc 5bf4 ad3d
00000060: 23b4 3cbd 9541 2fbd 494a bebc c833 4f3d
00000070: 9517 d83d d154 53be 5b83 b33d 187e bd3d

predictor/conv4/W f4 [32, 32, 3, 3]
-0.093912356 -0.006974951 -0.069436766 0.018358242 0.0037383076 -0.08689091 0.05453663 0.013298742
-0.058673967 -0.0780943 0.013456148 0.013255816 -0.1054845 -0.15838093 0.004220027 0.07142428
0.008510266 0.023591273 0.050832532 -0.015227228 -0.16128412 -0.044248883 0.038651634 -0.0059378725
0.0059932917 0.12315655 -0.060152538 -0.11483279 0.02089205 0.072945684 -0.010332548 0.010818808
-0.085977346 -0.003134122 -0.04527514 -0.0022877897 0.0033240786 -0.02324835 0.04798349 0.02583588
0.0023619975 0.06410769 0.08611827 0.0199529 -0.06574361 -0.037067812 0.08877098 0.020554554
-0.11367148 0.0019012069 -0.06706974 -0.0351567 0.10677963 0.021403713 -0.009436983 0.06959172
-0.07245418 -0.037319385 0.008977239 -0.03525185 0.022443118 -0.029483197 0.034183677 0.06589314
0.014107366 -0.12368604 0.046247527 0.048402056 -0.011255805 0.073246874 -0.0134925 0.0046396283
-0.0706251 0.08307477 -0.033621326 -0.03308089 0.033821013 -0.021147972 -0.16326027 -0.02924469
0.06920194 0.12013888 0.010731252 -0.03360987 -0.007807327 -0.19070666 -0.23828837 -0.04145793
0.053555947 -0.012192674 0.0005067051 0.0039516077 -0.03788186 -0.06941904 0.037516452 0.068501286
-0.005747091 -0.14351073 -0.007998864 0.04676362 0.06777262 0.005841657 0.062600315 -0.0346788
-0.009141291 0.07862932 -0.07110915 -0.061779823 -0.010965423 0.0022581345 0.038667884 0.0146981105
-0.10215952 -0.03668619 0.05372526 0.07173445 5.3725358e-05 -0.004029261 0.033608135 0.11164428
0.010733934 -0.11575008 0.0041765627 0.07061092 0.063349955 -0.01647814 -0.043434516 -0.04365367
0.024726253 -0.03824806 0.03405085 -0.023598468 -0.017245987 0.066973336 -0.041671477 -0.037176613
-0.04121177 0.005411921 -0.03705104 -0.13014556 -0.07549885 -0.045527566 -0.009185077 -0.008293045
-0.039566282 0.018769192 0.061029878 0.07446316 -0.026300289 0.019061204 0.039335262 0.018482337
0.01783453 -0.07550665 -0.088433765 -0.0076042274 0.08246567 -0.110167824 -0.012014891 -0.10719724
-0.06137511 -0.06873352 0.007878416 0.003390513 0.016711134 -0.03672396 0.0061289975 0.09021517
0.058860052 -0.03490543 -0.01190838 -0.041919675 0.047472283 0.11764636 -0.029161694 -0.0862556
0.043066345 0.0054115467 -0.18120773 -0.03604242 0.09516006 0.06005983 -0.010079696 -0.023787161
0.0026721004 -0.049849577 -0.06153305 -0.037424378 0.017920591 0.013095061 0.05344544 -0.023024654
-0.0376444 -0.04168951 0.08602955 0.034904014 0.010328159 -0.0069322176 -0.101205215 0.068282664
0.02038714 -0.018396031 0.031721726 -0.05708927 -0.059333384 -0.03178197 -0.023814758 0.0756693
0.040716935 -0.018884024 0.039071474 -0.019017829 -0.057838764 -0.04878955 -0.086309806 -0.048648383
-0.05042461 0.05229122 0.01479999 0.023398845 -0.056371067 0.047341585 -0.0028620455 0.012289504
-0.043074265 -0.061264995 -0.0742711 -0.03793966 0.027399218 -0.010825243 -0.05853679 -0.058644123
-0.012251591 -0.051921092 0.050221577 0.0049605398 0.02128627 -0.04081932 -0.06752897 -0.07363603
-0.024217768 0.023889031 0.07353965 0.013081651 -0.052365784 -0.0038539006 -0.0027383897 0.07108509
0.07540993 -0.08238144 -0.06957593 0.03370056 -0.10073691 0.14313489 -0.011307958 0.0107493065
00000000: 1f55 c0bd 218e e4bb dd34 8ebd 0664 963c
00000010: 65fe 743b ddf3 b1bd cd61 5f3d f7e2 593c
00000020: 1d54 70bd e8ef 9fbd 2d77 5c3c ec2e 593c
00000030: 4208 d8bd 9c2e 22be 2748 8a3b e546 923d
00000040: a56e 0b3c 7c42 c13c c635 503d a07b 79bc
00000050: aa27 25be 513e 35bd 2d51 1e3d 7c92 c2bb
00000060: 6063 c43b 8039 fc3d 8262 76bd 742d ebbd
00000070: ce25 ab3c 8c64 953d d949 29bc 5f41 313c
00000080: e414 b0bd d765 4dbb 6d72 39bd beee 15bb
00000090: c9d8 593b 5373 bebc 568a 443d c4a5 d33c
000000a0: becb 1a3b e44a 833d c75e b03d 4474 a33c
000000b0: 96a4 86bd 6bd4 17bd 8fcd b53d 0662 a83c
000000c0: 98cc e8bd eb31 f93a dc5b 89bd 7900 10bd
000000d0: 47af da3d d756 af3c 939d 1abc 1b86 8e3d
000000e0: db62 94bd 36dc 18bd 4515 133c 3e64 10bd
000000f0: a1da b73c bf86 f1bc 2f04 0c3d fcf2 863d
00000100: 9522 673c 1b4f fdbd 0c6e 3d3d 3c41 463d
00000110: 456a 38bc 7502 963d a60f 5dbc 0608 983b
00000120: e4a3 90bd 1b23 aa3d 84b6 09bd d47f 07bd
00000130: e787 0a3d 833e adbc b32d 27be 8f92 efbc
00000140: bfb9 8d3d 600b f63d 22d2 2f3c 81aa 09bd
00000150: 9bd4 ffbb 9b48 43be de01 74be cacf 29bd
00000160: 7b5d 5b3d c8c3 47bc 67d4 043a 7d7c 813b
00000170: 022a 1bbd 922b 8ebd daaa 193d 674a 8c3d
00000180: 1852 bcbb 7af4 12be ab0d 03bc 368b 3f3d
00000190: 5fcc 8a3d 5f6b bf3b 9834 803d 5b0b 0ebd
000001a0: 5ac5 15bc 6908 a13d ada1 91bd d70c 7dbd
000001b0: 51a8 33bc 36fd 133b 3762 1e3d 58d0 703c
000001c0: 0339 d1bd 4244 16bd 050f 5c3d 83e9 923d
000001d0: 2a57 6138 e407 84bb afa8 093d c2a5 e43d
000001e0: 62dd 2f3c 610e edbd 8cdb 883b 759c 903d
000001f0: 9fbd 813d 2afd 86bc 64e8 31bd 31ce 32bd
00000200: b68e ca3c ffa9 1cbd e778 0b3d 9351 c1bc
00000210: 7547 8dbc 5129 893d b6af 2abd 8146 18bd
00000220: accd 28bd 7c56 b13b d5c2 17bd e144 05be
00000230: 249f 9abd 1d7b 3abd 017d 16bc 8ddf 07bc
00000240: 4110 22bd d9c1 993c 77fa 793d 2480 983d
00000250: b473 d7bc 3e26 9c3c 031e 213d 4568 973c
00000260: b819 923c 3ba3 9abd c31c b5bd e22c f9bb
00000270: c3e3 a83d ab9f e1bd 1bda 44bc 3a8a dbbd
00000280: 7864 7bbd 29c4 8cbd 7914 013c 5e33 5e3b
00000290: cae5 883c dd6b 16bd c2d5 c83b bbc2 b83d
000002a0: 3d17 713d fff8 0ebd 5e1b 43bc f7b3 2bbd
000002b0: 4c72 423d 93f0 f03d 81e4 eebc c7a6 b0bd
000002c0: 5666 303d 5853 b13b 858e 39be 37a1 13bd
000002d0: 47e3 c23d 4c01 763d 4f25 25bc 4bdd c2bc
000002e0: 681e 2f3b 122f 4cbd 140a 7cbd 4e4a 19bd
000002f0: 34ce 923c ab8c 563c 9be9 5a3d 339e bcbc
00000300: 0431 1abd 9fc2 2abd 4330 b03d 83f7 0e3d
00000310: 7037 293c a827 e3bb ae44 cfbd c8d7 8b3d
00000320: ee02 a73c 46b3 96bc a4ee 013d 70d6 69bd
00000330: 9007 73bd d02d 02bd 2b17 c3bc 82f8 9a3d
00000340: cdc6 263d abb2 9abc 6909 203d 47cb 9bbc
00000350: 57e8 6cbd 8dd7 47bd 32c3 b0bd 8743 47bd
00000360: 098a 4ebd 512f 563d a87b 723c efae bf3c
00000370: 59e5 66bd 40e9 413d 2891 3bbb ea59 493c
00000380: a46e 30bd 01f1 7abd 721b 98bd 9e66 1bbd
00000390: 5374 e03c 5c5c 31bc 46c4 6fbd d234 70bd
000003a0: e6ba 48bc 36ab 54bd 24b5 4d3d 068c a23b
000003b0: 8b60 ae3c 2932 27bd a14c 8abd 7dce 96bd
000003c0: 5764 c6bc eeb2 c33c f59b 963d 6c54 563c
000003d0: 817d 56bd b991 7cbb 8e76 33bb 0f95 913d
000003e0: 8570 9a3d 9ab7 a8bd d37d 8ebd 9909 0a3d
000003f0: 274f cebd f491 123e 0345 39bc dc1d 303c

predictor/conv4/b f4 [32]
-0.067165405 0.053907063 -0.019194363 -0.10015306 -0.045144614 -0.14267546 -0.11304828 -0.05289988
-0.06780497 0.13583377 -0.061222374 -0.11734988 0.068213604 0.10088164 0.07416649 0.07782074
-0.09117272 -0.07152933 -0.061239112 0.09453578 0.042476643 -0.0460993 -0.0036705858 -0.025221335
0.1322382 -0.09564898 -0.08703202 -0.028403278 0.26259488 -0.08062797 -0.028479654 -0.027529536
00000000: 048e 89bd a7cd 5c3d 7f3d 9dbc 0c1d cdbd
00000010: 8fe9 38bd 8419 12be db85 e7bd 8bad 58bd
00000020: 55dd 8abd 0218 0b3e 50c4 7abd 2255 f0bd
00000030: 93b3 8b3d 099b ce3d 9ae4 973d 7b60 9f3d
00000040: c3b8 babd f87d 92bd ddd5 7abd fa9b c13d
00000050: fdfb 2d3d 9fd2 3cbd 368e 70bb f99c cebc
00000060: 7369 073e 9de3 c3bd d83d b2bd fead e8bc
00000070: d672 863e 4720 a5bd 2a4e e9bc 9f85 e1bc

predictor/conv6/W f4 [32, 32, 3, 3]
-0.06370962 0.058195088 -0.04757753 0.009245692 -0.16615403 -0.03758052 -0.022923833 -0.060331527
0.053935554 -0.0027366856 0.05985969 -0.022596832 0.009231065 -0.56527776 -0.014523091 0.070739046
-0.04786759 0.07191414 -0.048249703 0.03397049 -0.056957982 0.0193547 -0.019641872 0.055890605
-0.030907977 0.12845977 -0.034532145 0.06451244 -0.0023813979 -0.07509083 -0.012804341 -0.23106742
0.04482493 -0.017824924 -0.036671773 -0.005059519 0.027116658 0.06927603 0.009203409 -0.07443699
0.033512097 -0.07117734 0.03026512 0.0806146 -0.002386838 -0.015157886 0.012775079 0.042152453
0.027583446 -0.046015974 -0.12638097 -0.05635986 0.08128063 -0.058033112 0.041642625 -0.020702453
-0.023775369 0.0084014805 -0.08246755 -0.08248128 0.023523346 0.10681634 0.035862822 -0.013014601
0.035093583 0.011152114 -0.111990854 0.09807073 0.05597581 0.023367457 -0.029621586 0.0759549
0.019704254 0.008385026 0.09489399 0.03547173 -0.09723706 0.059186928 0.046933208 0.038973384
-0.014285107 0.039915048 -0.012018234 0.010586759 0.17885579 0.15668954 0.026148986 -0.042928513
-0.045450937 0.036433633 0.008047089 -0.06674083 -0.077972636 -0.037636396 -0.0927968 0.002290952
0.010753573 0.021610186 -0.020247253 -0.0730485 -0.08552515 -0.007932476 0.019688915 0.014208088
-0.0022985963 0.048580196 -0.04355071 -0.065241486 0.14184986 0.015954847 -0.07998131 -0.014130771
-0.07500774 -0.10257668 0.00928639 0.010961083 0.034034893 0.07788463 0.02386788 0.032039896
-0.022235842 -0.119455 -0.037061024 -0.065055005 0.01631111 0.0789234 -0.0017180624 -0.0479729
-0.024339693 0.07297243 0.01265289 -0.0080000395 -0.0078109293 0.053351898 0.028485402 0.044856325
-0.068998866 0.017216975 -0.0014266933 0.25194648 0.057509378 0.04898103 -0.03777341 -0.009904531
-0.034969978 -0.12962548 0.0139278015 0.03527537 0.0115242135 -0.085511 -0.019781291 -0.046625596
0.019313853 0.042486418 0.030951675 0.065203615 0.012626078 -0.07802014 0.07055982 0.121279314
0.0068977084 0.03860826 0.036769122 -0.053387754 0.04037336 -0.005858137 0.097078584 0.10400687
-0.018593386 -0.053057004 0.019146126 0.0076816436 0.076975234 0.018290898 -0.026224827 -0.070055164
-0.020195013 0.001124826 0.02935636 0.018765569 0.016527047 -0.07494916 -0.004335106 -0.01215332
0.29001424 0.0148739815 0.060397606 0.09537743 0.031996958 -0.13956605 -0.022154115 -0.055314105
-0.062242478 -0.037853073 0.11899001 -0.022291096 0.049535796 -0.05127255 0.021759223 0.093274094
-0.03590994 0.00742894 -0.010192061 -0.007874183 -0.008895568 0.03364721 -0.121017344 -0.06482392
-0.044696283 -0.004424745 -0.024249204 0.1674013 0.019234432 0.023914894 0.07443948 0.00045185548
0.036604915 0.017116947 0.00260847 -0.01165472 0.12746742 0.062993474 0.031507596 0.02739505
-0.016818585 0.0080632735 0.09343527 -0.021923438 -0.0047888122 0.0006007979 0.08031801 -0.058270454
0.042789444 0.002663541 -0.07312846 0.002547618 -0.11911918 0.03420541 -0.17270072 -0.10741679
-0.024905376 -0.004097109 0.050630715 0.0710068 0.11959546 0.08473813 0.05495374 -0.108727045
0.038442306 -0.025011634 -0.04263969 -0.04900704 -0.034779646 0.012895633 -0.049456727 -0.041634466
00000000: 307a 82bd f95d 6e3d a8e0 42bd 3e7b 173c
00000010: 4824 2abe 08ee 19bd c3ca bbbc 311e 77bd
00000020: 87eb 5c3d f759 33bb 6f2f 753d fe1c b9bc
00000030: e53d 173c 0bb6 10bf 42f2 6dbc a2df 903d
00000040: ce10 44bd b847 933d 7ba1 45bd a424 0b3d
00000050: c64c 69bd bf8d 9e3c fee7 a0bc 8ced 643d
00000060: ba32 fdbc f58a 033e 9471 0dbd 191f 843d
00000070: 3a11 1cbb 39c9 99bd 4cc9 51bc f09c 6cbe
00000080: 599a 373d 9305 92bc 2435 16bd 52ca a5bb
00000090: c123 de3c 97e0 8d3d e5c9 163c 6c72 98bd
000000a0: fb43 093d 6dc5 91bd 8fee f73c 4419 a53d
000000b0: 7f6c 1cbb c858 78bc 914e 513c 0da8 2c3d
000000c0: aef6 e13c 3f7b 3cbd 036a 01be 99d9 66bd
000000d0: 7576 a63d 21b4 6dbd 7591 2a3d 3198 a9bc
000000e0: 90c4 c2bc 5da6 093c bfe4 a8bd f2eb a8bd
000000f0: 08b4 c03c 86c2 da3d e5e4 123d 313b 55bc
00000100: 4abe 0f3d 5bb7 363c 765b e5bd 4fd9 c83d
00000110: e446 653d 1c6d bf3c f8a8 f2bc 3e8e 9b3d
00000120: d16a a13c 5961 093c c857 c23d ce4a 113d
00000130: 3924 c7bd fe6d 723d 093d 403d 8ea2 1f3d
00000140: 150c 6abc f67d 233d 20e8 44bc 1674 2d3c
00000150: f925 373e 3973 203e 6636 d63c cfd5 2fbd
00000160: c32a 3abd 6f3b 153d f0d7 033c 6baf 88bd
00000170: 1eb0 9fbd 9f28 1abd 400c bebd cc23 163b
00000180: c12f 303c d807 b13c 91dd a5bc 749a 95bd
00000190: cf27 afbd 37f7 01bc a64a a13c 0ac9 683c
000001a0: 0ca4 16bb 07fc 463d 3b62 32bd 549d 85bd
000001b0: 1741 113e bdb3 823c 3ecd a3bd c084 67bc
000001c0: a89d 99bd b913 d2bd f125 183c 1d96 333c
000001d0: 2c68 0b3d fa81 9f3d 9386 c33c 443c 033d
000001e0: f127 b6bc d3a4 f4bd 4dcd 17bd 8f3b 85bd
000001f0: e19e 853c 97a2 a13d 9c30 e1ba 3b7f 44bd
00000200: 0964 c7bc 9272 953d 114e 4f3c 9912 03bc
00000210: d3f2 ffbb 8587 5a3d 385a e93c 44bb 373d
00000220: 474f 8dbd 9d0a 8d3c e2ff baba 21ff 803e
00000230: f48e 6b3d 55a0 483d 4bb8 1abd 9d46 22bc
00000240: ae3c 0fbd 8bbc 04be 6f31 643c e87c 103d
00000250: 0ed0 3c3c 6420 afbd 600c a2bc 7bfa 3ebd
00000260: 1638 9e3c 3d06 2e3d 5e8e fd3c 7989 853d
00000270: 9cdd 4e3c 06c9 9fbd ab81 903d 4a61 f83d
00000280: 2c06 e23b b223 1e3d 389b 163d 1ead 5abd
00000290: 895e 253d 9df5 bfbb 23d1 c63d 8e01 d53d
000002a0: 2851 98bc 4d52 59bd 56d8 9c3c 4cb6 fb3b
000002b0: 31a5 9d3d cbd6 953c 73d5 d6bc 1579 8fbd
000002c0: 0370 a5bc e66e 933a c07c f03c 40ba 993c
000002d0: bb63 873c f27e 99bd 810d 8ebb b81e 47bc
000002e0: bf7c 943e 00b2 733c 7b63 773d 3e55 c33d
000002f0: 3e0f 033d 67ea 0ebe 8c7c b5bc 0b91 62bd
00000300: f8f1 7ebd d30b 1bbd 09b1 f33d d19b b6bc
00000310: 0ce6 4a3d 2a03 52bd 6640 b23c 7d06 bf3d
00000320: 4d16 13bd 776e f33b 9afc 26bc b802 01bc
00000330: b7be 11bc a8d1 093d f1d7 f7bd 67c2 84bd
00000340: 7313 37bd 74fd 90bb 44a6 c6bc 3f6b 2b3e
00000350: 8791 9d3c 2be9 c33c ba73 983d 04e7 ec39
00000360: 09ef 153d d738 8c3c ddf2 2a3b 70f3 3ebc
00000370: d286 023e b902 813d 1c0e 013d 956b e03c
00000380: 21c7 89bc d21b 043c fe5a bf3d c898 b3bc
00000390: 78eb 9cbb dd7e 1d3a c57d a43d 00ad 6ebd
000003a0: fc43 2f3d cd8e 2e3b 60c4 95bd f0f5 263b
000003b0: c2f4 f3bd f91a 0c3d 75d8 30be 56fd dbbd
000003c0: 5c06 ccbc 0b41 86bb 2762 4f3d 036c 913d
000003d0: 77ee f43d 2f8b ad3d 2c17 613d 49ac debd
000003e0: ae75 1d3d 33e5 ccbc f5a6 2ebd 9bbb 48bd
000003f0: 1a75 0ebd 3448 533c 2393 4abd e788 2abd

predictor/conv6/b f4 [32]
0.04547252 -0.042400375 0.09519336 -0.074631736 -0.036471356 0.06339273 -0.056749724 0.034973837
-0.027988514 -0.02495001 0.07778458 -0.028264247 -0.052384164 -0.013428181 0.06696552 0.010923249
-0.01607062 -0.044439465 -0.041850924 -0.0047977967 -0.031707678 -0.013737549 0.02831307 0.06884733
-0.07126358 -0.07853768 -0.070335254 -0.07256302 0.08324829 0.05217026 0.027705744 -0.040062264
00000000: 6541 3a3d 04ac 2dbd bcf4 c23d 86d8 98bd
00000010: fd62 15bd 0cd4 813d 6672 68bd ba40 0f3d
00000020: 2b48 e5bc f763 ccbc 864d 9f3d 6c8a e7bc
00000030: c790 56bd e001 5cbc 3825 893d 6df7 323c
00000040: 88a6 83bc 2806 36bd e06b 2bbd d636 9dbb
00000050: e9df 01bd 7513 61bc d0f0 e73c d4ff 8c3d
00000060: a4f2 91bd 5dd8 a0bd ee0b 90bd ec9b 94bd
00000070: 147e aa3d 7cb0 553d 28f7 e23c 5418 24bd

predictor/conv1/W f4 [32, 3, 3, 3]
0.2568008 0.2526417 -0.23304859 0.28617322 -0.06346893 -0.23762675 0.010888993 -0.26568085
0.33342648 0.17136301 0.20526677 0.08850328 0.17638013 -0.22093552 -0.2696094 0.102988705
-0.27111432 -0.052160516 -0.44560552 0.06444201 0.1235523 0.1489877 0.1307202 0.008539748
0.440263 0.030493164 0.13564962 0.12686774 0.17026389 0.18149872 -0.030709254 0.21489723
0.3834856 -0.011730494 0.23656191 0.008183379 0.011352862 -0.3356141 0.1957796 -0.1429468
-0.29600412 -0.3871021 -0.11351802 -0.109065406 -0.15327038 -0.35500848 -0.18828483 0.43701774
0.08958759 -0.14548036 -0.012820572 0.009463001 0.18514358 -0.029944085 0.26540342 -0.06655087
0.053395506 -0.07581474 0.12516174 0.3250777 0.026793422 -0.13737857 0.23719819 -0.022758687
0.1967176 -0.19141366 -0.09282056 0.281285 -0.22947095 0.04093495 0.14412099 0.19044112
0.03496171 0.1661075 -0.106453344 -0.03290928 -0.5351595 0.3601741 -0.119387 -0.32353693
0.034472533 -0.08888155 -0.19519079 -0.0069142883 0.46076742 -0.080703236 -0.19297516 -0.15322977
0.022458658 -0.21929651 -0.007512453 -0.3904635 -0.2503755 0.32617414 -0.24007323 -0.02868201
0.081852734 -0.005565122 -0.7037723 0.5033962 -0.16724841 0.20197962 0.19809239 -0.17170207
-0.30633694 0.21093872 0.4529617 0.22395465 0.0020047934 -0.22846973 0.06430525 0.14836383
-0.13928689 -0.03109082 -0.07756559 0.031973016 0.18409723 0.013436649 -0.04268354 -0.082972914
0.053941716 -0.10521482 0.20850754 -0.041041955 0.6926749 0.1786525 0.098209 -0.06525852
0.09188491 -0.46797603 -0.04133079 0.086682774 -0.2550494 0.2871232 -0.086703 0.098876104
-0.47997677 -0.15887095 0.108459674 0.063884065 0.14344493 0.2833308 0.092759274 -0.23041752
0.04907707 -0.23751283 -0.51579595 -0.14164083 0.016817153 0.09506939 -0.10106045 0.13804929
0.42731464 -0.082444794 -0.15208283 -0.4604194 -0.041492768 0.13505629 0.012804194 0.26427388
0.37174237 0.20903823 -0.036063123 0.064796634 0.13732412 0.25569153 0.013653467 -0.049580473
-0.18178439 -0.025018666 0.2810163 -0.1947425 -0.08848958 -0.11217989 -0.17580977 0.18174753
-0.30049402 0.16520709 -0.36142182 -0.16865195 0.17023611 0.12178914 -0.41808158 0.136222
0.49993885 -0.25698912 0.18681294 0.033424415 0.4221095 -0.060189977 0.06646943 0.21603008
0.1293384 0.10235584 -0.0032525414 -0.4506442 0.17334136 0.14123626 -0.20640552 -0.37873664
-0.107447684 0.41553107 0.07468261 0.2517609 -0.19069752 -0.018717734 -0.10211067 -0.07899888
-0.42082185 -0.15533978 0.08918392 0.19577867 0.14085172 0.117788605 -0.043577015 0.055102482
0.3816636 -0.39020008 0.49108592 -0.35210514 -0.11980455 0.21889094 -0.24244414 -0.2973372
-0.16989362 0.17621401 0.1186452 0.15874214 0.0060215867 0.26249635 0.3968892 0.01117836
0.11869481 -0.00062908424 -0.25753313 -0.15484177 -0.2209289 0.24990167 -0.017833777 -0.17939173
0.26921842 0.3437486 -0.43874413 -0.053045213 -0.11704521 -0.11911167 0.14518718 -0.034879353
-0.074500464 0.22795504 -0.060661454 0.14798667 0.030716788 0.005353489 0.26279292 0.3101863
00000000: 657b 833e 415a 813e 4aa4 6ebe 4c85 923e
00000010: 00fc 81bd 6d54 73be bf67 323c 5207 88be
00000020: e0b6 aa3e c979 2f3e 7431 523e 3541 b53d
00000030: fe9c 343e ec3c 62be 3e0a 8abe beeb d23d
00000040: 7fcf 8abe 44a6 55bd 6826 e4be 2cfa 833d
00000050: fd08 fd3d 3b90 183e 84db 053e 4dea 0b3c
00000060: 276a e13e cdcc f93c bce7 0a3e 9ee9 013e
00000070: a859 2e3e cdda 393e f991 fbbc 050e 5c3e
00000080: 3958 c43e 4231 40bc 493d 723e 9413 063c
00000090: 5b01 3a3c 9cd5 abbe 737a 483e a560 12be
000000a0: da8d 97be 3f32 c6be 237c e8bd af5d dfbd
000000b0: e9f2 1cbe acc3 b5be bdcd 40be cac0 df3e
000000c0: b379 b73d cef8 14be 600d 52bc b40a 1b3c
000000d0: 4796 3d3e 4c4d f5bc f5e2 873e d34b 88bd
000000e0: 3fb5 5a3d c244 9bbd 662a 003e 9670 a63e
000000f0: e17d db3c f8ac 0cbe 15e4 723e 6d70 babc
00000100: 5770 493e f101 44be b518 bebd 9604 903e
00000110: 6ffa 6abe 68ab 273d 7494 133e ff02 433e
00000120: 0334 0f3d 1618 2a3e 3604 dabd e2cb 06bd
00000130: 3700 09bf bd68 b83e 2c81 f4bd a2a6 a5be
00000140: 1233 0d3d 8807 b6bd 18e0 47be 4191 e2bb
00000150: b5e9 eb3e bd47 a5bd 489b 45be 44e8 1cbe
00000160: 38fb b73c 448f 60be 062b f6bb d5ea c7be
00000170: 3831 80be 4c00 a73e c2d5 75be 89f6 eabc
00000180: 68a2 a73d a05b b6bb 6c2a 34bf 93de 003f
00000190: 2b43 2bbe bfd3 4e3e bbd8 4a3e abd2 2fbe
000001a0: 32d8 9cbe 5200 583e 99ea e73e 5e54 653e
000001b0: da62 033b f8f3 69be 79b2 833d b0ec 173e
000001c0: 39a1 0ebe 2db2 febc b5da 9ebd 23f6 023d
000001d0: fc83 3c3e 6425 5c3c f0d4 2ebd b4ed a9bd
000001e0: fdf1 5c3d de7a d7bd 0083 553e 9c1b 28bd
000001f0: 2453 313f aef0 363e cd21 c93d 42a6 85bd
00000200: 282e bc3d 8e9a efbe 794a 29bd bd86 b13d
00000210: d695 82be d001 933e 5891 b1bd 8e7f ca3d
00000220: 84bf f5be 11af 22be 1b20 de3d a6d5 823d
00000230: 3ae3 123e bc10 913e 93f8 bd3d 92f2 6bbe
00000240: 0a05 493d 9036 73be 340b 04bf 4b0a 11be
00000250: 20c4 893c beb3 c23d c8f8 cebd cb5c 0d3e
00000260: fcc8 da3e d1d8 a8bd 9abb 1bbe 17bc ebbe
00000270: 52f4 29bd 324c 0a3e afc8 513c e84e 873e
00000280: 0455 be3e 1e0e 563e edb6 13bd 19b4 843d
00000290: b29e 0c3e 00ea 823e cbb2 5f3c e514 4bbd
000002a0: b025 3abe f2f3 ccbc 5ee1 8f3e 946a 47be
000002b0: 063a b5bd 92be e5bd 7a07 34be 061c 3a3e
000002c0: 5ada 99be 0c2c 293e 480c b9be 19b3 2cbe
000002d0: 6052 2e3e 966c f93d ca0e d6be c87d 0b3e
000002e0: fcf7 ff3e 1494 83be e44b 3f3e 0ae8 083d
000002f0: bd1e d83e c489 76bd 2021 883d fd36 5d3e
00000300: 4971 043e f09f d13d 9728 55bb d6ba e6be
00000310: 6680 313e 3da0 103e f85b 53be c5e9 c1be
00000320: 880d dcbd 7dc0 d43e 32f3 983d cee6 803e
00000330: 3646 43be ef55 99bc 661f d1bd 2aca a1bd
00000340: f675 d7be 6411 1fbe 0fa6 b63d 347a 483e
00000350: 6f3b 103e 273b f13d d07d 32bd 24b3 613d
00000360: 6969 c33e 4ec8 c7be 9d6f fb3e 2047 b4be
00000370: 175c f5bd f224 603e 4743 78be 953c 98be
00000380: 98f8 2dbe 7271 343e 41fc f23d 4d8d 223e
00000390: bb50 c53b ec65 863e 1035 cb3e 7125 373c
000003a0: 4416 f33d 21e9 24ba 62db 83be d78e 1ebe
000003b0: 303b 62be 39e6 7f3e 2418 92bc 77b2 37be
000003c0: ffd6 893e d1ff af3e 12a3 e0be f045 59bd
000003d0: 66b5 efbd d2f0 f3bd f3ab 143e a7dd 0ebd
000003e0: b393 98bd 0c6d 693e 2578 78bd d189 173e
000003f0: c6a1 fb3c 526c af3b cb8c 863e bdd0 9e3e

predictor/conv1/b f4 [32]
-0.22216327 -0.014928574 -0.22368623 0.05009824 -0.102078475 0.0076579135 -0.09515219 0.0034090213
-0.12225919 -0.049656793 -0.1092568 -0.10136332 0.0068604527 0.03112419 0.046388194 0.1361625
-0.003335971 -0.031603903 0.16579509 -0.042573463 0.0903659 0.35039198 0.030308234 0.10066518
0.1043077 -0.04447791 -0.024786517 0.055933718 0.052886687 0.029935336 -0.07877891 0.032451916
00000000: c57e 63be fa96 74bc 010e 65be d033 4d3d
00000010: 850e d1bd 3cef fa3b 27df c2bd e369 5f3b
00000020: 0763 fabd ec64 4bbd 07c2 dfbd 9397 cfbd
00000030: a6cd e03b 28f8 fe3c 8c01 3e3d 2f6e 0b3e
00000040: 4ea0 5abb 1873 01bd 30c6 293e 8361 2ebd
00000050: c211 b93d 9466 b33e f948 f83c 8c29 ce3d
00000060: 479f d53d 782e 36bd 180d cbbc c11a 653d
00000070: b69f 583d f33a f53c d656 a1bd 4dec 043d

predictor/fc2/W f4 [3, 512]
-0.191527 0.17138486 -0.2113488 -0.17495687 -0.26003906 -0.45319492 -0.020469693 -0.054922756
0.09295657 0.12755801 0.13120747 -0.32517132 0.09808254 0.043849584 0.046023462 -0.3276514
-0.16284524 -0.027273722 -0.1605982 -0.12583652 0.12095552 0.15314719 0.029690692 -0.50890535
-0.17743224 -0.35899287 0.109810315 -0.03190876 -0.0061637517 0.01407922 0.023127846 -0.15026009
-0.20972818 -0.3356986 0.014276791 0.12945838 0.13724238 -0.030493962 -0.22292542 0.13789861
0.115076914 0.15938397 0.06342438 0.11420429 -0.14633185 0.0810131 0.1484784 0.035905983
0.044317376 0.014779672 -0.24626425 -0.0124151595 -0.027448976 0.090280704 0.026338665 0.15766701
-0.29660785 -0.2359515 0.15212527 -0.2264055 0.03341157 -0.2132702 -0.22477123 0.0006533156
-0.123524815 0.20547715 -0.13611896 0.058648083 0.03601348 0.032113228 0.11732889 -0.1871059
-0.0741997 -0.03382608 0.061940067 0.07596575 -0.24197629 0.0060518715 -0.105832644 0.057595905
-0.40877494 0.119075015 0.1721518 0.0020831379 -0.27669287 -0.08786724 0.05294653 -0.05081778
-0.050513208 0.07650659 -0.45177183 0.08051088 -0.53041476 0.0972346 -0.4259263 0.028912457
-0.016373698 -0.0011577338 -0.011382547 -0.009294737 -0.1174293 -0.36263436 -0.39744988 0.08657453
-0.11255485 0.041845962 -0.2739411 -0.0904255 0.049681526 -0.15998986 0.14180864 -0.19438235
-0.057591453 0.08545548 -0.022721278 0.009854345 0.07351448 0.16416329 0.12044755 -0.2115716
0.0010865873 -0.3770311 -0.15285 0.035336323 0.038183667 -0.25014034 -0.28507188 -0.2531642
-0.25847432 -0.36551982 -0.036596116 0.1305815 -0.33676016 0.013861838 0.06731243 -0.28120452
0.04328142 0.04930908 0.053675227 -0.012392131 -0.14830689 0.1523104 -0.30998316 0.042282782
0.06513547 -0.09514164 0.027840067 0.09655714 0.066869624 -0.09813527 0.049041852 -0.027809583
0.09797916 -0.15657297 0.009922258 0.01660613 -0.19296402 0.01395603 0.13545701 -0.0043628244
0.061273236 0.03723939 0.10980241 -0.102195 -0.30835128 -0.015547229 -0.08392872 0.056889586
0.06344279 -0.21903723 0.055210736 -0.042375233 -0.38121307 -0.24507642 -0.04351044 0.052080277
0.059941303 0.032890044 -0.043202158 -0.061018232 -0.012910198 0.0875266 0.038446147 -0.06948446
0.15107861 0.098163635 0.008609832 -0.09699134 -0.3589189 0.1458281 0.15280683 -0.26573342
0.017144958 -0.5184397 0.01251758 0.12174504 0.083936565 -0.48836645 0.048507284 0.14142266
-0.2085654 0.083895534 0.011365221 -0.21553862 -0.22070336 0.123670794 -0.016664572 -0.09197346
0.001188444 -0.2495541 0.075447924 0.0115865525 -0.17651199 -0.022872102 0.06788152 -0.21597075
-0.02821401 -0.13570046 -0.17209645 0.06941282 -0.23783498 0.05127439 -0.13888177 -0.40497118
-0.29361656 0.034055784 0.11830718 0.112538174 0.050366566 0.020110855 0.0038966269 0.13300407
0.15505205 0.030304834 0.037019435 0.022758733 -0.32272065 -0.2985094 0.12872207 0.046814825
-0.12624794 -0.21408613 0.103168696 0.0397342 -0.051010802 0.08771211 -0.15228313 -0.3317747
0.053732518 0.14920983 -0.15954947 -0.16039844 -0.2963596 0.106550634 0.0013742046 0.01058228
00000000: a71f 44be 837f 2f3e d26b 58be e527 33be
00000010: d723 85be 2a09 e8be 0fb0 a7bc aff6 60bd
00000020: 0460 be3d 919e 023e 405b 063e db7c a6be
00000030: 80df c83d 9f9b 333d 1983 3c3d edc1 a7be
00000040: e7c0 26be 246d dfbc db73 24be 4adb 00be
00000050: 87b7 f73d 9ed2 1c3e e539 f33c 9f47 02bf
00000060: ccb0 35be eacd b7be 3be4 e03d c3b2 02bd
00000070: 4cf9 c9bb 87ac 663c 9c76 bd3c c8dd 19be
00000080: fcc2 56be b0e0 abbe 34e9 693c bd90 043e
00000090: 4489 0c3e 79ce f9bc 9046 64be 4b35 0d3e
000000a0: 72ad eb3d 8d35 233e a4e4 813d f0e3 e93d
000000b0: 04d8 15be 32ea a53d b90a 183e 2712 133d
000000c0: 2386 353d 7026 723c b22c 7cbe f468 4bbc
000000d0: addc e0bc 17e5 b83d 2fc4 d73c 7673 213e
000000e0: fcdc 97be 459d 71be bac6 1b3e d8d6 67be
000000f0: 92da 083d 8163 5abe 6e2a 66be 4543 2b3a
00000100: 94fa fcbd 9a68 523e c562 0bbe f938 703d
00000110: df82 133d 2989 033d 214a f03d b098 3fbe
00000120: 03f6 97bd 378d 0abd deb4 7d3d ee93 9b3d
00000130: a2c8 77be c74e c63b c9be d8bd afe9 6b3d
00000140: f34a d1be 9add f33d 9048 303e 4185 083b
00000150: b0aa 8dbe bdf3 b3bd 76de 583d 4e26 50bd
00000160: f0e6 4ebd 7daf 9c3d a34e e7be e3e2 a43d
00000170: 43c9 07bf ef22 c73d 0313 dabe d1d9 ec3c
00000180: 2222 86bc 1abf 97ba dd7d 3abc f448 18bc
00000190: c67e f0bd 36ab b9be 8d7e cbbe fd4d b13d
000001a0: 2883 e6bd ac66 2b3d 0242 8cbe 0131 b9bd
000001b0: db7e 4b3d 62d4 23be 4936 113e 2b0c 47be
000001c0: 04e5 6bbd 4803 af3d f921 babc 1e74 213c
000001d0: c28e 963d 6c1a 283e 35ad f63d 3aa6 58be
000001e0: d26b 8e3a 380a c1be b684 1cbe d2bc 103d
000001f0: 7a66 1c3d 6512 80be f1f4 91be bd9e 81be
00000200: bf56 84be 6a25 bbbe cfe5 15bd 28b7 053e
00000210: d46b acbe c31c 633c 19db 893d 0afa 8fbe
00000220: dc47 313d 51f8 493d 8eda 5b3d 5d08 4bbc
00000230: c3dd 17be 42f7 1b3e 1db6 9ebe b630 2d3d
00000240: bf65 853d 9fd9 c2bd da10 e43c c0bf c53d
00000250: f1f2 883d 25fb c8bd 1ce0 483d ecd0 e3bc
00000260: 4ca9 c83d aa54 20be f790 223c 9409 883c
00000270: 5c98 45be d5a7 643c 3eb5 0a3e 06f6 8ebb
00000280: a5f9 7a3d 5588 183d 16e0 e03d 9d4b d1bd
00000290: 38e0 9dbe ceb9 7ebc d2e2 abbd 0e05 693d
000002a0: 4bee 813d 4c4b 60be a724 623d a791 2dbd
000002b0: 5c2e c3be 50f5 7abe 0138 32bd 2152 553d
000002c0: 0385 753d b6b7 063d bff4 30bd 41ee 79bd
000002d0: 4c85 53bc 2541 b33d b579 1d3d de4d 8ebd
000002e0: 5ab4 1a3e 040a c93d 4110 0d3c 65a3 c6bd
000002f0: 38c4 b7be f653 153e 6579 1c3e 360e 88be
00000300: 9573 8c3c 77b8 04bf 8916 4d3c 7755 f93d
00000310: efe6 ab3d 2b0b fabe 93af 463d 1ad1 103e
00000320: 2b92 55be 6cd1 ab3d 3135 3a3c 28b6 5cbe
00000330: 1000 62be 1d47 fd3d 2484 88bc 955c bcbd
00000340: 90c5 9b3a 1c8b 7fbe 7184 9a3d 86d5 3d3c
00000350: 8fbf 34be 465e bbbc 7705 8b3d 7027 5dbe
00000360: 1121 e7bc 10f5 0abe 0d3a 30be 4f28 8e3d
00000370: 038b 73be 1805 523d 0637 0ebe 6258 cfbe
00000380: e954 96be 147e 0b3d 094b f23d 6a7a e63d
00000390: 2c4d 4e3d 85bf a43c 8d5e 7f3b 3832 083e
000003a0: f7c5 1e3e d841 f83c b1a1 173d 8670 ba3c
000003b0: a43b a5be 39d6 98be b8cf 033e e7c0 3f3d
000003c0: 2447 01be 6539 5bbe 1c4a d33d 54c0 223d
000003d0: b4f0 50bd 68a2 b33d 1cf0 1bbe 60de a9be
000003e0: a116 5c3d 76ca 183e f060 23be 7d3f 24be
000003f0: 72bc 97be 3837 da3d a81e b43a 4d61 2d3c

predictor/fc2/b f4 [3]
-0.07783816 0.063515656 -0.0061856476
00000000: 9d69 9fbd 7f14 823d f9b0 cabb
