prototype/chainer_prototype/learned_model/v2.model (npz, 246746 bytes, 16 tensors)

predictor/conv2/b f4 [32]
0	0xbd58e3ac	-0.0529515
1	0xbb599e8d	-0.0033206076
2	0x3e0619d7	0.13095795
3	0xbc7379fe	-0.014860628
4	0x3c70804e	0.014679028
5	0xbde18fb0	-0.11013734
6	0x3c2aebd4	0.010432202
7	0xbd84a427	-0.06476622
8	0x3d02f2f5	0.031969983
9	0x3c5e4c87	0.01356805
10	0x3d9f4cfb	0.07778355
11	0xbb776ae8	-0.003775293
12	0x3dce72c7	0.10080486
13	0x3d0a73fa	0.03380201
14	0x3d11d73c	0.035605654
15	0x3c9775c5	0.018488774
16	0xbd0bc387	-0.034122016
17	0x3bd015d9	0.0063502607
18	0xbcf2190d	-0.02955296
19	0xbd353eb6	-0.04424926
20	0x3c21f4d6	0.009885034
21	0x3d246f9c	0.0401455
22	0x3bd5bdb4	0.0065228585
23	0x3d419de3	0.047269713
24	0x3ca89198	0.020577237
25	0x3d1f9333	0.03895874
26	0x3c41a41a	0.01181891
27	0x3c220a35	0.009890129
28	0xbc6801cb	-0.014160584
29	0x3d3652f6	0.04451271
30	0x3e156ca7	0.14592229
31	0x3d070173	0.032960366

predictor/conv2/W f4 [32, 32, 3, 3]
0	0x3e8ad16e	0.27112907
1	0x3d3fc2cf	0.046816643
2	0x3e71e7f9	0.23623647
3	0x3d32c0dd	0.04364096
4	0x3e53f0a8	0.20697272
5	0xbd91c5f8	-0.07117838
6	0x3e47ae0a	0.19499984
7	0xbe01dfb8	-0.12682998
8	0xbe426a7b	-0.18985932
9	0x3c0b1065	0.0084877955
10	0x3e5f1690	0.2178595
11	0xbdd0ee57	-0.1020171
12	0x3d1fd057	0.039017048
13	0x3dd4237b	0.1035833
14	0x3cac4a77	0.021031601
15	0xbe006043	-0.12536721
16	0xbd9ca5fa	-0.07648845
17	0x3dcb9fb0	0.09942567
18	0xbe987ed4	-0.29784262
19	0xbd8045bc	-0.06263301
20	0xbdc3dc02	-0.095634475
21	0xbeab7e5b	-0.3349484
22	0xbe02dc52	-0.12779358
23	0x3be58ad9	0.0070050773
24	0x3d292fb1	0.041305248
25	0x3d3618f6	0.0444574
26	0xbd9dc991	-0.07704461
27	0x3d46b254	0.04850991
28	0xbe15da20	-0.1463399
29	0x3dbe95ec	0.09305939
30	0xbe820675	-0.2539555
31	0x3de970f2	0.11398496
32	0x3db8e18c	0.09027395
33	0x3d795151	0.060868565
34	0xbd2a8221	-0.041628007
35	0x3d8a5154	0.06753793
36	0x3df0b7c2	0.11753799
37	0x3d7a45f2	0.06110186
38	0x3bb4ce3d	0.0055177496
39	0xbdf4174f	-0.11918508
40	0xbd96c347	-0.07361465
41	0x3cdd0290	0.026978761
42	0xbe6118c0	-0.21982098
43	0xbdc51efb	-0.0962505
44	0x3c49a6cc	0.012307834
45	0xbe1a42d5	-0.15064557
46	0x3dc0acef	0.094079845
47	0x3c2aad11	0.010417239
48	0x3db828d6	0.08992164
49	0xbe074db6	-0.13213238
50	0xbe4ed243	-0.20197396
51	0xbc77d810	-0.015127197
52	0xbdb956d3	-0.090497635
53	0xbe1d5c13	-0.15367155
54	0xbda99693	-0.08280673
55	0xbb980296	-0.00463898
56	0x3d891342	0.06693126
57	0x3dddb620	0.10825753
58	0xbe1e7e06	-0.15477762
59	0x3e3508e3	0.17679171
60	0x3cc4ba00	0.024014473
61	0xbd54c4ca	-0.051945485
62	0x3df6eec8	0.12057263
63	0xbec2fd01	-0.38083652
64	0xbe215dea	-0.15758482
65	0xbda88258	-0.08227986
66	0xbbf90a89	-0.007600133
67	0xbd869491	-0.065713055
68	0xbc3fade2	-0.011699172
69	0x3d83567e	0.064129815
70	0xbc2bc8e8	-0.0104849115
71	0xbdf3d3ac	-0.119056076
72	0x3e20b043	0.15692239
73	0x3d6f7152	0.05845768
74	0x3d30e144	0.04318358
75	0x3e3225c8	0.17397225
76	0x3dc989f3	0.09840765
77	0xbc13878f	-0.009004488
78	0xbdc0ed9a	-0.09420319
79	0x3dbef514	0.09324089
80	0x3e04e70b	0.12978761
81	0x3cf2a896	0.029621404
82	0x3d8cd044	0.06875661
83	0xbcf36ca4	-0.02971489
84	0x3dced08e	0.100983724
85	0x3cf79edd	0.03022712
86	0x3dd7a5c4	0.10529664
87	0xbd0c50c0	-0.034256697
88	0xbd5c7184	-0.053819194
89	0xb9ed8e7e	-0.00045310328
90	0x3e5fcff1	0.21856667
91	0x3e6ea2e8	0.23304331
92	0x3d07b2a3	0.033129346
93	0xbe1e42f5	-0.1545523
94	0xbd2c142f	-0.042011436
95	0xbdfeedbb	-0.12447687
96	0x3e197b07	0.14988337
97	0x3e36728c	0.17817134
98	0xbdf347d8	-0.118789375
99	0xbe33108c	-0.17486781
100	0xba8c5711	-0.00107071
101	0x3e1e5395	0.15461572
102	0x3cca03e9	0.024660068
103	0x3de47778	0.11155599
104	0x3dc7b6c9	0.097516604
105	0xbda54f38	-0.080717504
106	0x3dbf4a93	0.09340396
107	0x3e51754b	0.204549
108	0xbcd602d5	-0.026124397
109	0xbd9af7b8	-0.0756678
110	0xbbff9cae	-0.00780066
111	0xbd27c121	-0.040955666
112	0xbd822a63	-0.06355741
113	0xbe2e3153	-0.17011003
114	0x3a93fbd4	0.0011290261
115	0xbeb6c10c	-0.35694158
116	0xbd281a44	-0.041040674
117	0x3d852a7d	0.065022446
118	0xbebf56e7	-0.3737099
119	0xbd9f1dc3	-0.077693485
120	0x3d9f3b43	0.07774975
121	0x3d16dd9e	0.036832444
122	0xbe9978ef	-0.29975078
123	0x3e8b54fd	0.27213278
124	0x3db6187c	0.08891389
125	0x3e4263ea	0.18983427
126	0xbe48602d	-0.19567938
127	0xbe10327a	-0.14081755
128	0x3e5e3548	0.21700013
129	0xbe28a15b	-0.16467802
130	0xbe1948a0	-0.1496911
131	0x3d96b4ae	0.07358681
132	0x3e0b3e19	0.13597907
133	0xbd9fa365	-0.07794837
134	0xbe5884aa	-0.21144357
135	0x3e674dff	0.22588347
136	0x3f0c8d36	0.5490297
137	0x3d9f7b4e	0.077871904
138	0xbe73740d	-0.23774739
139	0x3e3f553e	0.18684861
140	0x3cca1eff	0.024672983
141	0xbde2c569	-0.11072809
142	0x3e651bec	0.22373933
143	0xbe11ca1b	-0.14237253
144	0x3e0cad34	0.13737947
145	0x3d519ff2	0.051177926
146	0xbe0db1d8	-0.13837373
147	0x3e206639	0.15663995
148	0x3de9809f	0.11401486
149	0x3b50668a	0.00317994
150	0xbe063ac3	-0.13108353
151	0xbd109c50	-0.03530532
152	0xbd8bec5b	-0.068321906
153	0x3e1bc26f	0.1521089
154	0x3e125ee0	0.14294004
155	0xbe4d514b	-0.20050542
156	0x3e630f68	0.22173846
157	0x3e03178f	0.12801956
158	0xbd96e639	-0.0736813
159	0xbe1e24eb	-0.1544377
160	0xbce285ff	-0.027651785
161	0x3e1f3eac	0.15551251
162	0x3e8a1d95	0.26975694
163	0x3db68e01	0.08913804
164	0xbcdc9724	-0.026927538
165	0xbd9851a7	-0.07437449
166	0xbba3153e	-0.0049768975
167	0xbd821fbd	-0.0635371
168	0x3c9a8358	0.018861458
169	0x3c72af19	0.014812254
170	0x3c50c68b	0.012742649
171	0xbd72b152	-0.059251137
172	0x3dbc0860	0.09181285
173	0xbd6b0387	-0.05737641
174	0xbdb0625d	-0.08612511
175	0xbc048d3c	-0.0080903135
176	0xbd97ef5f	-0.07418703
177	0x3cd34088	0.025787607
178	0x3e3e24cd	0.18568726
179	0x3e2ada3c	0.16684812
180	0x3e581d96	0.21105036
181	0xbe106681	-0.14101602
182	0xbe18df50	-0.14928937
183	0x3c89d3a6	0.016824555
184	0xbe290b1c	-0.16508144
185	0x3e00af82	0.12566951
186	0xbdd2dc28	-0.10295898
187	0xbe1209a5	-0.14261492
188	0x3d5be8e8	0.053688914
189	0x3e87c2c2	0.26515776
190	0xbd13f462	-0.036121733
191	0xbe862dc8	-0.26206803
192	0x3e93c702	0.28862768
193	0xbdc9d502	-0.09855081
194	0xbc25493b	-0.01008826
195	0x3d0949aa	0.033517517
196	0x3daf0376	0.08545582
197	0x3c177b9f	0.009245782
198	0x3e415743	0.18880944
199	0xbe4c1153	-0.19928484
200	0x3e804b9d	0.25057688
201	0x3e505170	0.20343566
202	0xbe6e225c	-0.23255295
203	0xbd64e5c9	-0.055883203
204	0x3ea416f6	0.32048768
205	0xbe6f9bb9	-0.23399247
206	0xbd0a6dbd	-0.03379606
207	0x3e1e91b1	0.15485264
208	0x3ddff202	0.10934831
209	0xbcd15c00	-0.025556564
210	0xbca384f2	-0.019960854
211	0x3d8ea365	0.06964759
212	0xbd3e0683	-0.04639293
213	0xbea63e8f	-0.32469603
214	0xbd0fcf6b	-0.03510992
215	0x3dc1c9a0	0.09462285
216	0x3d9c34a6	0.076272294
217	0xbd394f0c	-0.0452414
218	0x3d31f012	0.04344184
219	0x3e1f0f75	0.1553324
220	0xbdbcf264	-0.0922592
221	0xba851e27	-0.0010156081
222	0x3d9d5cf5	0.07683746
223	0x3d09d0e7	0.03364649
224	0x3bf8e823	0.007596032
225	0xbe88adbe	-0.26695055
226	0xbe045e2a	-0.12926546
227	0x3d15aee7	0.036543753
228	0xbd27d8df	-0.04097831
229	0xbdc3cec3	-0.09560921
230	0xbdae663e	-0.08515595
231	0x3d78db46	0.06075599
232	0x3e1ae825	0.15127619
233	0x3d8005c6	0.06251101
234	0x3d95134c	0.07279071
235	0xbd9ed142	-0.077547565
236	0xbe248e08	-0.16069806
237	0x3db1ab49	0.08675248
238	0xbb5a9cc3	-0.0033357597
239	0x3dcf34c9	0.1011749
240	0x3da5561b	0.08073064
241	0x3e67557d	0.22591205
242	0xbe0f6f86	-0.14007387
243	0x3d3d9c4c	0.046291634
244	0xbcca4ec5	-0.024695763
245	0x3da2fb57	0.079580955
246	0xbe958d51	-0.29209378
247	0xbd5caab3	-0.05387373
248	0x3c1a88ed	0.00943206
249	0xbd471b7a	-0.048610188
250	0xbe14541f	-0.14485215
251	0xbe0f9fd2	-0.1402581
252	0x3e303393	0.17207174
253	0xbcfcdb4d	-0.03086629
254	0xbd8c04f4	-0.06836882
255	0xbd2a4f32	-0.041579433

predictor/conv6/b f4 [32]
0	0x3dc95b66	0.09831886
1	0x3cba8c80	0.022772074
2	0x3d1e57bb	0.038657885
3	0x3d5e0d5d	0.054211963
4	0xbd2c664f	-0.042089757
5	0xbd0af60d	-0.03392606
6	0xbcbec2bb	-0.023286214
7	0xbcd23953	-0.0256621
8	0x3d812e76	0.0630769
9	0xbd3f0d1f	-0.046643373
10	0xbc8b08e2	-0.01697201
11	0xbd016716	-0.03159245
12	0xbc93a4a5	-0.018022845
13	0xbd02f6a9	-0.031973515
14	0xbca48539	-0.020083057
15	0xbbf2ac95	-0.0074058273
16	0xbc1728f6	-0.009226074
17	0xbc187728	-0.009305753
18	0xbcc0e46f	-0.023546426
19	0xbb8b6142	-0.0042535374
20	0x3bc18b01	0.005906463
21	0x3d075269	0.033037577
22	0xbbc7055e	-0.006073638
23	0xbbd6b4be	-0.006552308
24	0x3dcec99f	0.1009705
25	0x3ce59083	0.02802301
26	0xbce419f8	-0.027844414
27	0x3bf7e3ec	0.007565012
28	0x00000000	0.0
29	0xbd38758d	-0.04503398
30	0x3c9b684d	0.018970633
31	0xbd1d7abe	-0.038447134

predictor/conv6/W f4 [32, 32, 3, 3]
0	0xbdb805e4	-0.089854985
1	0x3ce81b43	0.028333312
2	0xbd9510e9	-0.07278616
3	0x3c5be378	0.013420932
4	0xbe1ea3db	-0.15492193
5	0xbd130f21	-0.0359031
6	0xbe065b1b	-0.13120691
7	0x3d66bf8b	0.056335013
8	0x3bcba4fd	0.0062147365
9	0xbd90bd0e	-0.07067309
10	0xbd279ace	-0.040919118
11	0x3da15c41	0.07878924
12	0x3cdc1b0f	0.026868371
13	0x3d527c58	0.051388115
14	0xbd0a4e05	-0.03376581
15	0x3b443293	0.002993737
16	0x3d0455e4	0.032308474
17	0xbc850736	-0.01623879
18	0x3ce140ac	0.027496658
19	0xbd9e286f	-0.07722556
20	0xbc96d5d5	-0.01841251
21	0x3c24b193	0.010052103
22	0x3c0a874b	0.008455108
23	0xbdb589f2	-0.088642016
24	0x3dfa844b	0.12232264
25	0x3d812e45	0.06307653
26	0xbc28fd9c	-0.010314371
27	0xbcbf5ee3	-0.023360675
28	0x3d75a30d	0.05996995
29	0xbb8534f0	-0.0040651485
30	0x3cab3d3d	0.020903224
31	0x3c79444a	0.015214035
32	0x3e219591	0.15779711
33	0x3d517b6e	0.051143102
34	0x3ddd2247	0.107975535
35	0x3b4473b6	0.0029976196
36	0xbdf9a94e	-0.121904954
37	0xbcaf0f29	-0.021369534
38	0x3d4606c1	0.048346285
39	0x3a10f36a	0.00055294356
40	0x3dc8ff1b	0.098142825
41	0xbdb86d3c	-0.0900521
42	0xbd6557bb	-0.05599187
43	0xbc80d5e7	-0.015726997
44	0x3d315621	0.04329503
45	0x3c5d71c9	0.013515898
46	0xbd28358d	-0.041066695
47	0x3bf3b4d1	0.0074373265
48	0x3cc3e0c9	0.023910897
49	0xbe9d6bf5	-0.30746427
50	0xbcc401ff	-0.023926733
51	0xbcb7658f	-0.022387294
52	0x3ca5d25a	0.020241905
53	0x3dcdd7f2	0.10050954
54	0xbd6aaaa5	-0.057291646
55	0x3c8d4b97	0.017247958
56	0x3caee326	0.021348547
57	0xbc889236	-0.016671281
58	0x3e0760ac	0.13220471
59	0xbd351eee	-0.04421895
60	0x3b0ce9c5	0.0021501642
61	0xbc7d8655	-0.015473922
62	0xbc829677	-0.015940888
63	0x3c99bf9a	0.01876812
64	0xbd8e5f63	-0.06951787
65	0x3ac99df6	0.0015382159
66	0x3aed0ecc	0.0018086075
67	0xbe10e617	-0.14150272
68	0xbd10ae2e	-0.03532236
69	0x3d81e135	0.06341783
70	0x3cd115c6	0.025523078
71	0x3c9de745	0.019275317
72	0x3d51d311	0.05122668
73	0x3d15d044	0.03657557
74	0x3b785cca	0.0037897103
75	0x3ccde3c6	0.025133025
76	0x3dbfc4a6	0.093636796
77	0xbc135e8d	-0.008994711
78	0xbdd40088	-0.10351664
79	0x3cbabc3a	0.022794832
80	0x3dc780ce	0.097413644
81	0xbd45ffd9	-0.0483397
82	0x3daeffcd	0.08544884
83	0xbd168db7	-0.036756244
84	0x3d571e3d	0.05251907
85	0x3cdf700d	0.02727511
86	0xbd4de320	-0.05026543
87	0xbdc9273e	-0.09821938
88	0x3ce88014	0.028381385
89	0xbd02679a	-0.031837083
90	0xbd5dcf0c	-0.054152533
91	0x3d0f1a21	0.034937028
92	0x3d30025a	0.042970993
93	0xbdb64462	-0.08899762
94	0x3d4cdd3d	0.050015677
95	0xbc7fd23f	-0.015614091
96	0x3d779157	0.06044134
97	0xbd83980c	-0.06425485
98	0x3dabce42	0.0838895
99	0xbdd66669	-0.10468752
100	0x3da73086	0.08163552
101	0x3d86c622	0.065807596
102	0x3dcb3596	0.0992233
103	0x3d7976a5	0.060904164
104	0xbcc5aaad	-0.024129236
105	0xbd0da1ef	-0.03457826
106	0xbd6ac46f	-0.05731624
107	0xbd56c75a	-0.05243621
108	0xbd338145	-0.043824453
109	0xbd59c17c	-0.053163037
110	0x3cc9092d	0.024540508
111	0xb989c12a	-0.00026274595
112	0xbe1a818d	-0.15088482
113	0x3ccf2494	0.025285996
114	0xbe010f70	-0.12603545
115	0x3cafc81f	0.02145773
116	0xbd7933c3	-0.06084038
117	0x3d24e527	0.0402576
118	0xbc063c02	-0.008193018
119	0x3bd7a158	0.006580513
120	0x3db6f4d9	0.0893342
121	0x3cbd74be	0.023126956
122	0xbd17fe10	-0.037107527
123	0xbda1c8b0	-0.07899606
124	0xbd6e369e	-0.058157556
125	0xbd74539d	-0.059650052
126	0xbda0da44	-0.07854131
127	0xbc331bee	-0.010931952
128	0xbd650fba	-0.0559232
129	0x3d078d5e	0.033093803
130	0x3d40e14c	0.04708986
131	0xbc88a9a1	-0.016682448
132	0x3d87bc91	0.06627763
133	0xbdc3e4e0	-0.09565139
134	0xbde82023	-0.113342546
135	0x3da82a2d	0.082111694
136	0x3e06e389	0.13172735
137	0xbd2236e7	-0.03960314
138	0x3d141b6c	0.036158964
139	0x3e1ff182	0.15619472
140	0xbbb8d19b	-0.0056402213
141	0xbd24fed5	-0.04028209
142	0xbbc027df	-0.005864128
143	0xbdba6dde	-0.09102987
144	0x3d4886a7	0.04895654
145	0xbc2cad33	-0.010539341
146	0xbcc6080e	-0.024173763
147	0x3cdda88a	0.027057905
148	0x3c8b51ed	0.017006839
149	0xbbf6dadb	-0.007533414
150	0xbc8a9741	-0.016917827
151	0xbd4f3843	-0.050590765
152	0xbd1e57bf	-0.0386579
153	0x3de0a59e	0.10969089
154	0xbd9e3b84	-0.077261955
155	0xbd15d8ed	-0.03658383
156	0x3d5021a5	0.050813336
157	0x3d46ff0b	0.04858307
158	0xbd9a07b9	-0.07521004
159	0x3dfbe58d	0.12299643
160	0x3d44ef24	0.048079625
161	0xbe3c1f44	-0.18371302
162	0xbb542a1a	-0.0032373727
163	0x3d61ab97	0.05509528
164	0x3b0c02ab	0.0021363895
165	0x3dc44e7f	0.095852844
166	0xbd898104	-0.06714061
167	0xbd1f6cb1	-0.038922016
168	0xbd8efaab	-0.06981405
169	0xbccc14e0	-0.024912298
170	0xbd7b24e7	-0.06131449
171	0x3d63f824	0.055656567
172	0x3dfb50fe	0.122713074
173	0xbd3fb1e9	-0.046800528
174	0x3d40863b	0.047003012
175	0x3d80bcb7	0.062859945
176	0x3ad248fb	0.0016043478
177	0xbcbb0b85	-0.022832641
178	0x3dc7b386	0.09751038
179	0x3d4e4773	0.050361108
180	0x3d822a10	0.06355679
181	0xbd90e5b6	-0.07075064
182	0xbce37ec7	-0.027770413
183	0xbd10fc28	-0.035396725
184	0xbe182f06	-0.14861688
185	0x3caf4d84	0.021399267
186	0xbcaad0c0	-0.020851493
187	0xbc3ef41b	-0.011654879
188	0x3c4424ab	0.011971633
189	0x3dcdb028	0.10043365
190	0x3d001eb6	0.03127929
191	0xbd08a894	-0.033363894
192	0xbd5abf51	-0.05340511
193	0x3e18475b	0.1487097
194	0x3cd01fee	0.02540585
195	0x3ce6a7af	0.02815613
196	0xbb085db1	-0.0020807798
197	0x3cf9941c	0.030466132
198	0x3c7ac658	0.015306078
199	0x3e03888f	0.12845062
200	0x3b45a708	0.0030159373
201	0xbb92ee71	-0.004483991
202	0xbe4d1d0d	-0.20030613
203	0x3db7c107	0.08972364
204	0xbd933d39	-0.07189412
205	0x3ce6b8ed	0.028164351
206	0xbd0d9f59	-0.034575794
207	0x3d12a718	0.035803884
208	0xbc6e63cd	-0.014550162
209	0x3d389c54	0.04507096
210	0x3d49a0db	0.04922567
211	0xbe35ea03	-0.1776505
212	0x3c60ec66	0.013728237
213	0xbdc1a6a0	-0.09455609
214	0xbd4b0237	-0.04956266
215	0xbc16fc22	-0.009215387
216	0x3c16ea05	0.009211068
217	0xbcbc4bc5	-0.022985348
218	0x3b3b4c4b	0.002857941
219	0x3d4978e0	0.04918754
220	0x3ec6e87a	0.3884924
221	0x3da459b1	0.0802492
222	0xbd59479a	-0.0530468
223	0xbcae2a31	-0.021260353
224	0x3c93823e	0.01800644
225	0xbd6c42c8	-0.057680875
226	0x3d4ed4a4	0.05049576
227	0x3cbfbaf2	0.023404572
228	0xbd217e99	-0.039427374
229	0xbe3aa257	-0.1822599
230	0x3e068013	0.13134794
231	0xbd537e7a	-0.05163429
232	0x3c09332d	0.008374018
233	0x3d00969b	0.03139363
234	0xbdbd0478	-0.09229368
235	0x3e0bf901	0.13669206
236	0x3d23fb19	0.040034387
237	0x3a95aadb	0.0011418717
238	0xbc31072a	-0.010804931
239	0x3ba16f40	0.004926592
240	0xbd4e1a81	-0.050318245
241	0xbd99fbc4	-0.075187236
242	0xbd5e90d2	-0.05433733
243	0x3c574e0f	0.013141169
244	0xbd1920d9	-0.03738484
245	0xba55910a	-0.00081469177
246	0x3deff2f7	0.11716264
247	0x3d466410	0.04843527
248	0x3ce63eae	0.02810606
249	0xbd1b7e21	-0.037962083
250	0x3dd436d3	0.103620194
251	0xbccf8995	-0.025334159
252	0xbdc95ec3	-0.098325275
253	0x3ba4d39e	0.0050301095
254	0x3cbb07e6	0.022830915
255	0xbbd812e3	-0.0065940483

predictor/fc1/b f4 [512]
0	0xbcfa0fd2	-0.030525122
1	0x3c4a77ea	0.012357691
2	0x3d191a1c	0.037378415
3	0xbceb8d1f	-0.028753815
4	0x3ca3fb16	0.020017188
5	0xbc10981a	-0.008825326
6	0x3c2d177a	0.010564679
7	0xbc699768	-0.0142572895
8	0x3d1f2862	0.03885687
9	0x3cf3ab16	0.029744666
10	0x3cecbc25	0.028898308
11	0x3c8478e3	0.016170925
12	0x3cef8a39	0.029240714
13	0xbc54144f	-0.012944295
14	0x3d4fe016	0.050750814
15	0xbce6f22a	-0.028191645
16	0x3d41e2f0	0.047335565
17	0x3c2fe9b2	0.01073687
18	0x3d7fab6b	0.062419336
19	0xbc1e3dfd	-0.009658334
20	0xbc789c66	-0.015174007
21	0xbd32b5f8	-0.04363057
22	0x3d0c7f41	0.034301046
23	0xbd8210c9	-0.06350858
24	0x3d281b55	0.04104169
25	0xbc761bc3	-0.015021267
26	0x3dc939ce	0.098254785
27	0xbd1e71b8	-0.03868267
28	0xbb7eb463	-0.0038864843
29	0x3db9cfb0	0.09072816
30	0xbc4b2566	-0.012399053
31	0xbd3374f4	-0.043812707
32	0x3cb646d7	0.022250576
33	0xbd7bfeae	-0.06152218
34	0x3ce1f1ca	0.027581114
35	0x3cc4e12d	0.024033153
36	0x3d013268	0.03154221
37	0xbcd55c2f	-0.026044933
38	0xbcde9efc	-0.027175419
39	0x3d369292	0.044573374
40	0x3cfd96d0	0.030955702
41	0x3c826543	0.015917426
42	0x3d80f8e6	0.062974736
43	0xbd1f7d16	-0.03893765
44	0xbd532897	-0.05155238
45	0x3dc3134b	0.09525164
46	0x3c902176	0.01759408
47	0xbcb9c507	-0.022676958
48	0x3d0d6008	0.03451541
49	0x3d617c52	0.0550502
50	0x3d8619bf	0.065478794
51	0xbca8597b	-0.02055048
52	0x3c7b28b4	0.015329529
53	0x3d4cc705	0.049994487
54	0xbc0bea8a	-0.008539805
55	0x00000000	0.0
56	0xbbc488bd	-0.005997746
57	0x3d933028	0.071869195
58	0x3d9b9b3a	0.075979665
59	0x00000000	0.0
60	0x3d4bc581	0.0497489
61	0x3b98dd7e	0.004665076
62	0x3d5c54bb	0.053791743
63	0x3cf03c8d	0.029325748
64	0xbd2dfe2c	-0.042478725
65	0x3c95bd78	0.018278822
66	0xbbf4a5d8	-0.007466059
67	0xbd1f7ad4	-0.038935497
68	0xbc26174f	-0.010137393
69	0xbd720077	-0.059082475
70	0xbd734a04	-0.05939676
71	0x3b573eee	0.0032843906
72	0xbd6a7bfe	-0.057247154
73	0x3d6428cb	0.055702966
74	0x3d6c17c2	0.057639845
75	0x3c92526a	0.017861564
76	0x3cce21d0	0.025162607
77	0xbd4696fa	-0.048483826
78	0xbd2f83bb	-0.042850237
79	0x3d0fe362	0.03512896
80	0xbce89222	-0.028389994
81	0x3c2d164b	0.010564397
82	0x3d92028d	0.07129393
83	0x3c4170ab	0.011806647
84	0xbc7ad04e	-0.015308453
85	0x3cec6b8b	0.028859874
86	0x3ce19640	0.027537465
87	0x3c97ce03	0.018530851
88	0xbc9af3ab	-0.018915018
89	0x3d1d4a71	0.03840107
90	0xbbc4b6ab	-0.006003221
91	0x3c984f59	0.018592523
92	0x3c46dd02	0.012137653
93	0xbc97df12	-0.018538985
94	0xbd03a7a2	-0.03214229
95	0xbdf74ce1	-0.1207521
96	0xbb35f388	-0.0027763564
97	0x3da9def3	0.08294477
98	0xbccfa547	-0.025347365
99	0x3b43de63	0.0029887191
100	0xbd5da044	-0.05410792
101	0xbdb33dcd	-0.08752022
102	0x3b73a143	0.0037174977
103	0xbcbfc4de	-0.023409303
104	0xbd58df46	-0.052947305
105	0xbc953d74	-0.01821778
106	0x3d66b9b0	0.05632943
107	0x3dcacdc7	0.0990253
108	0xbcd7fe82	-0.026366476
109	0x00000000	0.0
110	0xbcb10228	-0.021607473
111	0x3d61c98c	0.05512385
112	0x3d85d8d4	0.06535497
113	0xbd28bd8f	-0.041196402
114	0xbc389859	-0.011266791
115	0x3dd3915b	0.10330459
116	0xbda73d4d	-0.08165989
117	0xbd760ed2	-0.060072728
118	0xbd05d12e	-0.032670192
119	0xbbaba006	-0.005237582
120	0xbd42b7d3	-0.04753859
121	0xbd099659	-0.03359065
122	0x3cdf1b82	0.027234796
123	0x3c5a74f0	0.013333544
124	0xbdb21fe8	-0.08697492
125	0x3d7dca54	0.061960533
126	0xbcba852e	-0.022768583
127	0x3c02c57e	0.007981656
128	0x00000000	0.0
129	0x3b6b3e3c	0.003589525
130	0x3d478142	0.048707254
131	0x00000000	0.0
132	0xbd0939be	-0.033502333
133	0x3cbc83bc	0.023012035
134	0xbda247b1	-0.0792383
135	0x3d13e0f7	0.036103215
136	0xbb439e46	-0.0029848977
137	0x3d3cc690	0.0460878
138	0xbd04b33c	-0.032397494
139	0xbb7c873d	-0.0038532757
140	0x3d730c5d	0.059337962
141	0xbc2bccd3	-0.010485846
142	0xbda397e3	-0.079879545
143	0xbd5ceb7d	-0.053935517
144	0x3d2b085e	0.041756026
145	0xbd4411ac	-0.047868416
146	0x3c60a6e0	0.013711661
147	0xbce7e10e	-0.028305557
148	0x3ce296e6	0.027659845
149	0x3d376671	0.04477543
150	0x3d4cb013	0.049972605
151	0x3d863db3	0.06554737
152	0x3c485c48	0.012229033
153	0x3d7ad0ad	0.061234165
154	0xbda16b58	-0.07881802
155	0x3c0b5dd2	0.008506255
156	0x00000000	0.0
157	0x3d2df2ab	0.042467754
158	0x3d727553	0.05919392
159	0xbbf497c1	-0.0074643795
160	0x3d8bd78d	0.068282224
161	0x3d40fa52	0.047113724
162	0xbdbf9e74	-0.093563944
163	0x3d20eba5	0.039287228
164	0x3d70027d	0.058596123
165	0x3c1531f9	0.009106153
166	0xbd91c559	-0.07117719
167	0x3d2dc86f	0.042427476
168	0xbd4301e5	-0.04760923
169	0xbcfcda43	-0.030865794
170	0x3d0caf98	0.034347147
171	0x3d21be00	0.03948784
172	0xbd7d8d03	-0.061902057
173	0x3ce51cd1	0.027967842
174	0xbd1035f8	-0.03520772
175	0xbcd20c62	-0.02564067
176	0x3bd833ca	0.0065979706
177	0xbd8a1d6f	-0.06743895
178	0x3dce54ae	0.10074745
179	0x3d74309c	0.05961667
180	0x3b51e699	0.0032028316
181	0xb835b962	-4.3326414e-05
182	0xbd14dcba	-0.036343314
183	0xbb0552aa	-0.002034346
184	0x3dafcac9	0.085836
185	0xbd2e6b42	-0.042582758
186	0x3cffe741	0.0312382
187	0x3c708c4f	0.01468189
188	0x3cfe6a77	0.031056626
189	0xbb677eea	-0.003532345
190	0xbd09a349	-0.033602986
191	0x3b586cd9	0.0033023863
192	0x3d00f785	0.031486053
193	0x3be51149	0.006990586
194	0x3d34666c	0.04404299
195	0xbc94af44	-0.01814998
196	0x3d3fe6da	0.046851017
197	0xbc141828	-0.009038962
198	0xbd0f4497	-0.03497752
199	0xbbd38a04	-0.0064556617
200	0x00000000	0.0
201	0xbc10db9a	-0.00884142
202	0x3ddf9015	0.10916153
203	0x3d519acf	0.051173028
204	0xbc0b164f	-0.0084892055
205	0x3d7bf592	0.06151349
206	0xbd2f310d	-0.042771388
207	0xbd787d56	-0.060666405
208	0xbc66276c	-0.014047485
209	0x3d57dfc4	0.052703634
210	0xbdbef859	-0.09324712
211	0x3da8d118	0.082430065
212	0xbdb38c12	-0.08766951
213	0x3ddf59ca	0.10905798
214	0x3d110aef	0.035410818
215	0x3d51d277	0.051226106
216	0x3bb532ea	0.005529751
217	0x3caa0e97	0.02075891
218	0xbd1bc01b	-0.038025003
219	0xbc182530	-0.00928621
220	0xbd28c676	-0.041204892
221	0xba94717f	-0.0011325328
222	0xbcc2f113	-0.023796594
223	0xbb894d70	-0.0041901395
224	0x00000000	0.0
225	0xbd04d2db	-0.03242765
226	0xbd2304d6	-0.039799534
227	0xbc2d2a75	-0.010569205
228	0x3d7b2901	0.0613184
229	0xbbdd59d7	-0.0067550945
230	0xbd338ba9	-0.043834362
231	0x00000000	0.0
232	0xbdadd68f	-0.084881894
233	0xbd79fef8	-0.061034173
234	0x3d7745b8	0.060369223
235	0xbdacbfed	-0.084350444
236	0x3ca8e5fc	0.020617478
237	0xbd424ee9	-0.047438536
238	0xbaa92a3d	-0.0012906265
239	0xbda4d4ad	-0.08048377
240	0xbbfd6ba7	-0.0077337804
241	0x3d9dfbfb	0.07714077
242	0xbd2f13ae	-0.042743377
243	0x3d8f3526	0.06992559
244	0x3d3fcca9	0.04682604
245	0xbaa86ffe	-0.0012850759
246	0x3c05ac81	0.008158804
247	0xbd8122b3	-0.063054465
248	0xbd1fcd8a	-0.039014377
249	0xbc945059	-0.018104719
250	0xbd24ae4a	-0.040205278
251	0xbd6d0459	-0.057865474
252	0x3cdb9741	0.026805522
253	0x3d75e3e2	0.06003178
254	0xbca8d7d8	-0.020610735
255	0x3dd7e727	0.10542136

predictor/fc1/W f4 [512, 32]
0	0x3dc4c277	0.09607404
1	0x3dece549	0.1156717
2	0x3e8d0e0c	0.2754978
3	0x3d455e9b	0.048185926
4	0x3e0de751	0.13857771
5	0x3e75f1fe	0.24018094
6	0xbda94a75	-0.08266155
7	0xbe0ca57e	-0.13735005
8	0xbd4481ff	-0.047975536
9	0x3e49d56f	0.19710325
10	0x3e0b8e41	0.13628484
11	0x3e347635	0.17623217
12	0xbec51411	-0.38491872
13	0x3d8aaed3	0.06771626
14	0x3de871bb	0.11349817
15	0x3f02f0f3	0.5114891
16	0x3cb376d9	0.021907257
17	0xbd9f9230	-0.07791555
18	0x3e025771	0.12728669
19	0x3db4d632	0.08829917
20	0x3e1a0d47	0.15044127
21	0x3dbc3d27	0.091913514
22	0x3dd5db0d	0.10442171
23	0xbec3d489	-0.3824809
24	0xbe2afd39	-0.1669816
25	0x3ea367d3	0.3191515
26	0xbe9b1d25	-0.30295673
27	0x3cb17518	0.02166228
28	0x3d784ec9	0.06062201
29	0xbe3eab96	-0.18620142
30	0x3e780c62	0.24223474
31	0x3e9f37c5	0.31097236
32	0xbe1a479e	-0.15066382
33	0x3e0ffdcd	0.14061661
34	0x3dd9bf32	0.10632171
35	0xbd4e3ec8	-0.05035284
36	0x3d968227	0.07349043
37	0x3aad46c1	0.0013219939
38	0x3dcc1d9d	0.09966586
39	0x3e201341	0.15632345
40	0xbd91a2e2	-0.071111456
41	0xbd80f309	-0.06296355
42	0x3dbc9fe4	0.09210184
43	0x3d925d79	0.07146735
44	0xbd58044c	-0.052738473
45	0x3dd56a45	0.1042066
46	0x3e40f021	0.18841602
47	0x3e7fcc8f	0.24980377
48	0x3e0be853	0.13662843
49	0xbe7c11fb	-0.24616234
50	0x3e6acc84	0.22929579
51	0x3ebcbe34	0.36863863
52	0x3e189fe3	0.14904742
53	0x3eac3f7c	0.33642185
54	0x3bfa9af4	0.0076478664
55	0xbd8bf410	-0.068336606
56	0xbdcb379f	-0.09922718
57	0x3e141cff	0.14464186
58	0xbd987ac5	-0.074452914
59	0xbd453ca3	-0.04815353
60	0xbc9d9461	-0.019235792
61	0xbe750e2a	-0.23931184
62	0x3ec525e2	0.38505465
63	0x3cf02970	0.029316634
64	0x3e7c6815	0.24649079
65	0x3d882fd7	0.0664975
66	0x3e7f4042	0.24926856
67	0x3d8538fb	0.06505009
68	0x3e972410	0.295197
69	0x3da6a73c	0.08137366
70	0x3d91d2ba	0.07120271
71	0xbc15a04e	-0.009132458
72	0x3ecfc1d5	0.4057757
73	0x3dfe5137	0.12417834
74	0x3dd1ed0f	0.102502935
75	0x3e3b01f9	0.18262471
76	0xbe3fb33d	-0.18720718
77	0x3cd16512	0.02556089
78	0x3e505aa0	0.2034707
79	0xbe8c0e44	-0.27354634
80	0x3e28cf3c	0.16485304
81	0x3e115b73	0.14195041
82	0xbde026f5	-0.109449305
83	0xbeab84dc	-0.334998
84	0xbf0e1367	-0.55498356
85	0xbd4850ba	-0.04890511
86	0xbedaf68c	-0.42766225
87	0x3ca2ce76	0.019873839
88	0xbd2958cd	-0.041344453
89	0xbe0bb747	-0.13644134
90	0x3d121e3c	0.035673365
91	0xbeebfcf2	-0.4609142
92	0xbe8a603b	-0.27026543
93	0x3d938811	0.07203687
94	0xbe840102	-0.2578202
95	0x3e885090	0.26623964
96	0x3eda2d91	0.4261289
97	0xbe26fd7a	-0.16307631
98	0x3d533c5e	0.051571243
99	0xbd302fec	-0.04301445
100	0x3c7b0000	0.015319824
101	0x3e3d4213	0.18482237
102	0xbe08362d	-0.13301916
103	0xbcf2146c	-0.029550754
104	0x3dece102	0.11566354
105	0xbe47f490	-0.19526887
106	0xbe225123	-0.15851264
107	0xbf14b448	-0.5808759
108	0xbd73288c	-0.05936484
109	0xbdfb1750	-0.12260306
110	0xbe7dfd99	-0.24803771
111	0xbe265566	-0.16243514
112	0xbd8c0e59	-0.06838674
113	0xbc09f493	-0.008420127
114	0x3e2d313f	0.16913317
115	0xbdf2d947	-0.118578486
116	0xbea997d7	-0.33123657
117	0x3e09920b	0.13434617
118	0xbd450cc0	-0.048107862
119	0x3d787379	0.060657
120	0x3e313f43	0.17309289
121	0xbe9ffb2d	-0.3124632
122	0xbdd8009b	-0.105469905
123	0xbe502107	-0.20325099
124	0xbc857b3e	-0.016294118
125	0x3df0eee4	0.11764315
126	0x3d15df20	0.03658974
127	0xbd50ca3d	-0.05097412
128	0x3f0ad52f	0.5423154
129	0xbe622d12	-0.22087505
130	0x3d5b13b8	0.053485602
131	0xbc7b6d2a	-0.015345851
132	0xbe621e8c	-0.22081965
133	0xbd4c1752	-0.049826927
134	0xbe8702d4	-0.26369345
135	0xbe553452	-0.2082074
136	0x3edd3819	0.43206862
137	0x3e906e23	0.28209028
138	0xbf040c6a	-0.5158144
139	0x3dac3216	0.08407991
140	0xbd937563	-0.07200124
141	0x3e8ae8e5	0.2713081
142	0xbd94b851	-0.07261718
143	0xbe7c6b72	-0.24650362
144	0x3dd1edfe	0.102504715
145	0xbd82a617	-0.063793354
146	0xbd9fd562	-0.078043714
147	0xbe3e3fda	-0.18579045
148	0x37c30cd7	2.325179e-05
149	0x3e71b728	0.23605025
150	0xbe562153	-0.2091115
151	0xbe0c407c	-0.13696474
152	0xbe62bea4	-0.22143036
153	0xbe15c901	-0.14627458
154	0xbcc023f0	-0.023454636
155	0xbe44e399	-0.19227447
156	0xbdc4ee5c	-0.09615776
157	0x3e49bf0f	0.1970179
158	0xbe6b84ae	-0.22999832
159	0x3e36bd7b	0.17845719
160	0xbdcc3e51	-0.099728234
161	0xbe936656	-0.28789014
162	0xbe7e1e99	-0.2481636
163	0x3ccac442	0.024751786
164	0x3d9ac553	0.07557168
165	0xbcbfa95c	-0.023396187
166	0xbd4cc82e	-0.049995594
167	0x3f04dbae	0.51897705
168	0x3d93a383	0.07208922
169	0xbd2ba728	-0.04190746
170	0xbdad79a4	-0.08470467
171	0xbe444f9c	-0.19170994
172	0xbd5e9d27	-0.05434909
173	0xbe8ce4b8	-0.2751825
174	0xbe930f2e	-0.2872252
175	0x3e0d7522	0.13814214
176	0x3c5c438e	0.013443841
177	0xbc95ccce	-0.018286135
178	0x3de0bdb2	0.109736815
179	0x3bb8cecc	0.0056398865
180	0x3d87bb78	0.06627554
181	0xbe7bfd0b	-0.24608247
182	0x3d5e49ca	0.05426959
183	0x3e25d5de	0.16194865
184	0x3d162e14	0.036665037
185	0xbd74cf7e	-0.059768192
186	0xbdfe1d16	-0.124078915
187	0xbcd013dd	-0.025400097
188	0x3df87482	0.12131597
189	0x3e579d8e	0.21056196
190	0xbe8b65b6	-0.27226037
191	0x3cde74fd	0.027155394
192	0xbea32f47	-0.31872007
193	0x3ee891f0	0.4542384
194	0xbd2d339f	-0.042285558
195	0x3e1bc32d	0.15211172
196	0xbe4abdf6	-0.19799027
197	0x3dbc66c2	0.09199287
198	0xbcc5ba98	-0.024136826
199	0xbe950192	-0.2910276
200	0xbde399a7	-0.11113291
201	0xbe4dcbe6	-0.20097312
202	0xbdd3a382	-0.10333921
203	0xbdd91889	-0.10600383
204	0xbe64d0cb	-0.22345273
205	0xbe0d6aa5	-0.13810213
206	0x3e1bc66f	0.15212415
207	0x3de019c7	0.10942417
208	0xbe9a3551	-0.30118802
209	0x3e22a756	0.15884146
210	0xbe14fc74	-0.14549428
211	0xbd1a0e1c	-0.037611112
212	0xbcb454ba	-0.022013057
213	0x3f056658	0.5210929
214	0xbe193115	-0.1496013
215	0x3d80ba59	0.06285543
216	0xbe5348dd	-0.20633264
217	0x3daef157	0.08542126
218	0x3eba929d	0.36439982
219	0x3efbfa96	0.4921462
220	0x3dfddffa	0.12396236
221	0xbe90b6d7	-0.28264496
222	0x3e45901c	0.19293255
223	0xbecacd6a	-0.39609843
224	0x3e2e5266	0.1702362
225	0xbe1ea8ac	-0.1549403
226	0xbe89f3b6	-0.2694375
227	0xbe37fb53	-0.17966966
228	0xbe8ae87e	-0.27130502
229	0xbcf408ea	-0.029789407
230	0xbdb543c2	-0.088508144
231	0x3e0144ea	0.12623945
232	0xbea51840	-0.32245064
233	0x3d7419b7	0.059594836
234	0xbe29c594	-0.16579276
235	0xbbdce062	-0.0067406157
236	0x3e47b44c	0.19502372
237	0x3ea2cde2	0.317977
238	0x3dd4d90f	0.10392963
239	0x3da5d4fa	0.08097263
240	0x3ce47a74	0.027890421
241	0x3e3bcf05	0.1834069
242	0x3db82db5	0.08993093
243	0x3f11560a	0.5677191
244	0x3e869c98	0.26291347
245	0xbe7fd66b	-0.24984138
246	0x3e2a9b22	0.16660741
247	0x3e0ab2a7	0.13544713
248	0xbe6a0e9f	-0.2285714
249	0xbe07cfb1	-0.13262822
250	0x3e98fba5	0.2987949
251	0x3e2b7a72	0.16745928
252	0xbdf3240b	-0.11872109
253	0x3e44bc85	0.1921254
254	0x3c34b7c9	0.011030146
255	0x3e3b89ec	0.18314332

predictor/fc2/b f4 [3]
0	0xbdaf0e3e	-0.08547638
1	0x3dca1ded	0.09868989
2	0xbd2185b7	-0.03943416

predictor/fc2/W f4 [3, 512]
0	0xbd7b2195	-0.061311323
1	0xbc191d6b	-0.009345393
2	0x3ce95ff8	0.028488144
3	0xbe4e0f4a	-0.2012302
4	0x3d5ec5f6	0.05438801
5	0xbdd15975	-0.10222141
6	0xbd8c31c3	-0.06845429
7	0x3dfd8cdf	0.12380385
8	0xbdba1443	-0.09085896
9	0xbe874f8a	-0.2642787
10	0xbe7e8400	-0.24855042
11	0x3db6f894	0.08934131
12	0x3d867b40	0.06566477
13	0x3d192230	0.03738612
14	0xbe57fc1b	-0.21092264
15	0x3e1f9cb5	0.15587123
16	0xbee0de2b	-0.439195
17	0x3e43dc0f	0.19126914
18	0x3e34ca78	0.1765536
19	0xbe44309f	-0.19159172
20	0x3e2edcb3	0.17076378
21	0x3d4d1bac	0.050075218
22	0xbe5f8c20	-0.21830797
23	0x3e1bc8db	0.15213339
24	0xbe3fc0cd	-0.18725891
25	0x3de250c2	0.110505596
26	0xbe44e269	-0.19226994
27	0x3c41c810	0.011827484
28	0xbde5f6e0	-0.11228728
29	0xbe63d97a	-0.2225093
30	0xbe03f724	-0.12887245
31	0x3e4d97be	0.20077416
32	0xbe665a9e	-0.22495505
33	0x3e60c250	0.21949124
34	0xbe313193	-0.17304067
35	0x3e81c41f	0.2534494
36	0xbdeee079	-0.116639085
37	0x3e729523	0.23689704
38	0x3d5b6f6a	0.05357305
39	0xbe1b2529	-0.15150894
40	0xbeb9f519	-0.36319807
41	0x3dd2e810	0.10298169
42	0xbe3976cd	-0.18111725
43	0x3e74df94	0.23913413
44	0x3c8f3283	0.01748014
45	0xbe88ee75	-0.26744428
46	0x3e3061da	0.17224827
47	0xbd5d95d9	-0.054097984
48	0xbd8421ba	-0.06451745
49	0xbdab1986	-0.083544776
50	0x3d9cb658	0.07651967
51	0x3e250ee1	0.16118957
52	0x3e2ecf92	0.1707137
53	0x3ce40256	0.027833145
54	0xbd317871	-0.043327753
55	0xbd8ff710	-0.07029545
56	0x3cecc210	0.02890113
57	0xbe3c3214	-0.18378478
58	0xbe50e854	-0.20401126
59	0x3d6ab110	0.057297766
60	0xbde5c7a7	-0.11219721
61	0xbcfec0ae	-0.031097736
62	0x3da3c9f4	0.07997504
63	0xbdacea01	-0.0844307
64	0x3d3c05df	0.045904037
65	0x3d3af2f1	0.045641843
66	0xbe32d713	-0.17464857
67	0x3e636567	0.2220665
68	0xbcedeb8a	-0.029042978
69	0xbc3d3205	-0.01154757
70	0x3e3c3049	0.18377794
71	0x3e03771a	0.12838402
72	0x3e58d15d	0.21173616
73	0xbe20b6c9	-0.15694727
74	0xbeebe33b	-0.460718
75	0x3d84be98	0.064816654
76	0xbeb29ddf	-0.3488607
77	0x3d36a46d	0.044590402
78	0x3e1f7166	0.15570602
79	0xbe1e4a4e	-0.15458032
80	0x3aba213b	0.0014200577
81	0x3c7b0acc	0.015322398
82	0xbe571f13	-0.21007948
83	0xbe21ba25	-0.15793665
84	0xbd855294	-0.06509891
85	0xbe0efa54	-0.1396268
86	0x3e02234c	0.12708777
87	0x3e03e08f	0.12878631
88	0xbe349048	-0.17633164
89	0xbde50c33	-0.111839674
90	0xbccab81a	-0.02474599
91	0x3d806a49	0.06270272
92	0xbdcb2bd1	-0.09920467
93	0xbbfd2258	-0.0077250414
94	0x3cac217f	0.021012066
95	0xbd89aa17	-0.06721895
96	0x3e87947a	0.26480466
97	0x3e29791c	0.16550106
98	0x3ea90a4f	0.33015677
99	0x3d763559	0.06010947
100	0xbd124ad3	-0.03571589
101	0x3e7d7b24	0.24754006
102	0x3df5832a	0.11987908
103	0x3e0217c1	0.12704374
104	0xbcd7ce93	-0.02634362
105	0xbc87fa8f	-0.016598968
106	0x3df06113	0.117372654
107	0xbeb10a17	-0.3457801
108	0x3e3d58dc	0.18490928
109	0xba47f56c	-0.0007627818
110	0x3e2dd915	0.16977341
111	0xbe6afa66	-0.22947082
112	0xbe9ff4e0	-0.31241512
113	0x3e128375	0.1430796
114	0xbc80a2c9	-0.015702622
115	0xbe92b169	-0.28650978
116	0x3dec5040	0.11538744
117	0x3e3af5ce	0.1825783
118	0x3d5cada2	0.053876527
119	0xbcb9c78d	-0.022678161
120	0x3ccbfe00	0.02490139
121	0x3c8c81cf	0.017151741
122	0x3bcf62c2	0.0063289115
123	0x3e47819f	0.1948304
124	0xbc8288e9	-0.015934424
125	0xbde620bc	-0.11236712
126	0x3e042a6a	0.12906805
127	0x3e0dd86f	0.13852094
128	0x3d8a7148	0.06759888
129	0x3e9c82b1	0.3056846
130	0xbe32d22f	-0.17462991
131	0x3d14d13d	0.036332358
132	0xbca6524a	-0.02030291
133	0xbe367c18	-0.17820776
134	0x3e7106e1	0.2353778
135	0xbe140832	-0.14456251
136	0x3bfae35f	0.0076564993
137	0x3c8d5a04	0.017254837
138	0xbc0214e9	-0.007939556
139	0xbd541c15	-0.051784594
140	0xbf26a9dc	-0.65102935
141	0xbda421bd	-0.080142476
142	0x3e13f1f9	0.14447774
143	0x3de9cd67	0.114161305
144	0x3e2e4c27	0.17021237
145	0xbd7982f1	-0.06091589
146	0xbdb04e02	-0.08608629
147	0xbdc9b28a	-0.09848507
148	0x3d6d2055	0.057892162
149	0xbe44f8bb	-0.19235508
150	0xbe3f5cac	-0.18687695
151	0xbe1b6b94	-0.15177757
152	0xbd9d7852	-0.07688965
153	0x3db99020	0.09060693
154	0x3d8e97dc	0.069625586
155	0xbe1fba5c	-0.15598434
156	0x3d21461c	0.039373502
157	0x3d34c4eb	0.044133108
158	0xbe6f4ca1	-0.23369075
159	0x3c8c6f4e	0.017142918
160	0xbddbeeea	-0.107389286
161	0xbe562213	-0.20911436
162	0x3e50f58f	0.20406173
163	0xbe79faec	-0.24412125
164	0x3e0562d6	0.13025984
165	0x3e25b850	0.16183591
166	0x3eac874c	0.33696973
167	0xbe4da36c	-0.20081872
168	0x3e6c40b9	0.23071565
169	0xbd568a90	-0.052378237
170	0xbdf65af6	-0.12029068
171	0xbd92eb55	-0.07173792
172	0xbcf5936c	-0.029977523
173	0xbe57a712	-0.21059826
174	0x3e105d38	0.1409806
175	0x3e8b5886	0.27215976
176	0x3a45301c	0.00075221225
177	0xbe580b50	-0.21098065
178	0xbe83251c	-0.2561425
179	0xbeb76a84	-0.35823452
180	0x3ab7622c	0.001399105
181	0xbe05c990	-0.13065171
182	0x3da47b58	0.080313385
183	0x3e564f40	0.20928669
184	0xbe612b7e	-0.21989247
185	0x3e81bcfe	0.25339502
186	0x3dfe8f46	0.12429671
187	0x3dc6541f	0.096840136
188	0xbe79bca1	-0.24388362
189	0x3cb5478a	0.022128839
190	0x3e8dfec6	0.2773344
191	0xbe827132	-0.25476986
192	0xbe0123b9	-0.12611283
193	0x3df372c3	0.118871234
194	0xbdc30f04	-0.095243484
195	0x3e9bb1bb	0.30409035
196	0xbe497588	-0.19673741
197	0x3de75742	0.1129594
198	0xbc02f60e	-0.007993234
199	0xbd9ba964	-0.07600668
200	0x3db63ced	0.088983394
201	0x3e638dcc	0.2222206
202	0xbe60b806	-0.219452
203	0xbe2599ce	-0.16171953
204	0xbca7b748	-0.020473137
205	0xbe700ff6	-0.23443589
206	0x3e0d4622	0.13796285
207	0x3ead01d9	0.33790472
208	0x3cf60159	0.03002994
209	0x3e3021f9	0.1720046
210	0xbc5fb258	-0.01365336
211	0xbedef2e8	-0.43544698
212	0x3df2bc49	0.11852319
213	0xbe9c5eb2	-0.30540997
214	0xbe901a68	-0.28145146
215	0xbe6f9ede	-0.23400447
216	0x3da0aa50	0.078449845
217	0xbdd8e042	-0.10589649
218	0x3e29ae56	0.1657041
219	0xbccbc935	-0.024876216
220	0x3e8bacc4	0.27280247
221	0xbe4231ef	-0.1896436
222	0xbe1599ac	-0.14609402
223	0x3b158bba	0.002281888
224	0xbd4f4d66	-0.050610922
225	0x3e5db71d	0.21651883
226	0x3d8a3f95	0.067504086
227	0xbcb63f7e	-0.022247072
228	0x3dfe2d4a	0.12410982
229	0xbc66be24	-0.014083419
230	0x3e6a2264	0.22864681
231	0xbc54e7cd	-0.012994719
232	0x3e0a891a	0.13528863
233	0x3e17d22e	0.14826271
234	0xbe624e3d	-0.22100158
235	0x3e8858fa	0.26630384
236	0xbe17f770	-0.14840484
237	0xb795c420	-1.7853512e-05
238	0x3cd382d0	0.025819212
239	0xbd2a6367	-0.041598704
240	0xbe30c16a	-0.17261282
241	0xbe464796	-0.19363245
242	0xbbe6eaa4	-0.0070470143
243	0xbe2fc41e	-0.17164657
244	0xbe3d0cf9	-0.1846198
245	0xbe5107cb	-0.20413129
246	0x3d9b1a7e	0.07573412
247	0xbbb1d2f2	-0.005426758
248	0xbcf59609	-0.029978769
249	0x3d395d1e	0.04525482
250	0x3e9f9e05	0.31175247
251	0x3e6ea44b	0.2330486
252	0x3d23d2db	0.03999601
253	0xbe248bb0	-0.16068912
254	0xbe2f2da2	-0.17107251
255	0xbeb16587	-0.34647772

predictor/conv3/b f4 [32]
0	0xbd151789	-0.036399398
1	0xbc81f243	-0.01586259
2	0xbd1cdeb0	-0.03829831
3	0x3d8e18f2	0.06938352
4	0xbd2a8865	-0.041633982
5	0xbd4a8ee0	-0.049452662
6	0xbd90058c	-0.07032308
7	0xbc2e7252	-0.010647373
8	0x3d70be30	0.058775127
9	0x3cb9d762	0.02268571
10	0xbc226366	-0.009911394
11	0xbd11a3a8	-0.035556465
12	0xbce86f92	-0.028373513
13	0xbc65dd57	-0.014029822
14	0xbc9d64c3	-0.019213086
15	0x3d3e5d19	0.046475504
16	0xbd3924ab	-0.045200985
17	0xbd218d86	-0.039441608
18	0xbd41641b	-0.04721461
19	0xbbda0ffd	-0.006654738
20	0x3c8e8219	0.01739602
21	0x3d3b94b4	0.04579611
22	0xbd2d59e0	-0.04232204
23	0xbc63c085	-0.013900881
24	0xbca37bc5	-0.019956479
25	0x3d0633e3	0.032764327
26	0xbd628db2	-0.055310912
27	0xbd0f7835	-0.035026748
28	0xbc8f8841	-0.017521026
29	0xbc45b373	-0.01206671
30	0xbcc183d6	-0.023622435
31	0x3d136b10	0.035990775

predictor/conv3/W f4 [32, 32, 3, 3]
0	0x3d19d833	0.0375597
1	0xbc8eb2ae	-0.017419185
2	0x3c74ff2c	0.014953416
3	0xbae6d396	-0.0017610665
4	0xbd110849	-0.035408292
5	0xbdb95b33	-0.09050598
6	0xbcd75fd5	-0.026290813
7	0x3da92d6a	0.08260615
8	0x3d4ba19d	0.049714673
9	0x3d7a77ec	0.061149523
10	0xbd2f5552	-0.042805977
11	0x3c83ec1f	0.016103802
12	0x3af353f0	0.0018564444
13	0xbdb3acbb	-0.0877318
14	0xbd64a71d	-0.055823434
15	0xbd802061	-0.06256176
16	0xbe39ae5f	-0.18132924
17	0xbd4e6489	-0.050388847
18	0x3df4f8a9	0.11961491
19	0x3dd9f14b	0.10641726
20	0xbdb12b88	-0.08650881
21	0xbd85f2b0	-0.065404296
22	0xbdc8d2e8	-0.09805852
23	0xbcea5994	-0.028607167
24	0x3c7ee0dc	0.01555654
25	0x3cd5acbf	0.026083348
26	0x3ccc5927	0.024944855
27	0x3dadff37	0.08495944
28	0xbd219c81	-0.039455894
29	0xbb6d1aff	-0.003617942
30	0xbcc83b73	-0.02444241
31	0xbdc95662	-0.09830929
32	0xbdd11fea	-0.10211165
33	0xbb3e8454	-0.0029070573
34	0xbd928649	-0.07154519
35	0x3c879765	0.016551683
36	0x3cf90961	0.03039998
37	0x3d637af6	0.055537187
38	0xbc96111d	-0.018318707
39	0x3d80a739	0.06281895
40	0x3d4e2890	0.050331652
41	0x3cf89822	0.03034598
42	0xbb84c18f	-0.0040513943
43	0x3c1402e8	0.009033896
44	0x3ba01469	0.0048852456
45	0x3dd19e91	0.10235322
46	0x3d00fe03	0.031492244
47	0x3d3f2f03	0.046675693
48	0x3becf8c1	0.007231802
49	0xbe0b6a55	-0.13614781
50	0xbd5b36e7	-0.053519156
51	0xbcb83853	-0.022487795
52	0xbe1d874f	-0.15383647
53	0xbd77222d	-0.060335327
54	0xbdbf0343	-0.09326794
55	0xbd77df85	-0.0605159
56	0x3cb1eafa	0.02171849
57	0x3d1766f5	0.03696342
58	0xbd3049e0	-0.043039203
59	0xbd0b0539	-0.033940528
60	0xbd8a4dd6	-0.06753127
61	0x3cefba65	0.029263685
62	0xbd60cf8c	-0.054885432
63	0xbd3cc8bf	-0.046089884
64	0xbe05430f	-0.13013862
65	0x3cfd38dd	0.030910904
66	0x3e12276c	0.14272851
67	0x3cdb6fcf	0.026786713
68	0xbd4810d0	-0.04884416
69	0xbcbe1b32	-0.023206327
70	0xbdcf538b	-0.101233564
71	0x3b7f24fb	0.0038931954
72	0xbda3af5f	-0.07992434
73	0xbd78bdb8	-0.060727805
74	0xbc97a682	-0.018512014
75	0x3d875906	0.06608777
76	0xbd58602b	-0.052826088
77	0x3e0c98bc	0.13730139
78	0xbd21e4e5	-0.03952493
79	0xbc70422b	-0.014664213
80	0xbe046a05	-0.12931068
81	0x3d159c12	0.036525793
82	0x3d1bc2ba	0.038027503
83	0x3dc25167	0.094881825
84	0xbcdacab2	-0.02670798
85	0x3d6c4f46	0.05769279
86	0xbb8ab5cf	-0.004233099
87	0x3c4aed92	0.012385743
88	0xbd2462f6	-0.04013344
89	0x3d22dde1	0.03976238
90	0x3d14faa9	0.03637186
91	0x3d38c715	0.045111734
92	0xbd5618a3	-0.05226959
93	0xbd358fc2	-0.04432655
94	0x3c2f2825	0.010690724
95	0x3c529054	0.012851793
96	0x3dbe38f7	0.09288209
97	0x3d05ca80	0.032663822
98	0x3ccda169	0.02510138
99	0xbd14f959	-0.03637061
100	0xbc1f86e4	-0.00973675
101	0xbca1f017	-0.019767804
102	0x3e17e5d7	0.1483377
103	0xbdf4f0ab	-0.11959966
104	0xbdcb07f8	-0.09913629
105	0xbc45c038	-0.012069754
106	0xbd767f46	-0.06017997
107	0xbe061ac0	-0.13096142
108	0xbd90b736	-0.07066195
109	0x3c7523ae	0.01496212
110	0xbd2a9860	-0.041649222
111	0x3cf33eec	0.02969309
112	0xbdd95913	-0.10612693
113	0xbe275278	-0.16340053
114	0xbd253d49	-0.04034165
115	0xbe09e47b	-0.13466065
116	0xbc18e1c4	-0.0093311705
117	0xbc108d1f	-0.008822708
118	0x3c0c2f9d	0.008556274
119	0x3cc114e4	0.023569532
120	0x3d467e7b	0.048460465
121	0x3decc2ad	0.11560569
122	0xbc4e3ab8	-0.012587242
123	0xbbfe78c7	-0.0077658626
124	0xbe1fa718	-0.15591085
125	0xbe4158f7	-0.18881594
126	0xbd69f8da	-0.05712209
127	0xbdc0595f	-0.09392046
128	0xbd08a75f	-0.033362743
129	0x3dc23c84	0.09484199
130	0xbe0a5d05	-0.13512047
131	0xbce36555	-0.02775828
132	0x3daac984	0.08339217
133	0xbdef1414	-0.116737515
134	0xbce41270	-0.027840823
135	0xbc29c2f7	-0.010361425
136	0x3b9247c0	0.0044641197
137	0x3bfcc6ef	0.0077141444
138	0x3dd5ee71	0.1044587
139	0xbdc3f765	-0.09568671
140	0x3cd0712a	0.025444586
141	0xbd4c6bab	-0.049907368
142	0xbd6f99d1	-0.0584963
143	0x3d95e4bd	0.07319019
144	0x3c2ceff5	0.010555257
145	0x3c8d73a4	0.017267056
146	0x3ce6437e	0.028108355
147	0xbb4a06f4	-0.0030826898
148	0xbd029398	-0.031879038
149	0xbc8637a6	-0.016383957
150	0xbb6c803a	-0.0036087171
151	0xbda0f3b4	-0.07858983
152	0xbdf54269	-0.11975557
153	0xbcdbc7f9	-0.026828753
154	0xbcb88778	-0.022525534
155	0x3e58f0dd	0.21185632
156	0x3d456cb3	0.048199367
157	0xbd5996c3	-0.053122293
158	0xbcad66d8	-0.021167204
159	0xbb255aec	-0.0025231196
160	0x3c0fe0a3	0.008781585
161	0x3c4e8778	0.01260554
162	0xbcb96eef	-0.022635905
163	0x3c6065ad	0.013696116
164	0x3d336713	0.04379947
165	0x3bb3b0ab	0.005483707
166	0xbd3aaa98	-0.045572847
167	0x3cef8640	0.02923882
168	0xbde49de4	-0.11162928
169	0xbb9d6be6	-0.0048041223
170	0x3c89cd61	0.016821565
171	0x3d3bb249	0.045824323
172	0xbd8cff98	-0.06884688
173	0xbd84d65d	-0.06486199
174	0x3dd0e067	0.10199051
175	0xbd910b4f	-0.07082235
176	0x3d7fcc8a	0.062450923
177	0xbbfd0001	-0.0077209477
178	0xbd36bb74	-0.044612363
179	0x3b8a3f67	0.004218984
180	0x3d046fd4	0.03233321
181	0xbe025442	-0.12727454
182	0x3c9c9a10	0.019116431
183	0x3bc84bb8	0.006112542
184	0x3bd35782	0.0064496407
185	0xbc23ba35	-0.009993126
186	0x3b09c2b4	0.0021020593
187	0xbd18471f	-0.0371772
188	0xbcdcbb9e	-0.026944932
189	0xbd4041c6	-0.046937726
190	0xbae7df31	-0.0017690418
191	0xbc892c33	-0.016744709
192	0xbcd8fb24	-0.02648694
193	0x3d053321	0.032519463
194	0xbcac3b73	-0.021024441
195	0x3d06c0cf	0.03289872
196	0xbc8c977c	-0.017162077
197	0x3d6c2348	0.057650834
198	0x3cb0354c	0.021509789
199	0x3c844329	0.016145306
200	0x3d896805	0.06709293
201	0x3d2be5cd	0.041967202
202	0xbb848046	-0.0040436117
203	0x3d8f666b	0.070019566
204	0x3c6db9d8	0.014509641
205	0xbd326203	-0.043550503
206	0x3d5aebb1	0.05344743
207	0xbcfdd4c0	-0.030985236
208	0x3d57cc8c	0.052685305
209	0x3daa4ba7	0.08315211
210	0x3d726ff0	0.059188783
211	0xbd93b8f3	-0.07213011
212	0x3e04dc57	0.12974678
213	0x3c92b178	0.01790689
214	0xbd1d3e40	-0.038389444
215	0x3b9c1e22	0.0047643343
216	0xbd45688d	-0.04819541
217	0x3daa9cd5	0.083306946
218	0xbce0566f	-0.027384965
219	0xbd83f16d	-0.06442533
220	0xbc551746	-0.013006037
221	0x3cc3878e	0.023868348
222	0x3d178c7b	0.036999207
223	0xbde11017	-0.10989397
224	0x3e30aed7	0.17254196
225	0x3d300b18	0.04297933
226	0xbc9e77e4	-0.019344278
227	0xbd9e07f6	-0.07716362
228	0x3d4c1134	0.049821094
229	0x3cbd02be	0.023072597
230	0x3b8e5dc6	0.0043446748
231	0x3d018f4c	0.0316308
232	0xbd49cdd4	-0.04926856
233	0x3cae9da3	0.021315401
234	0xbce8a9a6	-0.028401207
235	0x3d8fb604	0.070171386
236	0x3c14d17d	0.009083149
237	0xbdbf15d1	-0.09330333
238	0x3d748b9f	0.059703466
239	0xbc9f3c06	-0.019437801
240	0xbd86e49f	-0.06586575
241	0x3d8eddc0	0.06975889
242	0xbd46e301	-0.04855633
243	0x3d39adfb	0.045331936
244	0xbbea5fe8	-0.007152546
245	0x3d675eec	0.05648701
246	0xbd99462f	-0.074840896
247	0x3b53b9c6	0.0032306775
248	0x3c7f0d6a	0.015567163
249	0xbdf14436	-0.11780588
250	0xbd18be8a	-0.037291087
251	0xbda3b19d	-0.079928614
252	0xbd08cb26	-0.033396862
253	0x3d913666	0.07090454
254	0xbd4f151e	-0.05055725
255	0x3d558e10	0.052137434

predictor/conv1/b f4 [32]
0	0x3dbc5768	0.09196359
1	0x3bc0d6ef	0.005884997
2	0x3d5c66b2	0.053808875
3	0xbcad4982	-0.021153215
4	0xbbd25f68	-0.0064200647
5	0x3d73f0c0	0.05955577
6	0x3d3a351a	0.045460798
7	0x3b418082	0.002952606
8	0xbd6b5c2f	-0.05746096
9	0xbe058175	-0.13037665
10	0x3e93a121	0.2883387
11	0x3c51f055	0.012813647
12	0x3c0f8cbb	0.00876158
13	0x3e6550f0	0.22394156
14	0xbc32b33f	-0.010906993
15	0x3c22f8ae	0.009946985
16	0xbd312e4f	-0.043257054
17	0x3c760a68	0.0150171295
18	0x3c8d686c	0.017261706
19	0xbe9aef97	-0.30260918
20	0xba9423b6	-0.0011302147
21	0xbd5998be	-0.053124182
22	0x3c9278d6	0.017879885
23	0xbdbbce9b	-0.09170266
24	0xbc6004c0	-0.0136730075
25	0x3d1c8e16	0.03822144
26	0x3bc35d09	0.0059620184
27	0x3d20367a	0.039114453
28	0xbdaf6009	-0.08563239
29	0xbd0d3585	-0.03447487
30	0x3e014183	0.12622647
31	0xbd7f9cb1	-0.062405292
