prototype/chainer_prototype/learned_model/v3.model (npz, 177424 bytes, 12 tensors)

predictor/conv2/W f4 [32, 32, 3, 3]
000000 81 35 35 3e cd 5e 87 be c2 2f ee 3d 48 a5 8d 3e
       0.17696191 -0.26439515 0.11630203 0.27665162
000010 39 30 fb 3d 43 cf c3 3d d5 9e 04 be be 9c e5 bd
       0.12265057 0.095610164 -0.12951215 -0.11211537
000020 6e 21 55 3d 4d 5f c1 3d 51 4f 7c 3c 86 00 2f 3e
       0.052033834 0.09442005 0.01539977 0.17090043
000030 d6 7a 88 bd 75 c2 48 be c9 48 8c 3d e9 b0 ed 3e
       -0.06664054 -0.1960543 0.0684982 0.46424034
000040 5a 8c 7c bd 08 0b 95 3e 15 5a 00 bf b7 2c 7f bd
       -0.061657287 0.2910998 -0.50137454 -0.062298503
000050 7d 22 c9 3d 3b 5a 37 bd 01 c9 6a bd 10 f7 97 3b
       0.09821031 -0.044763785 -0.0573206 0.0046376064
000060 ad 96 ea be 4a 67 80 3c 64 e9 29 be 45 36 19 be
       -0.45818081 0.015674252 -0.16592938 -0.14962108
000070 54 c0 ea 3a 7a c8 b2 bd 85 6c d0 bc 81 07 9b 3d
       0.0017910101 -0.08729644 -0.025442371 0.07569791
000080 8f 56 ca 3d d0 6b f3 3b f6 9b ec bb 4d 39 4e 3e
       0.09879791 0.0074286237 -0.0072207404 0.20139046
000090 59 be e4 bd 64 95 93 3e b1 4f 85 3d 3a eb 8a bd
       -0.111691184 0.28824914 0.065093406 -0.06783147
0000a0 d8 6d 74 bd a9 83 06 bd 9b 4a 39 3e 8b 7e 7e bd
       -0.059675068 -0.032840405 0.18094866 -0.0621324
0000b0 04 82 70 3e 37 e3 36 3d 6d dd 23 3d 90 c1 67 3c
       0.23487097 0.044650283 0.04000609 0.01414527
0000c0 48 9e 02 be 5c 0e 9b bc 0c 7e 29 bc 02 66 90 3d
       -0.12755692 -0.018927746 -0.010344993 0.070507064
0000d0 1e 94 b4 bb 93 ab a6 bb f0 64 2b be ce 5b 52 be
       -0.005510821 -0.005086371 -0.16737723 -0.20542833
0000e0 16 4c 3f bd 3c ce c5 39 08 f8 9d 3d 63 ff 46 3d
       -0.04670342 0.00037728425 0.07713324 0.0485834
0000f0 d0 e2 a1 3d 62 c9 71 be e2 e4 8f 3e a0 45 ae bc
       0.07904589 -0.23611978 0.2810431 -0.021273434
000100 b4 e2 2b be 46 5f 24 3d fa 8e 0b 3e e2 c4 4a be
       -0.16785699 0.040129922 0.1362876 -0.19801667
000110 9d 7f 05 3e f9 fc 75 3e 90 72 00 be a6 d9 28 3d
       0.13036962 0.24022283 -0.12543702 0.04122319
000120 7e 88 1f be f7 39 a9 bc 27 8a 41 bd 2b 14 00 be
       -0.15579411 -0.020657523 -0.047250893 -0.12507693
000130 36 55 00 3d ad 01 1e be d0 00 cf 3d 39 e4 e9 3d
       0.031331263 -0.15430327 0.10107577 0.11420483
000140 52 e7 5c 3e 60 8e b0 3e 59 cb 18 3a 1c 77 2b bd
       0.21572617 0.34483624 0.0005828641 -0.04186164
000150 fc 0b a6 3e 4b 25 b6 3c 3d 3d 67 3e 25 bd 54 3e
       0.32431018 0.02223458 0.22581954 0.20775278
000160 30 b8 02 be 68 81 ad bd de 9d 65 3e f9 8e be be
       -0.12765574 -0.08471948 0.22423503 -0.37218454
000170 a3 ba 73 be bc c5 70 3e d1 7e 0a bd b4 6c 29 be
       -0.23801665 0.2351293 -0.033812348 -0.16545373
000180 9a e1 4f be 3a 13 55 be 47 94 31 be b4 10 91 bc
       -0.20300904 -0.20808116 -0.1734172 -0.01770816
000190 cc 79 f1 bd 8c e0 85 be b1 71 c0 3c e6 75 45 3e
       -0.11790809 -0.26147878 0.023491712 0.19283256
0001a0 bd ad d3 3d cb 1a 97 be 66 d1 85 3e 3c 94 1f be
       0.10335872 -0.2951263 0.2613632 -0.1558389
0001b0 4f a3 ca bc 1e d4 26 bd ce 2f 91 bd 7a d3 06 be
       -0.024736075 -0.040729634 -0.07089196 -0.1316661
0001c0 1a f2 50 3d 56 48 4c 3d 68 85 03 3d ae 88 f9 3d
       0.051012136 0.049873672 0.032109648 0.12184273
0001d0 71 6e 6f 3d c9 db 96 3e 35 34 c2 be 43 84 90 3d
       0.058454935 0.29464558 -0.37930456 0.07056477
0001e0 da a7 94 3d bd 7d bc 3d ef 95 8d 3d 45 5c 4f 3e
       0.07258578 0.0920367 0.06913363 0.20250042
0001f0 5d 7e c0 bc 21 86 05 be 6d f3 8d 3e 93 eb 28 bd
       -0.023497755 -0.13039447 0.27724782 -0.041240286
000200 ff 55 08 bd 47 bd 45 3e 9d c8 5b bd f8 3a a6 3e
       -0.033285137 0.19310485 -0.053658117 0.32466865
000210 ba 36 01 bc 83 d9 92 3d 8f ac 40 be b6 e5 bb be
       -0.007886583 0.07170393 -0.18815826 -0.36698693
000220 29 22 7e 3d 0a 20 4c 3c 4a ba 7e bd 0a d5 da 3c
       0.062044296 0.012458811 -0.062189378 0.026712913
000230 4e be f9 bd d6 65 09 3e af d5 38 3d 0b c8 0a 3e
       -0.12194501 0.13417754 0.04512566 0.13552873
000240 a8 7a 64 3e d8 b2 d0 3d c7 e5 63 3e 3b 11 8f be
       0.22312415 0.10190362 0.22255622 -0.27942833
000250 48 bc 6c bd b7 27 8a be 65 08 95 3e 70 1b 8d be
       -0.057796746 -0.26983425 0.29107967 -0.27559996
000260 83 62 ce be 58 76 c1 3e 75 94 74 3e 60 60 68 3e
       -0.40309533 0.37785602 0.23884757 0.22693014
000270 ea 19 a3 bc 53 79 0e be 14 c6 55 bd e9 bd 0b be
       -0.019909818 -0.13913469 -0.052190855 -0.13646664
000280 44 18 b2 be 46 d0 99 bc 7a a3 11 3d d1 88 14 3d
       -0.34784138 -0.01877607 0.035556294 0.03626329
000290 1c 51 1b bd 54 ec 88 bc 25 e9 ac bd 0c 97 2f 3d
       -0.03791915 -0.016714253 -0.08442906 0.04286866
0002a0 7b bc 0a 3d 7f ad 8b 3d 1b 5d 27 bc a6 cd 0e be
       0.033871155 0.06820201 -0.010215069 -0.13945636
0002b0 95 5c 8e 3e 06 b5 6a bd f6 dd be bd 3a 33 00 3e
       0.2780501 -0.057301544 -0.093196794 0.12519541
0002c0 74 30 aa bd 65 44 81 bc 19 2f 2f 3e 22 a9 9d 3d
       -0.08310023 -0.015779683 0.1710781 0.07698275
0002d0 06 b1 2e 3e d4 05 0c 3e b5 2f 9b bd cc 3f 42 be
       0.17059717 0.13674098 -0.07577459 -0.18969649
0002e0 b0 fe 02 bf eb 62 cd bd e1 92 3f 3e 68 be 59 3d
       -0.5116987 -0.10028633 0.18708374 0.0531601
0002f0 bf de 2c 3e 41 2e 5a be b7 5d 96 3d 26 f0 56 be
       0.16881846 -0.21306707 0.073420934 -0.20990047
000300 3c 74 0e be fc 8d 20 bd 20 05 10 3e e2 90 c0 3d
       -0.13911527 -0.039197907 0.14064455 0.09402634
000310 6e f8 1e 3e 85 f1 54 3d f3 e9 0f 3c c9 f5 8c bd
       0.15524456 0.051988143 0.008783805 -0.06882817
000320 aa 0c ed bc 33 32 83 3e ed 67 6a bd bf fe ad 3d
       -0.028936703 0.25624236 -0.057228018 0.084958546
000330 43 43 16 3e 51 b3 8e 3d d7 c2 a9 3d ad 26 01 be
       0.14674096 0.06967796 0.08289116 -0.1261241
000340 0f 6f bc 3d c7 d1 52 bd 52 a6 fb bd ff 1e 11 3c
       0.0920087 -0.05146959 -0.122875825 0.008857488
000350 c9 4b 17 3e df 68 bc 3c 94 fa 58 bd 86 f6 05 3e
       0.14775003 0.022999225 -0.052973345 0.13082322
000360 11 9b 29 3d 38 f6 7c 3d ef da b2 bd 14 dc d3 bc
       0.04140765 0.06175825 -0.087331645 -0.025861777
000370 ab 12 5b bd 93 19 62 3d a3 89 ed bc 90 f6 2a bd
       -0.0534846 0.05520017 -0.028996294 -0.041739047
000380 44 51 a1 ba ef 55 fd 3d d9 cf ca bb bb 64 9e be
       -0.0012307544 0.12369906 -0.006189328 -0.30936226
000390 f3 f4 0b 3e ea 63 93 3d 54 91 29 be 8e 78 df ba
       0.1366766 0.071967915 -0.16559345 -0.0017049478
0003a0 26 e0 65 bd 3a 39 4d bc b9 8a bc bd 65 ab 24 bd
       -0.056121968 -0.012525851 -0.09206147 -0.040202517
0003b0 fa 02 2d 3d e3 1e a3 bc 4d 95 d5 3d 26 27 b2 3c
       0.042239167 -0.019912189 0.104288675 0.021747183
0003c0 a6 ac 05 be 17 97 7f 3c 3e ca 88 3d 37 27 30 be
       -0.13054141 0.0155999875 0.066792 -0.1720246
0003d0 41 85 20 3d cb f3 d7 3d a6 95 80 bd 04 e9 bd 3d
       0.03918958 0.10544547 -0.06278543 0.0927296
0003e0 f1 ec 22 3d 4d e5 10 3d 95 0d a5 3c 7b 09 18 be
       0.039776746 0.03537493 0.020148078 -0.14847367
0003f0 3c fc 8e bd 30 c0 ad bc f7 28 97 3e 36 1b 6a bd
       -0.06981704 -0.021209806 0.2952344 -0.057154857

predictor/conv2/b f4 [32]
000000 f3 23 02 be 13 37 2a bd 0a 3f d6 bd 82 86 06 3e
       -0.12709026 -0.04155643 -0.104612425 0.13137248
000010 bc 25 0d bc e0 85 03 bd 46 66 91 3c 61 08 26 3b
       -0.008614954 -0.032110095 0.017748963 0.0025334584
000020 8e 79 e0 3d cd 2d e3 bc 9c d2 be b9 b5 75 24 3c
       0.10960685 -0.0277318 -0.0003639654 0.010037829
000030 0a b5 62 bd c4 dd 01 be 03 1d 84 bc 76 40 7d 3c
       -0.055348434 -0.12682253 -0.016127115 0.015457263
000040 5b d4 2a bd d3 67 39 3e 75 1d 71 3d a8 cf 53 3e
       -0.041706424 0.18106012 0.058865983 0.20684683
000050 b9 d2 f8 3b 50 ed 9a 3d 2f bb ff bb 93 81 1f 3d
       0.0075934795 0.07564795 -0.0078042964 0.03894193
000060 ea 00 29 3c 4c f4 94 3d 5a ad 31 bd 47 cb 85 3b
       0.010315159 0.072731584 -0.04337821 0.0040830704
000070 a0 f7 69 bd 97 9e 06 be 9e 55 de bc b5 47 64 3d
       -0.05712092 -0.13146435 -0.027140435 0.055732448

predictor/fc2/W f4 [3, 512]
000000 6e ef 03 3e 6f a1 19 3d 90 34 b5 be 08 e9 90 3d
       0.12884304 0.03750747 -0.35391665 0.07075697
000010 be 97 eb be 6f 4b 2e 3d e9 04 0e 3e b9 aa d4 3d
       -0.46014208 0.042552408 0.1386906 0.10384125
000020 2e dd e1 be 4d b0 b3 bc 72 3c 8c be ad 6c bd bc
       -0.4411406 -0.021934653 -0.27389866 -0.02312311
000030 88 2d 4a be 4e 9e 85 3e 2c 75 0f be a8 ab 1b 3d
       -0.19743931 0.2609734 -0.14009541 0.0380055
000040 0f 6f 13 3e 07 0e 09 bf 11 58 64 be 81 b4 49 3d
       0.14397834 -0.5353703 -0.2229922 0.049244408
000050 e9 d6 e8 3d aa cb c8 bd 7d bc a9 3d 07 b9 48 3e
       0.11369116 -0.09804471 0.082879044 0.19601832
000060 a5 cc 02 3d 23 fc 34 3e aa a6 8d bd bd 8a 73 be
       0.031933445 0.17674308 -0.06916554 -0.23783393
000070 b3 3b bb be d9 12 7f be ac d1 b0 3d 14 fc 2f 3d
       -0.36568984 -0.24909534 0.08633742 0.04296501
000080 55 43 b3 bd 2e ff ef 3d 29 b8 97 be 22 5e 1b be
       -0.08753077 0.117185935 -0.2963269 -0.15172628
000090 f3 c8 51 3e 32 ae ca bd ef 04 b0 bc 9f 28 b0 be
       0.20486812 -0.09896506 -0.021486728 -0.3440599
0000a0 5c 83 8b 3d d5 ae b3 3d 0c e8 22 be 6f 1e 48 3e
       0.06812164 0.08773581 -0.15908831 0.1954286
0000b0 b3 5a d5 bd 43 b5 ce be 96 aa 9f bc 1c 8a 13 3e
       -0.1041769 -0.40372667 -0.019490521 0.14408153
0000c0 f1 03 b3 be bf 4a 2d 3c 9a ae 13 bf 9d 9f fe be
       -0.34963945 0.010576903 -0.57688296 -0.4973115
0000d0 25 5c 82 be 8c d4 c0 bd 93 03 0b be ca 75 07 bd
       -0.25460926 -0.0941554 -0.13575582 -0.033071317
0000e0 4d 9d 50 3d 57 8a 33 be 2c f1 05 3c 3d bc 6e be
       0.050931264 -0.17533241 0.008175176 -0.23313995
0000f0 ff d7 1d 3e c0 e4 d6 bd db 4e 4c 3d ad 59 c3 3d
       0.15414427 -0.10492849 0.04987989 0.09538589
000100 ff 3e 9c bc bb 0b fb bd 37 b8 0e 3d 5b 59 0f be
       -0.019073008 -0.12258097 0.03484365 -0.1399893
000110 2d 71 e9 3d 7f e0 6e 3e 36 d4 0d 3e d5 36 23 3e
       0.1139854 0.23327826 0.13850483 0.15938886
000120 09 df 98 bd 3a 85 db 3d d9 be 9b be 7d 1b 9c be
       -0.074644156 0.1071877 -0.30419043 -0.30489722
000130 91 cf 56 be 77 eb 73 3c f0 f9 07 3e 03 81 4e 3d
       -0.20977618 0.014887682 0.13278937 0.050416004
000140 b1 37 d0 3d f7 73 66 3b ca 2d 07 be d8 7f 0e 3e
       0.10166872 0.0035164335 -0.13201061 0.13915956
000150 33 62 0e 3e 59 74 6f be b4 6d 12 3e 81 a0 25 bd
       0.13904648 -0.23384227 0.14299661 -0.04043627
000160 e0 8e ac 3d 50 9b 56 bd 31 71 a8 be fb f1 0f 3e
       0.08425689 -0.05239421 -0.32898858 0.14057152
000170 2c b9 f5 3d 9c fb 0b 3e 0c f8 0a 3e c4 07 97 be
       0.11998209 0.136702 0.13571185 -0.29498112
000180 6d 51 80 be 5e 36 d7 3d 04 eb 20 be 22 5b f9 bd
       -0.25062123 0.105084166 -0.15714651 -0.12175585
000190 19 9f 6d 3e 22 b4 e2 3d b8 86 2b 3e ec a3 c0 be
       0.23205222 0.11069514 0.1675061 -0.37625062
0001a0 be 45 91 3d 6e fd 8c be 94 00 3d 3e d1 d2 1c 3e
       0.070933804 -0.27537102 0.18457252 0.15314795
0001b0 4f 82 26 bd 0d ab 7e 3e 41 c5 b2 bc e7 57 ed be
       -0.040651616 0.24869938 -0.021822574 -0.46356127
0001c0 5c 9c 10 be ac d0 1e 3e fc 59 f7 3c d3 92 ef 3d
       -0.14122146 0.1550929 0.030194275 0.11697926
0001d0 d6 ae 34 3e b6 4e 49 be 5e 95 08 bf f1 f8 92 be
       0.1764482 -0.19658932 -0.53352916 -0.28705552
0001e0 ed bf 2f be 45 c1 28 3e b6 23 f4 bd f1 85 1f be
       -0.17163058 0.16479976 -0.11920874 -0.15578438
0001f0 5c 91 ad be 88 ea f1 3d 7a 12 ee be dd 87 95 be
       -0.33899963 0.118123114 -0.46498471 -0.29205218
000200 63 f1 b0 be aa af 98 be 74 5c 00 3e ed 54 38 3e
       -0.34559163 -0.2982152 0.12535268 0.18001147
000210 5a f5 b7 be 38 d3 29 3e 4d 90 35 3e 82 e3 01 bf
       -0.35929376 0.1658448 0.17730828 -0.50737774
000220 6d 9f 72 3e 6c f5 08 3e 18 b0 9d 3e 79 5b 3c bd
       0.23693629 0.13374871 0.3079841 -0.045985673
000230 65 c2 d6 3d d7 60 8b be d1 ad 7e be bc 44 ed bd
       0.104862966 -0.2722232 -0.24870993 -0.11585376
000240 96 e8 3f 3e 32 21 c4 3c 6a 97 43 3e 5a de 86 be
       0.18741068 0.02394161 0.19100729 -0.26341516
000250 25 08 e5 3d f8 b7 0c be 90 e1 e3 be e0 a0 0b be
       0.11183194 -0.13742054 -0.44508028 -0.13635588
000260 3d c3 30 bd ec 40 3d 3e 20 c9 3a 3e d7 1b 0e be
       -0.043154944 0.18481797 0.18240786 -0.13877808
000270 4d d0 b2 bb bf 20 0e 3d 6e fd 8a be 2b aa fe 3d
       -0.0054569603 0.034699198 -0.27146477 0.12434801
000280 c6 e1 a2 3d 55 81 ff 3d cf 0a e7 3d 1f e1 5c 3d
       0.07953219 0.1247584 0.112813585 0.05392563
000290 9d cb be 3d dd e5 2f 3e 6c 80 dc 3d 22 02 9b bd
       0.0931618 0.1717753 0.10766682 -0.07568766
0002a0 ec 44 d5 bd ea 98 93 bd 7c d1 45 be 60 9d 75 3d
       -0.104135364 -0.072069004 -0.19318193 0.059964538
0002b0 36 cc eb 3c d7 9c 98 be 4e 39 13 3e ec 31 8f be
       0.028783899 -0.2980716 0.14377329 -0.27967775
0002c0 d7 60 0a 3e 20 ce 35 bd 33 2c 9a be 18 9a 17 3e
       0.13513504 -0.04438603 -0.30111846 0.14804876
0002d0 af 04 08 bd 28 91 42 3e ad da 88 be 28 2f fa 3c
       -0.03320759 0.19000685 -0.26729336 0.030540064
0002e0 b6 80 ed bd cf 18 1b be d3 f2 9a bd 2e 42 07 3e
       -0.11596815 -0.15146182 -0.07565846 0.1320884
0002f0 0e 30 05 3e cf 3d 5a be ce df 75 be 85 ce dc be
       0.13006613 -0.2131264 -0.24011156 -0.43126312
000300 cf ec 8a bd 13 e0 96 be 0b d8 d4 3d e5 4f f2 be
       -0.06783449 -0.2946783 0.103927694 -0.4732658
000310 49 5a aa 3e c2 52 52 3e 65 59 0f be 5f af e0 3d
       0.33272007 0.20539382 -0.13998945 0.109709494
000320 9f 59 0b 3c d7 59 cb 3d d5 55 45 be d6 3f 55 bd
       0.008505254 0.09929245 -0.19271024 -0.05206283
000330 30 0b 67 3e 94 a1 84 bd 87 e1 a0 be c0 d2 f9 bb
       0.22562861 -0.06476131 -0.31422064 -0.0076240003
000340 39 cd bf be dd bd f6 3d ac 37 a0 3d ec 21 e6 3d
       -0.3746126 0.12047932 0.078231186 0.11236939
000350 87 c8 e2 3d 66 16 d6 3d 14 56 cb be a2 40 23 3e
       0.11073404 0.10453491 -0.3971411 0.15942624
000360 80 f3 03 bf 39 24 96 be c5 7f fd 3d 01 e5 5e be
       -0.51543427 -0.2932451 0.12377886 -0.21767046
000370 9c 61 c1 be 33 97 b6 3d 71 3d 61 be 08 3f b7 3d
       -0.37769783 0.08915558 -0.21996094 0.08947569
000380 08 70 43 be 86 d1 17 bf 03 fe aa be 77 9a 56 3e
       -0.19085705 -0.5930408 -0.3339692 0.20957361
000390 96 0d 01 3e a4 0e 0b 3e 7f c4 6b 3e 49 07 4d 3d
       0.12602839 0.13579804 0.23024176 0.050055776
0003a0 7e 7c 5c 3e 6c 80 24 3e 04 84 20 3e 4b 31 8d be
       0.21531865 0.16064614 0.1567536 -0.2757667
0003b0 ba d2 40 be 4d 35 35 3d 02 60 2c 3e ac e8 4b be
       -0.18830386 0.044240285 0.16833499 -0.19912976
0003c0 16 cb 2f bd ce 21 a6 be 52 3b 9d ba a1 f9 87 be
       -0.042918287 -0.32447666 -0.0011995828 -0.2655764
0003d0 0d 0e 5e 3e 65 49 2d 3e 9f 4f 40 3e a7 8e 00 bd
       0.21685047 0.16922529 0.18780373 -0.031386044
0003e0 a3 09 20 bd 06 8a 43 be 06 4e b1 bc 2b b1 ff 3c
       -0.03907169 -0.1909562 -0.02164365 0.03121241
0003f0 64 05 a8 bd f4 60 9c be 17 51 ea 3d 6f 24 8b 3d
       -0.08204153 -0.3054272 0.11441248 0.067940585

predictor/fc2/b f4 [3]
000000 9f 0f 15 be bb 21 ca 3d d2 9c 29 3c
       -0.1455674 0.09869715 0.01035233

predictor/conv4/W f4 [32, 32, 3, 3]
000000 a7 9d fc bc 49 35 9d 3d b3 83 64 3d b2 d5 9c bb
       -0.030836893 0.07676179 0.05578966 -0.0047862167
000010 57 d9 1a 3d 08 1a 33 bd a2 46 6a 3d d0 de c9 bb
       0.037804928 -0.043725997 0.057196267 -0.0061605945
000020 e7 ce 20 3c 4e 35 a4 bc a2 6a 3b bd 8e 63 29 3d
       0.009814954 -0.020044949 -0.04575599 0.04135471
000030 96 28 23 bd d2 e3 26 bc 14 0f 08 3c 1b 00 af 3c
       -0.039833628 -0.0101861525 0.008304376 0.021362355
000040 14 15 c0 bd e3 5f 9c bd 5f 4b c2 ba cb 65 07 3c
       -0.0937902 -0.076354764 -0.0014823488 0.008264015
000050 3b 79 4a 3d 1b 6f 4e bd 0f d5 0c 3e 30 4e 06 3d
       0.04943202 -0.050398927 0.1375315 0.03278941
000060 5a 42 13 bc ba 13 16 bc b9 ce c4 bd 06 b4 9f bd
       -0.008987987 -0.009159977 -0.09609742 -0.077980086
000070 85 ca d0 3d b3 34 92 bc c7 f7 dd bd 21 58 ce 3d
       0.101948775 -0.017847395 -0.108382754 0.10075403
000080 b5 ce d3 bb 90 51 78 3d c4 ef 63 bd f6 6c 8d 3d
       -0.0064638504 0.06062466 -0.05564858 0.06905548
000090 b5 f6 ae 3d c3 85 22 3d 54 e7 48 3d 55 3f 10 be
       0.085431494 0.039678346 0.049048737 -0.14086659
0000a0 86 5d 0f 3d aa 46 42 bd 07 3b ab 3c 6c 0b 8f bd
       0.0350013 -0.04743067 0.02090217 -0.069846004
0000b0 13 5b ad 3c f1 8b 09 3e ce 03 4d bd 3c d4 bd 3c
       0.021161592 0.1343229 -0.050052457 0.02317249
0000c0 61 58 10 3d 9c 7b a5 3d 02 97 f2 3d 73 11 d1 3c
       0.035240535 0.08080217 0.11845209 0.025521016
0000d0 df a6 df 3d e9 0b 81 3d 74 76 a2 bb cf 28 80 3d
       0.109205 0.063011 -0.0049579684 0.062577836
0000e0 29 a5 87 3d e4 cb 09 3d 79 04 ae bc a6 83 1b bd
       0.06623299 0.03364171 -0.021242367 -0.037967347
0000f0 ca 83 9a 3d a7 07 cf 3d d3 62 af bd 7e 33 93 3c
       0.07544668 0.101088814 -0.08563771 0.01796889
000100 8d 67 df bd 3d 36 6c 3d eb d8 b0 bd ac 84 3c be
       -0.109084226 0.057668913 -0.08635124 -0.18409985
000110 06 45 99 bb 88 b3 d6 3d 04 c2 94 bd a3 06 3c 3d
       -0.0046774177 0.104834616 -0.07263568 0.045904767
000120 a6 ab 31 3d 6c 2c d4 3c d1 00 37 3d 27 5b 1b 3d
       0.043376587 0.025900088 0.044678513 0.037928727
000130 29 23 26 bd 6d 76 89 3d b2 a1 5d 3d 83 fd 17 bc
       -0.040560875 0.06712041 0.054109283 -0.0092767505
000140 69 71 7d bd 01 d1 9c bb ff d5 21 3e 17 d7 85 3c
       -0.061875734 -0.0047856574 0.1580429 0.016337914
000150 cc 11 9d bd a6 76 80 bd 1d c1 8d 3b c4 bd cf 3c
       -0.0766941 -0.062726304 0.0043259994 0.025359042
000160 1f 96 aa bd 31 69 4a bd 51 95 4d 3c fa e5 99 bd
       -0.083294146 -0.049416725 0.012547807 -0.07514568
000170 8c 72 19 3d 1c 2c 81 3d 9f ed e0 bd cd 7f 47 bd
       0.037462756 0.06307241 -0.109828226 -0.048705865
000180 32 93 85 3a 44 2c 7e 3c c3 2b 9f bd ee 05 3a bd
       0.0010190962 0.015513483 -0.07772019 -0.04541581
000190 ca c6 e3 ba 19 35 29 bc 46 01 38 3a 95 b6 11 be
       -0.0017377969 -0.010327601 0.0007019233 -0.14229806
0001a0 b7 25 12 3c ab a0 54 bd f9 9c 82 bd dc ad 27 bd
       0.008920125 -0.051911037 -0.063775964 -0.04093729
0001b0 ea 52 01 3d 0c 72 e2 3c 71 c6 97 3d 03 26 e5 bd
       0.031573214 0.027642272 0.074108966 -0.11188891
0001c0 b1 68 ae bd 4c 99 f9 bc 16 d6 39 3d e0 25 e9 bc
       -0.08516062 -0.030468605 0.045370184 -0.028460443
0001d0 26 39 8d 3d 74 05 6e bd 56 67 1b bd 6d f1 78 bc
       0.06895666 -0.05811067 -0.037940346 -0.015194279
0001e0 da c3 28 3c 05 bb e3 3d bd 61 69 bc 0d ce 3a bd
       0.010300601 0.111196555 -0.014244494 -0.04560666
0001f0 51 fb f6 bb 2f 20 dd bd 2f 1f c3 3d 21 d2 52 3d
       -0.0075372835 -0.10797154 0.09527432 0.051469926
000200 9e fe 26 bd 1d 78 c9 bc d1 03 f1 bc 67 82 67 bd
       -0.040770166 -0.024593407 -0.029420765 -0.056520846
000210 e7 f0 b2 3c a7 11 a8 bd 3d 59 9a bc 42 51 d6 bc
       0.021843387 -0.08206492 -0.01884138 -0.026161794
000220 4e ea 02 3d 81 8f 01 3c a1 a2 12 bd d4 09 07 be
       0.03196173 0.007907749 -0.035799626 -0.13187343
000230 01 20 80 bb 40 46 04 3e cc df 41 3d 8e b7 ba 3c
       -0.003910065 0.12917423 0.04733257 0.022792604
000240 83 d7 4d bd e9 c8 e3 3c ae b0 a6 3c 34 c3 23 bd
       -0.050254356 0.027805762 0.02034792 -0.039981082
000250 26 09 00 be 26 85 6d bd 26 19 8a 3d f2 91 10 3d
       -0.1250349 -0.05798831 0.06743078 0.035295434
000260 63 00 fb bc c1 7b ae bd 66 dd 16 3e 5c 13 c0 bd
       -0.030639833 -0.08519698 0.14732894 -0.093786925
000270 c7 19 ef 3d fd b6 97 be 7d 99 9c 3d 4a e4 63 3d
       0.116748385 -0.29631796 0.07646463 0.055637635
000280 5e 2d dc 3c 79 f3 ba bc c5 35 fb 3c 70 fa 01 3d
       0.026877102 -0.022821175 0.030665288 0.031732976
000290 2e 7a 05 bd 02 73 da 3c 82 ef 22 be 0a 1c 31 3d
       -0.032587223 0.026666168 -0.15911677 0.04323963
0002a0 37 b8 83 bd c0 91 11 3d 2f 63 14 3d a0 09 0b bd
       -0.064316206 0.03553939 0.0362274 -0.033944726
0002b0 32 b9 e6 3b cb 14 d7 3d f9 dc 1f 3c c7 b2 a8 3d
       0.00704112 0.10502013 0.009757274 0.08237224
0002c0 4b df 80 3c d7 83 49 3b 85 1c 82 3d b7 0e 56 bd
       0.015731474 0.0030748749 0.06353096 -0.052260127
0002d0 51 3c 4f 3c 6e 10 4b bd 11 57 ef bd 3a fd bf 3d
       0.012648658 -0.049576215 -0.116865285 0.09374471
0002e0 7f 4d e4 3c 5b be 96 bd c4 6c b2 3c 04 66 4e 3d
       0.027868984 -0.07360526 0.02178038 0.05039026
0002f0 68 bf 94 bc 8a a6 30 3d c1 7c cb 3b 36 f5 b1 3c
       -0.018157676 0.043127574 0.00620994 0.021723371
000300 0b a3 21 bc c7 65 d5 3b 7e 43 2d bc da 57 b0 bd
       -0.009865533 0.006512377 -0.010575173 -0.08610506
000310 2c b5 48 3c b3 8b d4 bd 91 0f e4 3d f0 fd 30 3c
       0.012250226 -0.10378208 0.111357816 0.010802731
000320 73 a6 5c bd 93 d9 22 bd 8c 7b 26 be 25 10 ba 3c
       -0.053869676 -0.039758276 -0.16258067 0.022712776
000330 26 6d a4 bc 4a fb 25 3d 81 78 05 bd 22 e4 8f 3d
       -0.020071577 0.04052285 -0.032585625 0.07025935
000340 3d dd 3e bc 81 12 80 bd 08 88 81 3c f8 89 cb 3b
       -0.011649427 -0.06253529 0.015811935 0.0062115155
000350 38 70 77 bc dc 51 4a 3d e7 75 b8 bc 95 dc 4d bb
       -0.015102439 0.049394473 -0.022517158 -0.0031411995
000360 0e a1 e8 3c c5 cc 80 bd 4e b2 b4 3c 58 45 36 3d
       0.02839711 -0.06289057 0.022057679 0.044499725
000370 2b c5 ff bd 69 2b 2f 3c d1 24 33 3d 1e 71 d0 3c
       -0.12488779 0.010691502 0.043736283 0.025444563
000380 21 f7 56 3d 83 85 18 3e 5e 45 da 3b c2 3e 24 be
       0.052481774 0.1489468 0.0066611012 -0.16039565
000390 b4 c7 cc 3d a9 b8 2e bc 90 d1 45 bd b3 59 33 bc
       0.09999028 -0.010664144 -0.048295557 -0.010946679
0003a0 b3 bf 1c be a6 39 ca bb 94 59 2b 3d 48 0c 6f bd
       -0.15307502 -0.006171423 0.041833475 -0.05836132
0003b0 d6 80 5d bc 98 01 33 3c 6c 3f 61 bd 9c 4c 68 3d
       -0.013519486 0.010925673 -0.054992124 0.056713685
0003c0 b9 0a 3d bd 14 04 5f 3d 4d fc 48 bd 6e ab 3b 3c
       -0.046152804 0.05444725 -0.049068738 0.011454446
0003d0 43 07 5e 3a 12 e2 3b 3c c5 2d 1c be 50 b9 20 3b
       0.000846971 0.011467474 -0.15251835 0.0024524517
0003e0 2d 3c 59 bc 1f 80 ba 3c cc a9 18 bd ce da e4 3c
       -0.013258976 0.022766171 -0.037271306 0.027936365
0003f0 f3 c9 a7 3d 8b 42 40 bc cb af b1 bc 46 8b 33 be
       0.08192816 -0.011734615 -0.02169027 -0.17533597

predictor/conv4/b f4 [32]
000000 2a 47 2f 3e 84 71 ce 3c 0b bf e7 3d a7 81 9b bd
       0.1711699 0.025200613 0.113157354 -0.075930886
000010 c9 b3 3a bd 72 77 34 3d a4 51 ba 3d a2 3b c9 bd
       -0.045581613 0.044059224 0.09097603 -0.09825827
000020 d2 2d be bd dc 44 76 3c ef 47 53 3d 16 b1 ee bd
       -0.09286083 0.015031066 0.051582273 -0.1165487
000030 27 05 49 3c 6e b3 c9 bc aa fd ec bd 0c 65 33 bd
       0.012269295 -0.024621692 -0.1157182 -0.043797538
000040 97 db 59 bb 97 6f 28 be bb 49 12 3d 80 a4 f1 bd
       -0.0033242458 -0.16448818 0.035714846 -0.11798954
000050 03 10 99 bd fa 1d 3c 3d b2 c4 2e bd 0c 3d 37 3e
       -0.07473757 0.045927025 -0.042668052 0.17894381
000060 70 bc 1c 3c b9 57 0a be 46 43 75 bd d5 69 eb 3d
       0.009566411 -0.13510026 -0.05987861 0.11494795
000070 25 07 c5 bd de 22 ad 3d 61 6c 3e 3e dc 99 bb bc
       -0.09620503 0.08453916 0.18596031 -0.022900514

predictor/conv3/W f4 [32, 32, 3, 3]
000000 21 6b 94 3c e9 eb 93 bc 6e c6 55 3c 44 13 1c bd
       0.01811749 -0.018056827 0.013047798 -0.03810431
000010 b6 b2 dc 3b a4 47 f6 3d 71 70 5f 3a fe bc 6f be
       0.006735171 0.12025383 0.000852353 -0.23411939
000020 f0 40 83 bc 62 b6 ad 3d e7 9d 65 bd d3 0e 1c 3d
       -0.016022176 0.084820524 -0.05605879 0.038100075
000030 14 0a ec 3c 53 ad ea 3d 08 83 6b be 91 78 1d bd
       0.0288134 0.1145884 -0.22999203 -0.03844506
000040 50 34 cf bd f2 fc b8 bd 7a 23 22 bc 70 89 c4 3c
       -0.101174 -0.090326205 -0.009896154 0.023991317
000050 5e 2b 11 3d 94 1f d4 bc b0 d7 be 3d 12 ff e4 3c
       0.03544175 -0.025893964 0.09318483 0.027953658
000060 c3 d0 72 3c eb 34 ba 3d c2 22 52 bd af 8d 69 3d
       0.0148202805 0.090921246 -0.05130268 0.057019886
000070 1b ac c8 bc db 38 17 3d 73 a0 75 bd d3 ab 02 3e
       -0.024496129 0.036919456 -0.05996747 0.12760858
000080 bc 3b 2a 3e cf 9f a6 bb b2 31 63 3d 0e 32 0a 3e
       0.1662435 -0.0050849686 0.055467315 0.13495657
000090 3f 00 48 3d 5b f9 8f bc c2 17 64 3d 1d 38 3b 3d
       0.04882836 -0.017574957 0.05568672 0.04570781
0000a0 ad f4 31 be de 11 f9 3b bf b7 0e be 29 81 0c be
       -0.17378493 0.007601007 -0.13937281 -0.13721146
0000b0 30 70 83 be 7c 0e 02 be 7d 90 94 bc ef 08 d4 3c
       -0.2567153 -0.12700838 -0.018135304 0.025883166
0000c0 ee 84 45 3d 36 0c af 3e 0f a0 93 3c 71 01 0c 3c
       0.048222475 0.34189004 0.018020658 0.0085452655
0000d0 a8 aa 98 be b1 99 48 3e 16 ae cf bc 11 b9 5c bd
       -0.298177 0.19589879 -0.025351565 -0.05388743
0000e0 12 7e ed 3d 58 95 46 bc 7d dc 71 3d ed a2 87 3e
       0.11596312 -0.012120567 0.059048165 0.2649149
0000f0 fe 66 15 bd cc 2d df 3d cb ed 80 bd 02 ae bb bd
       -0.036475174 0.10897407 -0.062953554 -0.09164049
000100 61 2e 50 3d 4d 01 a7 3b 99 b3 37 3c 41 0f b9 bd
       0.05082548 0.0050965906 0.011212253 -0.090361126
000110 53 67 b9 bd 41 fb da 3d 49 72 c8 3d f9 03 63 3e
       -0.09052911 0.10692454 0.09787423 0.22169484
000120 40 72 e8 bc f0 c7 8d bd c9 80 78 3c ce bd 8a 3c
       -0.028374791 -0.06922901 0.0151674235 0.016936209
000130 79 90 20 3d 7c 3e cc bd d9 c0 9d 3d 96 7f 09 bd
       0.03920028 -0.099728554 0.077027984 -0.03356894
000140 f0 6a 76 bd 36 f8 e0 bc 71 25 29 bd 4d 1e 65 3d
       -0.060160577 -0.027462106 -0.041295473 0.0559371
000150 d6 20 63 bd 8e a4 eb bd de 91 93 3e d4 89 00 bd
       -0.055451237 -0.11505996 0.28822225 -0.031381443
000160 fd 2a 5c bd 65 69 86 bc 8e 0f df ba b8 b7 53 bc
       -0.053751934 -0.016407678 -0.0017018185 -0.01292222
000170 56 f2 82 bd c7 f0 00 bc 11 f1 f8 bd 07 dc 17 3e
       -0.06393878 -0.007869906 -0.12155355 0.14830028
000180 11 d4 62 3d 7e 00 fe 3d 18 19 52 3e 49 9d 79 bd
       0.055378024 0.124024376 0.20517385 -0.060941014
000190 70 28 64 bd 24 59 ce bc 9d a4 ae 3c bd 8e 23 bc
       -0.055702627 -0.02518899 0.021318728 -0.009982762
0001a0 6a 96 40 3d 8a e2 e0 ba e7 38 4a 3b 0b e3 d5 bd
       0.047018446 -0.0017157358 0.003085667 -0.10443696
0001b0 1d e2 f9 3d c8 9a 2d bc da 80 ec bc 54 84 17 3d
       0.12201331 -0.010595985 -0.028870035 0.036991432
0001c0 8d 72 a9 bb 87 14 ba bd 42 6c 8b bd fe a4 04 bb
       -0.005171126 -0.090859465 -0.06807758 -0.0020239945
0001d0 df 9c 17 3e 22 f8 2c 3d c2 99 d8 3b 76 28 d5 3d
       0.14805935 0.042228825 0.0066101262 0.10408108
0001e0 c3 80 3d 3c aa 56 2a 3e 39 97 19 3d 23 28 f1 3c
       0.011566344 0.16634622 0.037497733 0.029438084
0001f0 7a 7e 8d 3d da fe ed bd 95 0d 0a bd fc 96 26 bb
       0.06908889 -0.11620875 -0.03370436 -0.0025419584
000200 d4 fe 04 be 51 0d b4 bd 9b 9b eb bd 2b 61 85 3d
       -0.12987834 -0.087916024 -0.11504289 0.06512674
000210 54 60 22 bd a3 b4 8b 3d d2 6a 6d bd 64 15 34 3c
       -0.039642647 0.06821563 -0.0579632 0.010991428
000220 dc c4 8e bd bd 1a 54 3c 94 eb 0e 3d 9e 6f a4 bd
       -0.06971142 0.012945828 0.034892634 -0.08029102
000230 5f a0 0c 3e 3d 10 89 3c 2b 0c 15 3e 0c 88 88 bc
       0.13733052 0.016731376 0.14555423 -0.016666435
000240 b1 4d 50 3d 0d b2 3b 3d 40 74 9a 3d ed 65 89 bc
       0.050855342 0.0458241 0.07541704 -0.016772235
000250 93 ea 51 3d 57 7e 4f 3e d4 b3 b8 bd d1 08 14 bd
       0.051249098 0.20263039 -0.090186745 -0.03614122
000260 f7 dd bf 3d 1d eb 76 bd c3 01 0c 3d 54 74 8c bd
       0.09368508 -0.060282815 0.034181368 -0.06858125
000270 55 2f c8 3b f8 e9 4c be eb 98 d4 be 35 7a e1 bc
       0.006109158 -0.20011127 -0.41522917 -0.027524093
000280 cf 27 73 be 1b b5 42 be e1 1c e6 3a a1 b3 d8 3d
       -0.23745655 -0.19014399 0.0017556214 0.105811365
000290 56 37 92 bd 76 ae 96 3b 04 fa ca bc ee 1f a6 bd
       -0.07139461 0.004598434 -0.02477742 -0.08111559
0002a0 a0 2d 21 bd cc 11 b9 3d 20 b6 42 bd 9a ff 6d bd
       -0.039350152 0.090365976 -0.04753697 -0.05810509
0002b0 c0 9e 2f 3d 68 64 e6 bc b8 52 9f bd 8f 19 5e bd
       0.042876005 -0.02812405 -0.07779449 -0.054223593
0002c0 41 98 99 3d 37 fa 22 3d d7 2c 19 3d 01 3a b4 3c
       0.07499743 0.039789405 0.03739628 0.022000315
0002d0 fb 9b 40 3d ad 28 2e bd bf fa 7f 3d e0 4c e5 3c
       0.047023755 -0.04251926 0.06249499 0.027990758
0002e0 6b a7 65 3e 4b 35 66 be 3a 41 4a bc a4 2b 2d 3d
       0.22427146 -0.22481267 -0.012344653 0.042277947
0002f0 80 13 54 3e 05 6f ed 3d 66 9a 30 3d 17 fe 01 bd
       0.20710564 0.11593441 0.043115996 -0.03173646
000300 35 bc 49 bc c9 f5 26 bc 2b af 85 3e e3 9c 65 3d
       -0.012312938 -0.010190436 0.26110205 0.056057822
000310 68 56 42 3e 3f 89 c0 3d 3f 81 15 bd 3c bf 8e bd
       0.18978274 0.094011776 -0.03650021 -0.06970069
000320 43 17 ac 3c 71 28 be bd 66 e3 1a 3e 69 6e c4 3d
       0.021007186 -0.09285057 0.15125808 0.095913716
000330 67 5f 11 3d ac 36 bc 3d 95 b8 e0 bc 40 88 b3 bc
       0.035491373 0.09190115 -0.027431766 -0.021915555
000340 ec c7 fd bd e2 8f a1 3d 54 9d 36 3c b3 0e fb 3d
       -0.12391648 0.078887716 0.011145908 0.12258663
000350 36 73 3f 3c a5 e2 35 bd c1 ad 31 3e 9a a7 a7 bd
       0.011685183 -0.0444056 0.17351438 -0.08186264
000360 3c 00 18 3e 83 04 e3 bc 85 96 07 3d e9 ec 58 bc
       0.1484384 -0.027712112 0.03310253 -0.0132400775
000370 3f d2 3a be 63 02 5c 3e a3 46 4f 3d 40 fb cd 3d
       -0.18244265 0.21485285 0.050604474 0.10057688
000380 61 b9 95 3d e4 a7 a2 3b 6b 9d 8e bd a0 b1 07 3b
       0.07310749 0.004963862 -0.06963619 0.0020705238
000390 84 78 93 3d cd 9e 5c 3e 62 8c c0 bd 05 4c 40 bd
       0.07200721 0.21544953 -0.09401776 -0.046947498
0003a0 1e 04 46 be 1d a9 46 be c8 4d a3 3d 11 87 65 bd
       -0.19337508 -0.19400449 0.0797382 -0.056037012
0003b0 b8 13 e2 3c af 2a 54 3d 43 89 2c 3e 3f b3 9c 3c
       0.027597293 0.05179852 0.16849236 0.01912844
0003c0 b1 49 97 bd c2 63 dc 3d d8 39 5c 3e a2 e9 3d 3c
       -0.073871024 0.10761215 0.2150644 0.011591347
0003d0 81 ff bd bd 90 ae 4e bb 4e c6 f4 3c 24 2e d5 3c
       -0.09277249 -0.0031537153 0.029879715 0.026022978
0003e0 33 53 13 bf e6 bb 7c bd 90 3c d4 3d 6a b4 e5 be
       -0.57548827 -0.06170263 0.10363114 -0.44864208
0003f0 1f 17 04 3d 39 e7 8a bd ff 8c 49 3d d0 e1 4e 3d
       0.032248612 -0.067823835 0.04920673 0.05050832

predictor/conv3/b f4 [32]
000000 02 96 53 bd dd d8 b8 3d 13 e7 49 bd 4d a8 05 3d
       -0.05165673 0.090257384 -0.049292635 0.032631207
000010 e4 66 d3 bc a9 25 9f bc 01 14 46 3d 23 72 27 bd
       -0.025805898 -0.019427137 0.04835892 -0.040880334
000020 cf 77 4a bc 8c 82 a3 bd 51 3b 97 bd cf af 6c 3d
       -0.012357666 -0.07983884 -0.073843606 0.05778485
000030 64 fd 55 3d ff b7 24 bd 73 42 85 bd ae cb f6 bd
       0.052243605 -0.040214535 -0.06506815 -0.120505676
000040 e1 9f 6b 3d e4 3f 8b bd df 57 e4 3c 55 c3 9f 3d
       0.05752552 -0.067992955 0.027873931 0.078009285
000050 89 4f 0a 3d 25 e5 73 3d 4b 89 21 bd 05 b3 1e bd
       0.033767257 0.0595447 -0.039437573 -0.038744945
000060 d0 f4 27 3b 2b dd b4 3c c3 60 0b bd af 12 04 bd
       0.0025628097 0.022078117 -0.034027826 -0.03224438
000070 63 78 15 bd 8e f6 26 bd d4 50 8a 3c da 64 b0 bd
       -0.036491763 -0.040762477 0.016884245 -0.08612986

predictor/fc1/W f4 [512, 32]
000000 ba 4f 34 be be ec 56 be 2e 8b 39 bd 9f a8 11 bd
       -0.17608538 -0.20988747 -0.045298748 -0.0355612
000010 a5 52 c0 3c d7 5f b4 3d 56 d3 a9 3d f8 28 17 be
       0.023476908 0.088073425 0.08292262 -0.14761722
000020 88 3f 86 3e c9 cc bb bc 92 9f b6 be 03 13 35 be
       0.26220345 -0.022924798 -0.35668617 -0.17683034
000030 a7 95 0a be 6a a0 0b bd 0d d4 54 bd a5 47 4b bc
       -0.1353365 -0.03408853 -0.05196004 -0.012407218
000040 c0 a8 9e 3e 4f ef 51 3e ca 3a 4a 3e 3a 0e d1 3c
       0.3098812 0.20501445 0.19748989 0.025519479
000050 5f 77 8e bd f4 2b 74 3f 6f 8e 9c 3d 85 e5 d1 be
       -0.06956362 0.9537957 0.076443546 -0.40995422
000060 d9 83 a6 bc 0c f0 06 3a b2 31 2f 3d c8 cd 20 3e
       -0.020326542 0.0005147464 0.042772003 0.157035
000070 9a 15 32 3d 32 58 e0 be 80 4f 8e be 8c 31 df 3e
       0.043477632 -0.43817288 -0.2779503 0.4359249
000080 2a 27 8d be 77 78 4c bd db af 15 be f0 e6 65 bd
       -0.27568942 -0.04991957 -0.14617865 -0.056128442
000090 34 bf 17 be a2 ee c5 3e db b9 d4 3e 0a 42 34 be
       -0.14819032 0.38658625 0.41548046 -0.17603317
0000a0 3e 35 af bd a3 e5 92 3e cf a2 fd bc c2 b3 2f 3e
       -0.08555077 0.28690824 -0.030961422 0.17158416
0000b0 f6 10 a1 be 41 c0 ae be df 0f cb 3e 78 f1 4a be
       -0.31458253 -0.34131053 0.39660546 -0.19818676
0000c0 fe 76 1c 3e c7 2b f4 3e 70 b4 83 3e 06 74 26 3f
       0.15279767 0.4768965 0.257236 0.6502079
0000d0 bd 0f 45 3f 28 61 05 3f c3 2a 83 3c 99 02 dd be
       0.7697714 0.52101374 0.016011601 -0.43166044
0000e0 4a 20 2a bd 1f a5 f6 bd 15 73 c8 be de 84 bb 3d
       -0.0415347 -0.12043213 -0.391503 0.09156202
0000f0 27 00 de 3d 8a 44 af 3d e6 58 d5 be 98 8f e4 bd
       0.10839873 0.08557995 -0.41669387 -0.11160201
000100 28 c8 2d 3e 18 37 84 3e 44 0e 8c bd ca 53 8f 3e
       0.16970885 0.25823283 -0.068386585 0.27993613
000110 83 4b 0f be 44 15 69 bd 8c 00 5f 3d a9 48 fb bb
       -0.13993649 -0.056905046 0.05444388 -0.007668574
000120 9b 6c b1 bd 43 60 ba 3d fc c9 90 3e 1e d2 60 be
       -0.08663293 0.09100392 0.28279102 -0.21955153
000130 a5 99 9a bd 60 4e 85 be 12 ce 6a 3e 25 70 fb 3c
       -0.075488366 -0.26036358 0.22930172 0.030693123
000140 ee cf 04 be 3a 49 02 3f 04 26 8f 3d 09 99 86 3e
       -0.12969944 0.50892985 0.06989673 0.26288632
000150 80 ee 76 bc e6 0e 16 3e 7e f5 9c bd b0 66 80 3e
       -0.015071511 0.14654121 -0.076640114 0.25078344
000160 fb 48 00 3e 33 6e 98 be 2a af d2 3d a7 42 38 be
       0.1252784 -0.29771575 0.10287316 -0.17994176
000170 19 fb cc bc fe dd 0f be cc 4b 05 3f b2 34 c3 be
       -0.025022076 -0.14049527 0.5206878 -0.3812614
000180 5f 22 a0 bd 5e 3e 92 be 8a bd c2 be ea 10 1c 3d
       -0.07819056 -0.28563207 -0.38035232 0.038102068
000190 ec 6a 43 be 6c d1 4c bd 64 8e f8 3e 7f 95 65 be
       -0.19083756 -0.050004408 0.48546135 -0.2242031
0001a0 54 3a ee bd 6f 22 76 3d be 80 15 3e c6 93 32 3e
       -0.11632219 0.060091432 0.14599892 0.17439184
0001b0 d3 a5 8b be ff fa ea be 8c 4b 6f 3e 6b 04 80 3c
       -0.2727495 -0.4589462 0.23368663 0.015627107
0001c0 8e 21 88 3c 1f 5b a5 3e 3b 82 41 3d b8 6c 0f 3f
       0.016617563 0.32296082 0.047243338 0.56025267
0001d0 be 15 70 3e 7d 99 d6 3e 2e ee 5e be 26 b5 dc be
       0.23445794 0.41913977 -0.21770546 -0.43106955
0001e0 6a 30 86 3d a9 4c a8 be aa 05 ad be 9f ae 99 3e
       0.06552203 -0.32870987 -0.33793384 0.30016038
0001f0 b7 b3 49 3e 5a 5f dd 3d f3 c4 df be 84 04 94 bb
       0.19697462 0.108092025 -0.43704948 -0.00451714
000200 16 e0 ac 3e 49 4f 80 be 54 e0 32 3e 8e 0c da bc
       0.33764714 -0.2506049 0.17468387 -0.026617315
000210 29 46 bc bd f3 68 8b bc d1 e5 52 3d 60 8c b5 be
       -0.091930695 -0.017017817 0.0514887 -0.3545866
000220 a4 db 36 3e 81 64 32 3e 61 6b 09 3f 72 ab 86 3e
       0.17857224 0.17421152 0.5367947 0.26302677
000230 de 59 d7 3d eb bd 43 bd 9d 36 1f 3e 94 9e e2 3e
       0.10515188 -0.04778854 0.15548177 0.4426161
000240 cf 28 77 bd e6 ba 19 3f 22 e9 f9 3d 3f ff bf 3e
       -0.060341652 0.6005081 0.1220267 0.37499425
000250 0e 25 d2 bd 3f 8b ae be d8 0d 2e 3e d9 2e 0f 3f
       -0.10260974 -0.3409061 0.16997468 0.5593086
000260 be 49 b9 3e f2 49 c4 be 4a 39 df bd a9 8f 5e 3e
       0.36189073 -0.38337666 -0.10899599 0.2173449
000270 e2 b3 c9 bc f5 1c 72 3e fe 04 fb 3c 73 e5 f3 be
       -0.024621908 0.23643859 0.030642029 -0.47635993
000280 d6 c2 0d bd 82 77 ee bd 75 59 20 3e b4 0b d9 3d
       -0.03460964 -0.11643888 0.15659125 0.10597935
000290 d8 82 d9 3e 46 c4 74 3d 7e 9e 34 3e 03 a1 9e 3e
       0.42482638 0.059757493 0.17638585 0.30982217
0002a0 2c c1 f3 bc 8e 03 24 3c 10 d3 56 bd 66 44 a6 3d
       -0.029755197 0.010010613 -0.05244738 0.08118515
0002b0 c2 a8 25 3d 88 50 33 be 69 4d a9 3d 53 85 94 3d
       0.040444143 -0.17511189 0.08266718 0.07251992
0002c0 e6 29 30 3e 8b bb 0d be 3b 78 04 3e 6e af 82 bb
       0.17203483 -0.13841073 0.1293649 -0.003988198
0002d0 c9 2e d0 3e 96 32 7d bc 8c 6d a8 bd c0 8d 82 be
       0.40660694 -0.015453955 -0.082240194 -0.25498772
0002e0 25 b1 46 be d3 d3 95 3c 6f f4 1a be 84 49 ec 3e
       -0.19403513 0.018289482 -0.15132307 0.46149838
0002f0 fe 3f 4c 3e d0 a0 97 bd a2 48 77 be f5 31 c5 3e
       0.19946286 -0.074037194 -0.24148801 0.38514677
000300 f0 d5 03 3e e1 67 7a bd 9b 4a d9 3a d2 fd 80 bc
       0.1287458 -0.061134223 0.001657802 -0.015746031
000310 78 07 d9 3e e0 4c a7 bd a8 c8 b0 bd e1 d3 0a 3e
       0.4238851 -0.081689596 -0.08632022 0.13557388
000320 e0 ce b9 3d 7e fd a2 bd 92 cb 43 be 17 89 b3 bd
       0.090726614 -0.07958506 -0.19120625 -0.08766382
000330 b3 30 20 bd 8a 6a c8 3e 68 ad 34 be 2a 03 01 be
       -0.039108943 0.39143783 -0.17644274 -0.12598863
000340 bb 20 3a 3d ab 08 0c 3e 17 78 55 3e 0b bd 3e 3e
       0.04544137 0.13675182 0.20846592 0.18626802
000350 57 c7 7f bd 1a 4d 86 bd e1 aa 5a 3e 4c 34 94 3d
       -0.062445965 -0.06557675 0.21354248 0.07236537
000360 38 e4 f8 be f5 94 9f 3e 19 50 c6 3d fe f4 26 be
       -0.48611617 0.31168333 0.09683246 -0.16304395
000370 d5 2a 48 3e 21 59 3d be 18 91 6c 3e dd 1d 5d 3e
       0.19547589 -0.18491031 0.23102224 0.21593423
000380 c6 8c 90 3e e8 1c 1c bf 7d 45 12 be d4 cc 8a be
       0.28232402 -0.6098161 -0.1428432 -0.27109396
000390 e0 e8 dc 3d 08 2e dc 3d 9b d5 36 3e 2c 15 b0 be
       0.10786605 0.10750967 0.17854922 -0.34391153
0003a0 60 0e a5 bb 95 df e0 3e 94 a1 04 be 87 1f 1c 3e
       -0.005037114 0.4392058 -0.12952262 0.15246402
0003b0 84 66 31 be f4 3f db 3c 60 b4 9b 3e 5e 39 75 be
       -0.17324263 0.026763894 0.30411053 -0.23947665
0003c0 96 71 e7 3d aa 4d 67 be 0c 0d cb 3e cf f6 c8 3e
       0.11300962 -0.2258822 0.3965839 0.392508
0003d0 26 07 82 3e ac da 35 3d 5e 3f 1c bd 6d 51 ed be
       0.2539608 0.044397995 -0.03814637 -0.46351185
0003e0 29 07 2b 3e 4c 70 48 bd 7a 6f f7 bd 72 64 a7 3e
       0.1670195 -0.04893522 -0.12081809 0.3269382
0003f0 5a e1 07 3f b8 ed 55 be d1 b3 c7 be bb dd 9f be
       0.53078234 -0.20891464 -0.39004377 -0.31223854

predictor/fc1/b f4 [512]
000000 af 3c d3 3c 98 63 94 3d cd 4a cd 3c 12 87 12 3d
       0.025785772 0.072455585 0.025060082 0.035773344
000010 17 ba c1 3d 9c 3c 47 bd 4d 03 1e 3b c3 1b b7 3c
       0.09459322 -0.048641786 0.0024110854 0.022352105
000020 dc 50 ce 3d d0 ff 8a 3d 48 18 92 3d 1a 94 8d 3c
       0.100740165 0.067870736 0.071335375 0.017282534
000030 b6 41 4b 3d 6b 38 69 bc 9c ef 78 bc d9 90 95 bd
       0.049623214 -0.0142346425 -0.015193846 -0.07303018
000040 58 fc b9 bc cf fa 9a 3d 99 4c 6d 3d 52 0e 9d 3c
       -0.022703335 0.07567369 0.057934377 0.019171868
000050 67 d6 af 3c ce 8d 1f 3d 07 14 5a bc 9e 15 c6 bd
       0.02146454 0.038953595 -0.013310439 -0.09672092
000060 f7 4b da bb 3e f6 92 bd 02 4d c9 bd 87 61 5b 3d
       -0.0066618877 -0.07175873 -0.09829141 0.053559806
000070 94 68 e0 3d 50 f2 11 3d 28 a1 3c 39 33 a5 07 3d
       0.10957447 0.035631478 0.00017989113 0.03311653
000080 0c ad b8 3d e4 6f 91 bd 85 9d 91 3d 39 83 6e 3d
       0.09017381 -0.071014196 0.071101226 0.058230612
000090 44 40 2e be dd 9a c9 bc 82 74 b0 3d 9a 60 8c 3d
       -0.17016703 -0.024609977 0.08615972 0.06854363
0000a0 2c 27 1b bd 99 cb fc 3c 77 5a e2 3d 6c 58 6e 3c
       -0.037879154 0.030858802 0.11052411 0.014547449
0000b0 de dd 6c 3d 79 d3 a7 3d f6 03 31 3d 34 11 05 bd
       0.057828777 0.08194632 0.043216668 -0.03248711
0000c0 68 59 23 3d 2e f5 a2 bd ad 6f 55 3d f9 8e aa 3d
       0.039880186 -0.079569206 0.052108455 0.08328051
0000d0 c3 b2 cd 3d 43 c8 73 3d 23 97 0b 3d 04 5c 5f 3d
       0.10043862 0.059517156 0.034079682 0.054531112
0000e0 06 af bf 3d a1 f8 6a bd 3f 64 83 bd 05 ae 2f bd
       0.09359555 -0.057366017 -0.06415605 -0.042890567
0000f0 1d bb 74 bd b1 37 9e 3c d6 1f 59 3d 38 a1 6a bc
       -0.059748758 0.019313665 0.053008877 -0.014320664
000100 a7 48 b5 3d 70 3c ac 3d 3e 8f b6 3d a4 d7 ca 3d
       0.08851748 0.08409965 0.0891404 0.099044114
000110 62 cc 08 3d 7a ca 96 3d d4 a9 1b be fd e0 a8 bd
       0.03339804 0.07362838 -0.15201503 -0.08246038
000120 ae 64 ae 3d 8d 21 12 be 3d 0f 90 3d 1a 2c 4f 3d
       0.08515297 -0.14270611 0.070341565 0.050579168
000130 4f c2 47 3d e8 ed 38 bd 8a be a1 3c b1 33 4b 3d
       0.04876929 -0.04514876 0.019744176 0.049609844
000140 e9 c3 f7 bd 7c c8 5d 3d c0 c8 17 3d 3d 2c a1 bd
       -0.12097914 0.054146275 0.037056684 -0.07869766
000150 53 87 85 bd 75 4e 5e 3d b7 61 1b bd c4 9a 80 3d
       -0.06519952 0.05427404 -0.037934985 0.06279519
000160 29 61 25 bd e2 8f 2a 3d 0c fa 85 3d 4e aa b1 bd
       -0.040375862 0.041641124 0.06541833 -0.08675061
000170 a1 a7 fd 3c 08 2f 33 bd 6c 0f ba bd f4 39 c4 3d
       0.03096372 -0.043746024 -0.09084973 0.09581366
000180 ea f0 40 3c 19 76 8f 3d 72 9b 37 3c 42 46 05 3e
       0.011776188 0.07004947 0.011206495 0.13015082
000190 69 2b 02 bd 3d cd 3b 3c b3 ed ae ba d8 fc 83 bd
       -0.03177968 0.011462507 -0.0013345986 -0.064447105
0001a0 93 62 da 3d 64 21 ae 3d 65 02 ad bc 35 35 35 3d
       0.10663333 0.085024625 -0.021119306 0.044240195
0001b0 b1 81 79 bd 03 c2 de bd 75 e3 8a 3d 95 8d cc 3d
       -0.0609147 -0.108768485 0.06781665 0.09987942
0001c0 20 09 4b 3c 94 71 12 bd cb 12 98 3d d7 7c eb 3c
       0.012392312 -0.035752848 0.074254595 0.028746052
0001d0 47 64 03 be 1a 01 bc 3c e2 75 a7 3d 53 8e 95 3d
       -0.12831222 0.022949744 0.08176781 0.07302537
0001e0 96 89 53 3d 56 6d b6 bb 02 ab e4 3d 1b 21 6c bb
       0.051644884 -0.005567233 0.1116543 -0.0036030475
0001f0 12 6a 3f 3d 4e 8f ac 3d be 73 fc 3d a4 65 2c 3c
       0.046732016 0.08425771 0.123267636 0.01052228
000200 59 27 75 3d c1 7e c1 3d 43 0d c1 bc ba 8b 88 3d
       0.059851978 0.094480045 -0.023565894 0.06667276
000210 a8 a1 4b bc c8 b9 4e 3d 4d 7a 20 bd 3d d9 a6 3b
       -0.012428679 0.050470144 -0.039179135 0.005091815
000220 f0 a4 f2 3c 36 b3 5f 3d 43 97 9e bc 7e b5 49 bd
       0.029619664 0.05461427 -0.019359237 -0.04924535
000230 49 fd fc 3c 5d 91 ad 3d bf 56 d1 3c 34 36 96 3d
       0.030882495 0.084749915 0.02555406 0.07334557
000240 af 73 8c bd 83 a9 8c 3b 7f ee c9 bd ec de 99 3d
       -0.068580024 0.0042926683 -0.09859943 0.07513222
000250 79 09 10 3c 9c 15 75 3d 21 e0 d5 3a ef 69 b7 bc
       0.008791321 0.05983506 0.0016317406 -0.02238938
000260 07 db 90 3d 55 b7 50 3d 6d 1a 38 bd 7a ce bc 3c
       0.07073026 0.05095609 -0.044947077 0.023047674
000270 2a 00 25 bd b8 8c f2 3a c2 9c a4 3d 82 24 82 3d
       -0.04028336 0.0018505072 0.08037712 0.063546196
000280 a5 4b 91 3c 38 f7 24 bd a7 49 97 3c 54 8d 03 be
       0.017736265 -0.04027483 0.018467737 -0.12846881
000290 41 33 8a 3c 68 75 13 3c 16 34 97 bd b0 8e a4 3c
       0.016870143 0.00900016 -0.073829815 0.02008757
0002a0 8f 4e a7 3c ab ae 15 3d 86 4e e5 bc d9 de 29 bd
       0.020423202 0.03654353 -0.027991544 -0.04147229
0002b0 2b 0c 89 bd bb e4 70 bd 0a 92 ca bc 5e 13 4b 3d
       -0.06691774 -0.058811884 -0.02472784 0.049579017
0002c0 3c 04 57 3c 32 38 90 3d 17 06 b0 3d d7 e1 8d bc
       0.013123568 0.070419684 0.085949115 -0.017319603
0002d0 a2 7b 9a 3d 7e 53 1c bc 6f 30 de 3d 76 05 87 3d
       0.07543112 -0.00954139 0.10849082 0.065928385
0002e0 22 f5 99 3d 53 a1 cd bc ba 49 36 3c 06 a0 88 3d
       0.075174585 -0.02510134 0.011125976 0.06671147
0002f0 69 0d b8 b9 01 e5 b0 3d c0 94 53 3d 03 2a cb 3d
       -0.00035105206 0.08637429 0.05165553 0.099201225
000300 d9 1b a9 bc b0 44 ef 3c 6d 7b db bc 05 b6 a9 3d
       -0.020643162 0.029207557 -0.026792252 0.082866706
000310 2a 9a b6 bd 31 53 36 3c 1f 26 af 3d ae 12 8d bd
       -0.08916123 0.011128233 0.08552193 -0.068883285
000320 88 37 4b 3d ca f7 12 be 01 f5 1a bd 72 0b 06 be
       0.049613506 -0.14352337 -0.03783131 -0.13090304
000330 f9 eb 37 3c 9c 19 97 bd 03 d6 b0 3d 9e db 6f 3d
       0.011225694 -0.073779315 0.086345695 0.058559053
000340 c0 28 56 3d ea 36 d5 3b 1f 4c de 3c c0 fc 28 3c
       0.052284956 0.0065067904 0.027135907 0.010314167
000350 16 35 07 be 86 87 5c bd 91 bc 4a 3d 21 6a fa bc
       -0.13203844 -0.053840183 0.049496237 -0.030568184
000360 4d 74 14 3e a0 dc 9b 3d 7e e3 8c 3d 5a 78 81 3d
       0.1449749 0.0761044 0.06879328 0.06321783
000370 db 57 d9 3d 78 2a 81 3d 94 80 26 3d d6 99 fe bd
       0.1061246 0.063069284 0.040649965 -0.124316856
000380 28 bf b9 3d 40 7e 02 3e 07 71 06 3d 6f 5b aa bd
       0.09069663 0.12743473 0.032822635 -0.08318221
000390 3f a1 77 bd c7 cb 88 bd eb 27 47 3d 49 3f 2d 3d
       -0.06045651 -0.066794924 0.048622053 0.04229668
0003a0 c9 c9 24 bd 35 92 08 bd 80 01 3f bc cb 57 ec bb
       -0.0402315 -0.03334256 -0.0116580725 -0.007212614
0003b0 a4 63 e4 3c 64 21 62 3d 69 e3 8d bc a6 fc 88 3d
       0.027879544 0.055207625 -0.017320352 0.06688814
0003c0 ed 4f 98 3d c6 9d 8c 3d 34 f8 85 3d c3 d0 f7 3c
       0.0743712 0.068660304 0.065414816 0.030250913
0003d0 d4 bd b2 bc e8 7f 45 bd d4 75 0b bc 54 01 71 3d
       -0.021819033 -0.048217684 -0.008511979 0.058839157
0003e0 9f 8d f7 bc 38 07 ee 3d 0a 84 a2 3d ba c7 48 3d
       -0.030218897 0.116224706 0.07935341 0.0490186
0003f0 c1 9d 8f 3d ae 73 f5 3c 99 fc f7 bd 0b 05 24 3d
       0.07012511 0.029962387 -0.12108726 0.04004387
