prototype/chainer_prototype/learned_model/v4.model (npz, 290233 bytes, 8 tensors)

predictor/conv2/b f4 [32]
0	0xbe657883	-0.22409253
1	0xbe0f1008	-0.13970959
2	0xbe3a01b1	-0.18164708
3	0x3c6c8658	0.014436327
4	0xbdccbd7a	-0.09997077
5	0xbbc5a4c0	-0.0060316026
6	0x3e6666f7	0.22500215
7	0xbc967fb7	-0.018371446
8	0x3e0d639b	0.13807528
9	0x3d1fd7f9	0.039024327
10	0x3b5167be	0.0031952704
11	0x3dd6c6b0	0.104871154
12	0xbca5ff8e	-0.02026346
13	0xbe1db37a	-0.15400496
14	0x3dcc79ce	0.0998417
15	0xbd9cbdf7	-0.076534204
16	0x3e6a8d45	0.22905453
17	0xbbeed57e	-0.007288634
18	0xbd3ce643	-0.046118032
19	0xbd4585df	-0.048223373
20	0xbd0298c6	-0.031883977
21	0x3d265006	0.04060366
22	0x3dfcccaf	0.12343728
23	0xbb6b8142	-0.0035935198
24	0x3eb10fb3	0.3458229
25	0xbda6797c	-0.0812864
26	0xbbf77536	-0.0075518144
27	0x3dc644a7	0.09681063
28	0xbe29b129	-0.16571487
29	0x3ce9c91b	0.028538277
30	0xbc20b0d5	-0.009807785
31	0xbd37209b	-0.04470883

predictor/conv2/W f4 [32, 32, 3, 3]
0	0xbe093a83	-0.13401227
1	0x3c1960df	0.009361475
2	0xbe8e3fdd	-0.277831
3	0x3df77c05	0.12084202
4	0x3d888b83	0.06667235
5	0xbda1d859	-0.07902593
6	0xbdcbd210	-0.099521756
7	0x3e04a8ec	0.12955064
8	0x3c721278	0.014774911
9	0xbdf447d8	-0.119277656
10	0x3ddb464f	0.1070677
11	0xbdcc32c3	-0.099706195
12	0xbbed25ec	-0.0072371867
13	0xbdfa9b1b	-0.12236615
14	0xbd67ecc2	-0.056622274
15	0xbd1640c8	-0.036682874
16	0xbd09fcbe	-0.0336883
17	0x3c466774	0.012109626
18	0xbd29759c	-0.041371927
19	0x3bf4b8ad	0.007468304
20	0xbde5fa07	-0.112293296
21	0x3e078de9	0.13237728
22	0xbc071e9e	-0.008247046
23	0xbda60f19	-0.081083484
24	0x3d834365	0.06409339
25	0x3e7d3b30	0.2472961
26	0x3da09af0	0.07842052
27	0xbda6784a	-0.08128412
28	0xbd351d1f	-0.044217225
29	0x3ec9f47d	0.39444342
30	0xbd25f705	-0.04051878
31	0xbcc3b0c0	-0.023887992
32	0xbe7926bf	-0.24331187
33	0x3d5ae4e7	0.053440955
34	0x3e3da6a8	0.18520606
35	0x3e1979de	0.14987895
36	0xbe224a2c	-0.15848607
37	0x3e2217e4	0.15829426
38	0xbb88848f	-0.004166193
39	0x3c6fcbb1	0.014635966
40	0xbe7b3c13	-0.24534635
41	0xbdd0ace4	-0.10189226
42	0xbddedb49	-0.10881669
43	0x3d557477	0.052113023
44	0xbdea6e67	-0.11446839
45	0x3e164846	0.14676008
46	0x3db38594	0.087657124
47	0xbd740361	-0.059573535
48	0x3dfaf178	0.12253088
49	0x3cdf688e	0.027271535
50	0x3d6add3c	0.05733989
51	0xbda3b5e7	-0.079936795
52	0x3d8d421b	0.06897374
53	0xbd903a2a	-0.07042344
54	0xbcdc9f32	-0.026931379
55	0xbe98af82	-0.29821402
56	0x3d7370b3	0.05943365
57	0x3e80e0d0	0.25171518
58	0x3e0d3884	0.1379109
59	0xbd661be4	-0.056178942
60	0x3e1ff5fb	0.15621178
61	0xbe0ae506	-0.13563928
62	0x3e84526f	0.25844142
63	0x3f1da228	0.61575556
64	0x3e062594	0.13100272
65	0xbdb477b8	-0.08811897
66	0x3d932f47	0.07186752
67	0x3dc27b44	0.09496167
68	0x3e03c611	0.12868525
69	0x3d6c9901	0.057763103
70	0xbd945edc	-0.072446555
71	0xbe871d27	-0.2638943
72	0xbc23e258	-0.010002695
73	0xbe04905e	-0.12945697
74	0xbe8bc64a	-0.2729972
75	0xbe58260b	-0.21108262
76	0x3d2b57e3	0.041831862
77	0xbdd75b60	-0.10515475
78	0x3cbdbd2c	0.023161493
79	0x3b4cf487	0.003127368
80	0x3d8d2ac9	0.06892926
81	0x3eae5a87	0.34053442
82	0x3dbc2627	0.091869645
83	0xbd5bf0b2	-0.05369634
84	0x3d12a006	0.03579714
85	0xbd63dfa9	-0.05563322
86	0xbdd72ac8	-0.10506207
87	0xbdcdc1e3	-0.100467466
88	0xbc5e5003	-0.013568881
89	0x3e4386e6	0.19094428
90	0xbea7530a	-0.3268054
91	0x3e4a10c6	0.19732961
92	0x3d57cbf5	0.052684743
93	0xbf0047db	-0.5010964
94	0x3dc8f7ff	0.098129265
95	0x3c32eaed	0.0109202685
96	0x3e23467c	0.15944856
97	0x3e7c4c1b	0.24638407
98	0x3e6c431d	0.23072477
99	0xbd95f108	-0.07321364
100	0x3d6b1b7d	0.05739926
101	0xbe72c578	-0.23708141
102	0x3e179b7f	0.14805411
103	0xbd310a8a	-0.04322294
104	0x3d689d9b	0.05679093
105	0xbe3041e1	-0.17212631
106	0x3e6ee943	0.2333117
107	0x3c94f346	0.018182408
108	0xbd98254d	-0.074289896
109	0xbd343adc	-0.044001445
110	0xbd2063ac	-0.039157555
111	0x3d86504c	0.06558284
112	0x3cd55399	0.026040839
113	0x3d595b3a	0.053065516
114	0x3d9cea60	0.07661891
115	0x3cb9e9ad	0.022694433
116	0x3cf2a33e	0.029618856
117	0xbe5190b2	-0.20465353
118	0xbf117b35	-0.56828624
119	0x3e98e992	0.298657
120	0x3d36269b	0.04447041
121	0xbe069204	-0.13141638
122	0x3bff31dc	0.007787926
123	0x3d64291b	0.055703264
124	0x3cf0d069	0.029396253
125	0x3d0b1d4c	0.033963487
126	0xbdf6b162	-0.12045552
127	0xbd4779e7	-0.04870024
128	0xbe2b5f73	-0.1673563
129	0xbd27098b	-0.040780585
130	0xbe5317d3	-0.20614557
131	0x3dbfd615	0.09367005
132	0xbdef3d78	-0.11681646
133	0xbbeec50f	-0.007286675
134	0xbe6a3ab6	-0.22873959
135	0x3e40e853	0.18838625
136	0x3e338419	0.1753086
137	0x3e23625a	0.15955487
138	0x3ec673c2	0.3876019
139	0xbe4ed72b	-0.20199268
140	0x3cbad896	0.022808354
141	0xbedbabad	-0.42904416
142	0xbc717647	-0.014737672
143	0xbe7a12bc	-0.24421209
144	0x3deebde2	0.11657311
145	0xbeb55f4c	-0.35424268
146	0xbbcb9339	-0.0062126187
147	0xbe388593	-0.18019705
148	0x3e8276b8	0.254812
149	0xbe815f92	-0.25268227
150	0xbd433d7e	-0.047666065
151	0xbde9449e	-0.11390041
152	0xbe099209	-0.13434614
153	0x3e806bcd	0.25082245
154	0xbe446966	-0.19180831
155	0xbc987502	-0.018610481
156	0xbd8f5b27	-0.06999808
157	0xbd5e614a	-0.054292
158	0xbda54d8c	-0.080714315
159	0x3e29c248	0.16578019
160	0x3ea703a3	0.32619962
161	0x3d9c09cd	0.07619057
162	0xbe0ec1ff	-0.13941191
163	0xbe10bd84	-0.14134794
164	0x3ea29adf	0.31758782
165	0xbd287ab7	-0.041132655
166	0x3e7b39bb	0.24533741
167	0x3ec34181	0.38135913
168	0x3e39f422	0.18159536
169	0x3d7d9e95	0.061918814
170	0x3e298261	0.16553642
171	0x3e602917	0.21890675
172	0x3cc03703	0.023463732
173	0xbe0f6fa3	-0.1400743
174	0xbe0ab580	-0.135458
175	0xbd991ab8	-0.07475799
176	0xbd87ec63	-0.06636884
177	0x3e2d13ea	0.16902128
178	0x3ccc5e76	0.024947386
179	0xbc71fe4b	-0.014770101
180	0xbd22ee45	-0.039778013
181	0xbea8e872	-0.32989842
182	0xbe06099e	-0.13089606
183	0x3d345deb	0.04403488
184	0x3cdaab30	0.026692957
185	0xbc917b98	-0.01775913
186	0x3df06b4a	0.11739214
187	0x3e254dd0	0.16142964
188	0x3dfe071a	0.12403698
189	0x3e04b321	0.12958957
190	0xbee268f7	-0.44220707
191	0xbf1471f2	-0.57986367
192	0xbcf386f8	-0.029727444
193	0xbe4c84a3	-0.19972472
194	0x3b96b97a	0.0045997472
195	0x3d4e475f	0.050361034
196	0xbea00cfd	-0.3125991
197	0x3d58082f	0.05274218
198	0x3dec34a7	0.1153348
199	0xbea91094	-0.3302046
200	0xbe54beba	-0.20775881
201	0xbd90093c	-0.07033011
202	0x3d7bc8bb	0.06147073
203	0x3dba1010	0.09085095
204	0xbd96094a	-0.073259905
205	0x3d246566	0.040135764
206	0x3ea3c161	0.31983474
207	0x3e1d849e	0.1538262
208	0x3f4aefe4	0.79272294
209	0xbf794ebe	-0.97385776
210	0xbe9899de	-0.2980489
211	0x3d6fb8b9	0.058525775
212	0xbf04322d	-0.5163906
213	0x3d9f46bf	0.077771656
214	0xbeba3e6d	-0.36375752
215	0xbf3f0cc2	-0.7462884
216	0xbec4c6a9	-0.38432816
217	0x3e6f962b	0.23397128
218	0xbe2cda97	-0.1688026
219	0x3ec24c4b	0.37948832
220	0x3cf760bd	0.030197496
221	0xbe07268c	-0.13198298
222	0x3b8cbc5c	0.004294915
223	0xbd9f2c27	-0.07772093
224	0xbc910076	-0.017700415
225	0x3ebcde8d	0.36888543
226	0xbd0a4bb0	-0.033763587
227	0xbd493957	-0.04912695
228	0xbe62ad28	-0.22136366
229	0xbd8b3bd7	-0.06798523
230	0x3eb165ca	0.3464797
231	0x3c3d8fdc	0.011569943
232	0x3ddc7056	0.10763614
233	0xbe3bcb2b	-0.18339221
234	0xbe60e020	-0.21960497
235	0x3e4bd959	0.1990713
236	0x3e5131cb	0.20429151
237	0x3c7184ac	0.014741104
238	0xbd44621d	-0.04794513
239	0xbe4c3929	-0.1994368
240	0xbc11b88f	-0.0088941
241	0xbc6368d7	-0.013879976
242	0x3c147c20	0.009062797
243	0x3db4f5e9	0.08835966
244	0xbe49b517	-0.19697987
245	0x3d5ebf4e	0.05438166
246	0xbcca9467	-0.024728967
247	0x3e094514	0.13405257
248	0xbe3bd7ab	-0.1834399
249	0x3e68150f	0.22664283
250	0x3e2d9596	0.16951594
251	0x3d4f9825	0.050682206
252	0x3dd9878c	0.10621557
253	0xbed0f58a	-0.4081233
254	0xbe0b8ebf	-0.13628672
255	0xbc25854d	-0.010102582

predictor/conv1/b f4 [32]
0	0xbea01e69	-0.312732
1	0xbd677a01	-0.056512836
2	0xbeca9731	-0.39568475
3	0xbc88d4d3	-0.016703045
4	0x3d896f82	0.067107216
5	0xbc60470c	-0.013688814
6	0x3c80dce1	0.015730323
7	0x3d85613b	0.06512686
8	0xbdb492c4	-0.08817056
9	0x3ee2a853	0.44269046
10	0xbd3926c8	-0.045203
11	0xbcca1fc9	-0.02467336
12	0xbbaae66c	-0.0052154567
13	0xbc42fc3a	-0.011900956
14	0xbb0b0553	-0.002121289
15	0x3ed60bdc	0.41805923
16	0xb97cdf0c	-0.00024115684
17	0xbda8bd69	-0.08239252
18	0x3df3c084	0.11901954
19	0xbd0036ae	-0.031302147
20	0xbe66f8ab	-0.22555797
21	0xbadcb3dc	-0.001683827
22	0xbd60b36f	-0.05485862
23	0xbe0f2270	-0.1397798
24	0xbc19b783	-0.0093821315
25	0x3c6975f6	0.0142493155
26	0x3d0da5ca	0.034581937
27	0xbe12c07a	-0.14331236
28	0xbe7f39eb	-0.24924438
29	0xbcbc2e4c	-0.022971295
30	0x3d0ee13e	0.034882776
31	0x3d4ce94b	0.050027173

predictor/conv1/W f4 [32, 3, 3, 3]
0	0x3ec5c94c	0.3863014
1	0xbdc8630e	-0.09784518
2	0xbe7f18b5	-0.24911769
3	0x3dc56702	0.09638788
4	0xbd17655d	-0.036961902
5	0x3e86577c	0.2623862
6	0xbcb97ac8	-0.022641554
7	0xbe697832	-0.22799757
8	0x3df16d9e	0.11788486
9	0xbb740fed	-0.0037240938
10	0xbe642384	-0.22279173
11	0x3de7e9d9	0.113239
12	0xbe956f56	-0.29186505
13	0x3a7eb1a8	0.0009715804
14	0xbe5be018	-0.21472204
15	0xbe54f321	-0.20795871
16	0x3eb41fdb	0.35180554
17	0xbdabfe68	-0.083981335
18	0x3eb1de1d	0.3473977
19	0x3cb200d9	0.02172892
20	0x3e99fcef	0.30075786
21	0xbeab26dd	-0.33428088
22	0xbd9bb955	-0.07603709
23	0x3e4c3ff3	0.1994627
24	0x3e90518a	0.2818721
25	0x3ec6d30b	0.38832888
26	0x3e176425	0.14784296
27	0xbd9b97be	-0.07597302
28	0xbe55e906	-0.20889673
29	0x3d6c296f	0.0576567
30	0x3d670122	0.056397565
31	0x3e9e05d3	0.3086382
32	0x3e5f7a32	0.21823958
33	0xbdb4fd42	-0.088373676
34	0xbe0f220c	-0.13977832
35	0x3e0f3b51	0.13987471
36	0x3dcab552	0.09897865
37	0x3eb606c9	0.35552052
38	0x3e8744a1	0.26419547
39	0x3e38d67d	0.18050571
40	0xbcd5db32	-0.026105497
41	0xbd3eeef8	-0.046614617
42	0xbe7d3bd2	-0.24729851
43	0x3d1f6354	0.038913086
44	0xbea589e9	-0.3233178
45	0x3dac4563	0.08411672
46	0xbd0e74bb	-0.03477929
47	0xbb94da75	-0.0045426437
48	0xbca44c4e	-0.020055916
49	0xbd6e461c	-0.05817233
50	0x3e80ff3e	0.25194734
51	0xbde7aa83	-0.113118194
52	0xbcc7a1f3	-0.024369216
53	0xbe51dccd	-0.20494385
54	0xbd1f7238	-0.038927287
55	0xbdb94472	-0.09046258
56	0x3e1ddfce	0.15417406
57	0xbe8ba3d6	-0.27273434
58	0x3ed47c33	0.41501006
59	0x3e0c720b	0.13715379
60	0x3e87ccc8	0.26523423
61	0x3ebb70bc	0.36609447
62	0xbc1ca671	-0.009561167
63	0x3e7e7614	0.2484973
64	0xbd9a9454	-0.075478226
65	0x3e05251b	0.13002436
66	0xbf0b185c	-0.54334044
67	0xbe01a414	-0.12660247
68	0xbde8a6a9	-0.11359913
69	0x3e5e2604	0.2169419
70	0x3ec6be3b	0.3881701
71	0xbe453068	-0.19256747
72	0xbe3d21a7	-0.18469869
73	0x3dd80813	0.10548415
74	0x3d27cc7a	0.04096649
75	0xbe86a49e	-0.26297468
76	0x3eb1be75	0.3471562
77	0x3e1a2a26	0.15055141
78	0x3e6de7a2	0.23232892
79	0x3e3b978c	0.1831953
80	0xbe217a0c	-0.15769213
81	0x3e4c71e9	0.19965328
82	0xbd580602	-0.052740104
83	0xbd6810ae	-0.056656532
84	0xbe182f98	-0.14861906
85	0x3e3c6124	0.18396431
86	0x3e730b77	0.23734842
87	0xbe92a69c	-0.28642738
88	0xbcbe4554	-0.023226418
89	0xbedb774b	-0.4286445
90	0x3e874a18	0.26423717
91	0xbc20b881	-0.009809614
92	0xbdac91b3	-0.084262274
93	0x3e2f4555	0.17116292
94	0xbdb05d68	-0.08611566
95	0xbd0fb114	-0.035080984
96	0x3ebeb7cc	0.372496
97	0x3e73debf	0.2381544
98	0x3e784782	0.24246028
99	0x3d21f521	0.039540414
100	0xbd352b37	-0.044230666
101	0xbe114fb6	-0.14190564
102	0xbf18da00	-0.5970764
103	0xbec43909	-0.38324764
104	0xbd6f2871	-0.058388177
105	0x3ca13b9d	0.019681746
106	0x3e4d0a7c	0.2002353
107	0x3eca7682	0.3954354
108	0xbe12876a	-0.14309469
109	0x3e49ecee	0.19719288
110	0x3e3d0351	0.18458296
111	0x3e64e5c2	0.2235327
112	0xbec8af71	-0.3919635
113	0x3db834bc	0.08994433
114	0x3d9edf94	0.07757488
115	0xbddfe314	-0.109319836
116	0xbed9cfbd	-0.42541304
117	0x3ecb1631	0.39665368
118	0xbea578a5	-0.32318607
119	0xbea61665	-0.3243896
120	0x3e7046a4	0.23464447
121	0xbe077d8f	-0.1323149
122	0xbe15bdf1	-0.14623238
123	0x3e7b4dce	0.24541399
124	0x3e972b5b	0.29525265
125	0xbdc1a31a	-0.09454937
126	0x3ed250b9	0.41077211
127	0xbeac01e4	-0.33595192
128	0xbea2e3bc	-0.31814373
129	0x3f021f05	0.5082858
130	0xbe94ee55	-0.29088083
131	0x3d709fdf	0.058746215
132	0x3eca9584	0.39567196
133	0xbece9498	-0.40347743
134	0xbe7860d9	-0.24255694
135	0xbe84da59	-0.25947836
136	0xbef8d28b	-0.48598132
137	0x3da92b57	0.082602195
138	0xbeb7e51d	-0.35916987
139	0x3d345497	0.044025984
140	0x3db5572a	0.08854516
141	0x3d831782	0.06400968
142	0xbe7e665d	-0.24843736
143	0xbce90b0a	-0.028447647
144	0xbd6d6466	-0.057957076
145	0xbe0e037d	-0.13868518
146	0xbeaac054	-0.3334986
147	0xbea2c455	-0.31790414
148	0xbc5d32cd	-0.013500881
149	0x3eb7479b	0.35796818
150	0x3de243db	0.11048099
151	0x3eb02573	0.3440357
152	0x3e0d7a55	0.13816197
153	0x3e9d2d01	0.30698398
154	0xbe7f7055	-0.24945195
155	0xbdaa6377	-0.08319753
156	0x3f015824	0.50525117
157	0x3e95a182	0.29224783
158	0x3e9d604e	0.30737537
159	0xbd9816bf	-0.074262135
160	0x3e13b503	0.14424519
161	0x3dda5707	0.106611304
162	0x3ef17845	0.4716207
163	0x3bd14f77	0.006387647
164	0xbeb2c04d	-0.3491234
165	0x3e6dbd51	0.2321675
166	0x3e8f718f	0.28016326
167	0x3e00e094	0.1258567
168	0x3eb36be6	0.35043257
169	0x3e78c0fd	0.24292369
170	0x3e66a013	0.22522001
171	0xbc38bd66	-0.011275625
172	0x3d819252	0.063267365
173	0xbd88d841	-0.06681872
174	0xbec98e9e	-0.3936662
175	0x3d86ec53	0.06588044
176	0xbeb7fe84	-0.35936368
177	0xbef839c1	-0.48481563
178	0xbe10b8fb	-0.14133064
179	0xbd2d631e	-0.042330854
180	0xbe6ebb81	-0.23313715
181	0xbdb35591	-0.08756555
182	0x3d01b7cf	0.031669434
183	0x3e0d1517	0.13777576
184	0x3d3490cf	0.044083413
185	0xbdf67ed5	-0.1203591
186	0x3d999c85	0.07500557
187	0x3dabf1e2	0.08395745
188	0xbe69a095	-0.22815163
189	0xbd89a2bd	-0.06720493
190	0x3de2cded	0.110744335
191	0x3d40ae18	0.04704103
192	0x3ebec629	0.3726056
193	0x3e08e476	0.13368401
194	0x3a6a6e74	0.00089428504
195	0x3e261f15	0.16222794
196	0xbe3ba62a	-0.18325105
197	0xbe32b627	-0.17452298
198	0xbf08f2e6	-0.53495634
199	0xbded2010	-0.11578381
200	0xbe71620c	-0.23572558
201	0xbdcb750d	-0.09934435
202	0xbeacd037	-0.33752605
203	0xbe978834	-0.29596102
204	0xbec06455	-0.37576547
205	0x3ce378b9	0.027767526
206	0xbe1c994b	-0.15292852
207	0x3d5ef54c	0.054433152
208	0x3e995fc9	0.2995589
209	0x3e7e2f57	0.24822746
210	0x3ea9bf7a	0.33153898
211	0x3e93b964	0.2885238
212	0xbae64540	-0.0017568246
213	0x3dc0e978	0.09419531
214	0x3c075c74	0.008261789
215	0x3f05d3ce	0.52276313
216	0x3dada64f	0.084789865
217	0x3da52eaa	0.08065541
218	0xbf20e744	-0.62852883
219	0x3e46bef0	0.19408774
220	0x3d960483	0.07325079
221	0xbeaba4a4	-0.33524048
222	0xbd925135	-0.07144395
223	0x3ed27d89	0.411114
224	0xbf21a4c6	-0.6314205
225	0x3d797738	0.06090471
226	0x3e614bfb	0.2200164
227	0xbe17c6c0	-0.14821911
228	0x3e9853ad	0.2975134
229	0xbe1aea1c	-0.15128368
230	0x3de8365f	0.113384955
231	0xbc72c2d4	-0.014816958
232	0x3f1411a5	0.57839423
233	0xbe2c2d3f	-0.16814135
234	0xbdbf1fbe	-0.09332226
235	0x3e736261	0.23767997
236	0x3e5ff2bf	0.21869944
237	0x3e643d5d	0.22289033
238	0x3edcb3f5	0.43106046
239	0xbd5b943c	-0.053608164
240	0xbcdb49cc	-0.026768588
241	0xbe1a68a1	-0.15078975
242	0xbe7975a2	-0.2436128
243	0xbeaf01b8	-0.34181
244	0x3e63cbb6	0.22245678
245	0x3db8494c	0.08998355
246	0xbe183506	-0.14863977
247	0x3df68f7c	0.12039086
248	0x3e0db18c	0.1383726
249	0x3ed6223b	0.4182299
250	0x3e51b5a3	0.20479445
251	0x3ebc6bab	0.36800894
252	0xbf0719a4	-0.527735
253	0xbe66ce62	-0.22539666
254	0xbf24a032	-0.6430694
255	0x3daad5d6	0.08341567

predictor/fc2/b f4 [3]
0	0xbcfe7e35	-0.03106604
1	0x3d9f902f	0.07791173
2	0xbd3a7fc2	-0.045531996

predictor/fc2/W f4 [3, 512]
0	0x3f4d6795	0.8023618
1	0xbda5827d	-0.08081529
2	0xbecc1d84	-0.3986627
3	0x3e4678e7	0.19382058
4	0x3ed3ff67	0.41405794
5	0x3e008f71	0.12554719
6	0x3e2b4851	0.16726805
7	0x3ec7021f	0.38868806
8	0xbd4055a8	-0.04695669
9	0xbf3f8779	-0.7481609
10	0x3db120bb	0.08648821
11	0xbf5152a0	-0.817667
12	0x3e8bfd45	0.27341667
13	0x3e5860be	0.21130654
14	0x3f16f541	0.5896798
15	0x3e6b1e6d	0.22960825
16	0x3ea06554	0.31327307
17	0x3e632ef5	0.22185881
18	0x3f0339f0	0.5126028
19	0x3f09cb30	0.53825665
20	0xbf10aaab	-0.5651042
21	0x3f0f4729	0.55967957
22	0x3e8e7300	0.27822113
23	0xbf3295b1	-0.6975966
24	0xbf160309	-0.5859838
25	0x3f053189	0.5202871
26	0xbe6c305b	-0.23065321
27	0x3d97c0c4	0.07409814
28	0xbe21067c	-0.1572513
29	0x3cb38e7b	0.021918526
30	0xbf1c0f40	-0.6096077
31	0x3f1a29aa	0.60219824
32	0xbcf98497	-0.030458732
33	0x3c596122	0.013267787
34	0x3f1c8a3a	0.61148417
35	0xbf2eb44f	-0.6824388
36	0xbeaee98d	-0.3416256
37	0xbf0894b5	-0.5335191
38	0x3ee9fc4a	0.45700294
39	0x3e60b461	0.21943809
40	0xbf2a7cec	-0.66596866
41	0x3ed78319	0.42092207
42	0x3e72e0ab	0.23718517
43	0xbf2aabb9	-0.6666828
44	0xbf475669	-0.77866226
45	0xbf11f17f	-0.5700912
46	0xbf03f637	-0.5154757
47	0xbf2cffef	-0.67578024
48	0x3d98c25f	0.07458948
49	0xbf313c59	-0.6923271
50	0xbe9f600a	-0.3112796
51	0x3e106b12	0.14103344
52	0x3e53bf13	0.20678358
53	0xbf172538	-0.59041166
54	0x3e21770c	0.15768069
55	0x3ea186e2	0.3154822
56	0xbeeefe68	-0.46678472
57	0x3ebd7ec9	0.37010792
58	0xbf0f159c	-0.5589235
59	0xbf3c971c	-0.73668075
60	0x3e976b3a	0.29573995
61	0x3ca93286	0.020653974
62	0x3e052f23	0.13006262
63	0xbf14efd9	-0.5817848
64	0x3ecf052e	0.4043364
65	0xbf2ed54f	-0.68294233
66	0x3ead6da7	0.3387272
67	0x3e78807b	0.24267761
68	0xbf136bb1	-0.575862
69	0x3e6fa33c	0.23402113
70	0x3eed333e	0.46328157
71	0xbf16d52f	-0.5891904
72	0xbf1e0df5	-0.61740047
73	0x3ea071a2	0.31336695
74	0xbed93f5b	-0.4243115
75	0x3f1f9776	0.62340486
76	0x3e7b2086	0.24524125
77	0x3e82a412	0.255158
78	0xbf19677c	-0.5992353
79	0xbecaa9cd	-0.39582673
80	0xbf15e866	-0.58557737
81	0xbf3b18ed	-0.7308491
82	0x3eeb7861	0.4599028
83	0xbe745e3e	-0.23864076
84	0xbf3ea05d	-0.74463445
85	0x3e943ff2	0.28955036
86	0xbf5e2bce	-0.8678559
87	0x3dc8dbf2	0.09807576
88	0xbf348ef6	-0.7053064
89	0xbe4e8946	-0.20169553
90	0xbdb0821c	-0.086185664
91	0xbd5c00c0	-0.053711653
92	0xbf04e5dc	-0.5191324
93	0xbf32c185	-0.6982654
94	0x3ec6bfcb	0.388182
95	0xbf33b92f	-0.7020444
96	0x3ed93cc9	0.42429188
97	0x3e449c79	0.19200315
98	0xbf573a29	-0.8407312
99	0x3e6672f0	0.22504783
100	0x3ed42be2	0.4143973
101	0xbf0f55bc	-0.55990195
102	0xbf32994b	-0.69765157
103	0x3e8e763a	0.27824575
104	0xbd5bbef7	-0.053648915
105	0x3e865771	0.26238587
106	0xbf3ebdf7	-0.74508613
107	0x3e61d2e3	0.22053103
108	0xbee3300a	-0.44372588
109	0xbe2bb4a9	-0.16768135
110	0xbf2c62cf	-0.6733827
111	0x3ea6da82	0.32588583
112	0x3edba9bd	0.42902938
113	0x3d4fed64	0.050763503
114	0xbed2d896	-0.41180867
115	0x3e85b802	0.2611695
116	0xbef753ea	-0.4830621
117	0x3f42f25c	0.7615106
118	0x3e29579b	0.16537325
119	0xbe5caa87	-0.21549426
120	0xbf1a46eb	-0.6026446
121	0xbee53652	-0.44768006
122	0xbf308217	-0.689485
123	0x3eac4978	0.33649802
124	0xbf7e0e1b	-0.99240273
125	0xbf2ca9c4	-0.6744654
126	0x3ecc9e44	0.39964497
127	0xbd0329d1	-0.0320223
128	0x3e8cc123	0.27491102
129	0x3ea8edc2	0.32993895
130	0xbf391d9e	-0.7231082
131	0xbe718fc7	-0.23590003
132	0x3e43ab29	0.19108261
133	0x3ee4b8ea	0.44672328
134	0xbf325ecf	-0.69675916
135	0x3ec596fd	0.38591757
136	0xbc60d504	-0.013722662
137	0x3ef17cad	0.47165433
138	0x3eaa4a40	0.33259773
139	0xbf30aa36	-0.6900972
140	0x3ee062e8	0.4382546
141	0xbf49a413	-0.7876598
142	0x3e207603	0.15670018
143	0x3e0262dc	0.12733024
144	0x3e824708	0.25444818
145	0x3ea388f4	0.31940424
146	0xbf60035f	-0.87505144
147	0x3eb362a8	0.35036206
148	0xbf1c7ee4	-0.6113112
149	0x3ed34a6c	0.41267717
150	0xbdaba174	-0.08380404
151	0x3ed2e41d	0.41189662
152	0xbf4514af	-0.76984686
153	0xbe82ad84	-0.25523007
154	0x3e70ccee	0.23515674
155	0x3e45323f	0.19257449
156	0x3c3d4c21	0.011553795
157	0xbf6e0e90	-0.9299097
158	0x3de74956	0.112932846
159	0xbf119122	-0.5686208
160	0x3e8e54d3	0.2779909
161	0x3e84428e	0.25832027
162	0xbf66358b	-0.8992545
163	0xbf4cf235	-0.8005708
164	0x3f0a4633	0.54013366
165	0xbedc2fbe	-0.43005174
166	0x3e64e2c7	0.22352134
167	0xbf08e822	-0.53479207
168	0xbf2550aa	-0.6457621
169	0x3e9145a4	0.28373444
170	0x3eb18d8b	0.346783
171	0x3eb46c8e	0.3523907
172	0x3e84b23e	0.25917238
173	0xbef1394c	-0.47114027
174	0xbedec158	-0.43506885
175	0x3e9d883b	0.30767998
176	0x3e817656	0.25285596
177	0x3e39e392	0.18153217
178	0x3e744e1a	0.23857918
179	0xbe69006c	-0.22754067
180	0x3f00cc26	0.50311506
181	0xbf19b6f4	-0.6004479
182	0x3e124206	0.14282998
183	0x3da03b94	0.078238636
184	0xbd5aa49f	-0.05337965
185	0x3e27a0e6	0.16369972
186	0xbf3afdf9	-0.7304378
187	0xbf0f1817	-0.55896133
188	0x3e248a00	0.16068268
189	0xbee04856	-0.43805188
190	0x3f21e0fc	0.63233924
191	0xbf0b4f55	-0.54417926
192	0x3de6c672	0.11268319
193	0xbf24e1f7	-0.64407295
194	0x3e878bc3	0.26473817
195	0xbe90413a	-0.28174764
196	0xbf234e8f	-0.63791746
197	0x3ec482e2	0.38381106
198	0x3eb1a1bd	0.3469371
199	0x3e625044	0.22100931
200	0xbf4326d7	-0.7623114
201	0xbf2ae67c	-0.6675794
202	0xbf0cd4fb	-0.5501248
203	0xbc684bfc	-0.014178272
204	0x3f0bc67e	0.5459975
205	0xbf086522	-0.53279316
206	0x3e0b58ea	0.13608137
207	0xbf1c093f	-0.6095161
208	0xbf68daa5	-0.90958625
209	0x3e08a176	0.13342842
210	0xbf552c85	-0.83271056
211	0xbf8f433a	-1.1192391
212	0xbf6dd2e2	-0.92899907
213	0xbec8be92	-0.39207894
214	0x3d258354	0.040408447
215	0xbf206e0c	-0.6266792
216	0x3f20c052	0.6279346
217	0xbf4c5794	-0.79821134
218	0x3ec614b2	0.38687664
219	0x3db757d5	0.089522995
220	0x3e9c9edd	0.30589953
221	0xbf3820c1	-0.7192498
222	0x3e001ee0	0.12511778
223	0x3ea42ca5	0.3206531
224	0x3e9c1e67	0.30491945
225	0x3ee0aac3	0.4388028
226	0x3e231a99	0.15928115
227	0xbe7d8e4d	-0.24761315
228	0xbf0c7d05	-0.54878265
229	0xbf27a08e	-0.6547936
230	0x3eb670e5	0.35633007
231	0xbf0b68ea	-0.5445696
232	0x3e4859ff	0.19565581
233	0xbf71d707	-0.9446873
234	0x3e4707b8	0.19436538
235	0x3f0cd5ba	0.5501362
236	0xbf4934ef	-0.78596395
237	0xbe9220a8	-0.2854054
238	0xbf0afeb9	-0.54294926
239	0x3e97de1d	0.29661646
240	0x3db9614f	0.09051763
241	0xbe77af91	-0.24188067
242	0x3e4f70da	0.20257893
243	0xbec8c1d2	-0.39210373
244	0xbf1e589c	-0.6185396
245	0x3ebf9976	0.3742177
246	0x3b83830d	0.004013425
247	0xbf1f3a4a	-0.6219832
248	0xbf4fc606	-0.81161535
249	0x3e8e430d	0.2778553
250	0x3ec08c95	0.37607256
251	0xbf69e7d9	-0.91369396
252	0xbba2009b	-0.00494392
253	0x3e31b45e	0.17353961
254	0xbf24d265	-0.64383537
255	0xbeaf2000	-0.34204102

predictor/fc1/b f4 [512]
0	0xbdc1eb13	-0.09468665
1	0x3da3768e	0.07981597
2	0x3e8e5776	0.27801102
3	0xbdc620aa	-0.09674199
4	0xbd4c8ee9	-0.049940977
5	0x3d754dda	0.0598887
6	0xbe3d10cd	-0.1846344
7	0x3dc53251	0.09628738
8	0xbd2e250c	-0.0425158
9	0x3e0d9921	0.13827945
10	0xbd89ef62	-0.06735112
11	0x3dbff2da	0.09372492
12	0xbe21969d	-0.1578011
13	0xbda5fe15	-0.08105103
14	0xbda691dd	-0.0813329
15	0xbde34ff8	-0.11099237
16	0xbe887010	-0.26647997
17	0xbd56fe14	-0.0524884
18	0xbdc5fc0d	-0.096672155
19	0xbc393684	-0.011304501
20	0xbc842478	-0.01613067
21	0xbdf14061	-0.117798574
22	0x3886b8ca	6.4240376e-05
23	0x3e15b621	0.14620258
24	0x3d91ffc2	0.0712886
25	0xbe2e168a	-0.17000785
26	0x3e9ff8c3	0.31244478
27	0xbdae6c3b	-0.08516737
28	0xbdccb17e	-0.099947914
29	0xbd33ccc3	-0.043896448
30	0x3dd34317	0.10315531
31	0xbd050da4	-0.03248371
32	0xbcaa0cdb	-0.020758083
33	0xbd81b250	-0.063328385
34	0xbcb2accc	-0.021810912
35	0x3e58057d	0.21095844
36	0x3d1faa7e	0.038980953
37	0x3d9ffbd4	0.07811704
38	0xbd8a7144	-0.06759885
39	0xbd03e915	-0.032204706
40	0x3e51bb84	0.20481688
41	0x3c8fcd52	0.017553959
42	0xbdc31ad0	-0.095265985
43	0xbda4fadf	-0.08055662
44	0x3dfdf73e	0.12400673
45	0xbd4b10a1	-0.049576405
46	0x3cf7b037	0.030235393
47	0x3db915cb	0.0903736
48	0x3dd0e5a9	0.10200054
49	0x3e26e7b1	0.16299321
50	0x3d7c0826	0.06153121
51	0xbda7a647	-0.08186012
52	0x3b606f33	0.0034245967
53	0x3d9a1ea7	0.07525378
54	0xbd84b9ca	-0.06480749
55	0xbe08090a	-0.13284698
56	0xbdbd225f	-0.092350714
57	0xbdc2deb4	-0.095151335
58	0x3e1d4d26	0.15361461
59	0x3dc5086a	0.096207455
60	0xbdf1d0b3	-0.11807384
61	0xbce7032f	-0.02819976
62	0xbdbe5b14	-0.092947155
63	0x3dce3cb9	0.10070176
64	0xbe0fd9fa	-0.14047995
65	0x3e3d3c27	0.18479978
66	0x3c5c71d1	0.01345487
67	0xbd33840b	-0.043827098
68	0x3e0356d0	0.12826085
69	0xbe283f4c	-0.16430396
70	0xbdf2927b	-0.11844345
71	0xbd7ad260	-0.061235785
72	0x3e052f3c	0.130063
73	0x3c86f831	0.016475769
74	0xbdf89323	-0.12137439
75	0xbde00263	-0.10937955
76	0xbde006f2	-0.10938825
77	0xbe0d36b2	-0.13790396
78	0x3e114db4	0.14189798
79	0x3e0aaeb1	0.13543202
80	0x3e16b5cd	0.14717789
81	0x3d0b41e8	0.0339984
82	0xbe04d2d3	-0.12971048
83	0xbc0eb30e	-0.008709682
84	0x3e1bc4cb	0.1521179
85	0xbdaaea5f	-0.08345484
86	0x3df6613c	0.12030265
87	0x3d0a3ae4	0.03374757
88	0x3e34a2e5	0.17640264
89	0xbdb2823d	-0.08716247
90	0x3da243b4	0.079230696
91	0xbd1445b4	-0.036199287
92	0x3bb31e21	0.005466238
93	0xbd22d65b	-0.039755207
94	0xbc071717	-0.008245251
95	0x3e2da3f4	0.16957074
96	0xbe388cb2	-0.18022421
97	0xbdcdee6e	-0.100552425
98	0x3d3f9061	0.04676855
99	0xbd8c9cbd	-0.06865833
100	0xbe23cb69	-0.15995564
101	0x3d861a90	0.06548035
102	0x3d8f8fa6	0.07009821
103	0x3dab8b18	0.083761394
104	0x3d7e24ac	0.06204669
105	0xbe1de0f4	-0.15417844
106	0x3e3351e6	0.1751171
107	0xbd83f61e	-0.064434275
108	0x3d639beb	0.055568617
109	0xbd5499ce	-0.051904492
110	0x3e08008c	0.13281459
111	0x3b34d99e	0.002759553
112	0xbe0e6ce0	-0.1390872
113	0x3e14b3da	0.14521733
114	0xbdd14dac	-0.10219893
115	0xbdd15ffa	-0.10223384
116	0x3c66cf04	0.014087442
117	0xbe5a62ef	-0.21326803
118	0xbdfbc40b	-0.122932516
119	0x3da4cbb0	0.08046663
120	0x3d8bf38b	0.068335615
121	0x3e2d63f3	0.16932659
122	0x3d270341	0.040774588
123	0xbd311c9f	-0.043240186
124	0x3e074ade	0.13212153
125	0x3e1f7ac7	0.1557418
126	0xbe3185d9	-0.17336215
127	0x3da09d2c	0.07842478
128	0xbdc1d331	-0.0946411
129	0xbdac6b86	-0.08418946
130	0x3e434e36	0.19072804
131	0x3cf00d36	0.029303174
132	0xbe01cdb6	-0.12676129
133	0xbe171386	-0.14753541
134	0x3e3428b6	0.17593655
135	0xbdfac049	-0.12243707
136	0xbd021af8	-0.031764
137	0xbe0b3ee5	-0.13598211
138	0xbd56a9dc	-0.052408084
139	0x3e1c3f2f	0.15258478
140	0x3e127ccf	0.14305423
141	0x3e525c4c	0.20543021
142	0xbd5987a5	-0.053107876
143	0x3e087a3a	0.13327876
144	0x3d966521	0.073435076
145	0xbe1fda46	-0.15610608
146	0x3dfd14e2	0.12357499
147	0xbdfe6483	-0.12421515
148	0xbcd3332a	-0.025781233
149	0xbd951a4a	-0.07280405
150	0x3e17bc85	0.14818008
151	0xbd9b768d	-0.07590971
152	0x3e7be793	0.24600057
153	0xbd5c1520	-0.053731084
154	0xbe2cfcc1	-0.16893293
155	0x3c230937	0.009950927
156	0xbda94014	-0.08264175
157	0x3d58a7b2	0.0528943
158	0xbe47fb0e	-0.19529364
159	0x3e661cc3	0.22471909
160	0xbe218541	-0.15773489
161	0xbe0105b2	-0.12599829
162	0x3e185087	0.14874469
163	0x3e171f0f	0.14757942
164	0xbe10969f	-0.14119957
165	0x3bab2aa6	0.00522359
166	0xbd051b7d	-0.032496918
167	0x3d3912fc	0.04518412
168	0x3e42dd39	0.19029702
169	0xbe3079b5	-0.17233928
170	0xbdc971d5	-0.09836165
171	0xbdcac593	-0.099009655
172	0xbd77dfe6	-0.06051626
173	0xbdf96320	-0.1217711
174	0xbd02bf71	-0.031920854
175	0xbe196c12	-0.14982632
176	0xbba2d6c9	-0.004969452
177	0xbddb9bb1	-0.10723055
178	0x3b8ea68d	0.0043533505
179	0xbdf66c9d	-0.12032435
180	0xbe224053	-0.1584485
181	0x3dec3d81	0.115351684
182	0xbe4ebf90	-0.20190263
183	0xbd915bb1	-0.07097567
184	0x3e22633f	0.15858172
185	0xbd53d872	-0.05172009
186	0x3e26a25f	0.16272877
187	0x3dcf3d36	0.10119097
188	0xbd5d4b4f	-0.054026898
189	0x3ccab51e	0.024744567
190	0xbe2dad87	-0.16960727
191	0x3e1b18f3	0.15146236
192	0xbdd51ddc	-0.10406086
193	0x3dfbf15c	0.12301895
194	0xbe271a94	-0.16318733
195	0xbe64c7e6	-0.2234188
196	0x3e1631b8	0.14667404
197	0x3c30fe97	0.010802886
198	0xbced5cff	-0.028975008
199	0x3c4e3829	0.012586632
200	0x3e33fb44	0.17576319
201	0x3e382630	0.17983317
202	0x3dd4b60b	0.103862844
203	0xbd37f4e5	-0.044911284
204	0xbc843126	-0.016136717
205	0x3c911b06	0.017713081
206	0x3e2960f1	0.16540886
207	0xbc8bf58d	-0.017084861
208	0x3e4eea7c	0.20206636
209	0x3d717f96	0.058959566
210	0x3db38f83	0.08767607
211	0x3e817a2f	0.2528853
212	0x3d8e27eb	0.069412075
213	0xbd4de135	-0.050263602
214	0xbd428975	-0.04749437
215	0x3e8d8ba8	0.27645612
216	0x3cb6513a	0.022255529
217	0x3e813245	0.25233665
218	0x3c82eb3f	0.015981315
219	0x3e519d89	0.20470251
220	0xbdb473b0	-0.08811128
221	0x3e30e337	0.17274176
222	0xbbe764ef	-0.007061593
223	0xbe38a548	-0.180318
224	0xbdd3f411	-0.10349286
225	0xbd7b1d55	-0.06130727
226	0xbe0c8d34	-0.1372574
227	0xbe0a15e3	-0.13484912
228	0x3d8f488d	0.0699626
229	0x3c360df6	0.011111727
230	0x3a638c5c	0.0008680278
231	0x3d82dfca	0.063903406
232	0x3d80638d	0.06268988
233	0x3e078cce	0.13237306
234	0xbcf33988	-0.029690519
235	0xbde6d908	-0.11271864
236	0x3de16709	0.110059805
237	0x3d61604f	0.055023488
238	0xbde4b1ce	-0.11166726
239	0xbdc7bf6b	-0.09753307
240	0xbe4cda2d	-0.20005102
241	0xbcb4e6f4	-0.022082783
242	0x3e259a6b	0.16172187
243	0xbd8a8294	-0.06763187
244	0x3d7e17ba	0.062034346
245	0xbcbe00ea	-0.023193795
246	0x3e8d90bd	0.2764949
247	0xbb8ccfd7	-0.0042972374
248	0x3ce97060	0.028495967
249	0xbe1954dc	-0.14973778
250	0xbbf8b6fd	-0.0075901733
251	0x3da82b3b	0.082113706
252	0xbca05576	-0.019572001
253	0xbd48ec38	-0.0490534
254	0x3e023b46	0.12717924
255	0x3d278912	0.040902205

predictor/fc1/W f4 [512, 128]
0	0x3eaa14ba	0.33218938
1	0x3e26ab62	0.16276315
2	0xbf24743d	-0.64239866
3	0xbe0a2564	-0.13490826
4	0xbebf412d	-0.37354413
5	0xbe9ce3f2	-0.30642658
6	0x3ea507fb	0.3223265
7	0xbe1ba629	-0.15200104
8	0x3e0b97fb	0.13632195
9	0x3e80acf5	0.25131956
10	0xbe48451b	-0.19557612
11	0x3dd92552	0.106028214
12	0x3debba5c	0.115101546
13	0x3dac3932	0.08409347
14	0x3cfaf893	0.030636108
15	0xbd82c234	-0.063846976
16	0xbdd183c3	-0.1023021
17	0xbd05d93f	-0.032677885
18	0xbdd1d468	-0.102455914
19	0xbf021fb3	-0.5082962
20	0x3dc703d8	0.0971753
21	0xbd2b1511	-0.041768137
22	0x3bc42123	0.0059853955
23	0xbcb5b0f7	-0.02217911
24	0xbeb41e80	-0.3517952
25	0xbe32eb81	-0.1747265
26	0x3df638c7	0.12022548
27	0x3de69041	0.11257983
28	0x3e386e46	0.18010816
29	0x3e39baab	0.18137614
30	0x3edecb18	0.43514323
31	0xbea51060	-0.32239056
32	0xbd5e8086	-0.05432179
33	0x3d0f4a71	0.034983102
34	0x3d6ef18b	0.058335822
35	0xbecb39e5	-0.39692608
36	0xbc165436	-0.009175351
37	0x3c9849f8	0.018589959
38	0xbdf3504d	-0.118805505
39	0x3dcb78d2	0.09935154
40	0x3dbba550	0.0916239
41	0x3e514cf2	0.20439509
42	0x3eb46c99	0.35239103
43	0x3d21a300	0.03946209
44	0xbe0243b6	-0.12721142
45	0xbf3821aa	-0.7192637
46	0xbe2627ff	-0.16226195
47	0x3d82aee4	0.06381014
48	0x3cedce2f	0.02902898
49	0x3e212e20	0.15740252
50	0xbe3c6d9c	-0.18401188
51	0xbd2930d6	-0.04130634
52	0x3e07091d	0.1318707
53	0x3c696ebd	0.0142475935
54	0x3d57ee37	0.052717414
55	0xbd9e1754	-0.07719293
56	0xbdc0fcb5	-0.094232
57	0xbd97eb46	-0.07417922
58	0x3e6f45c9	0.23366465
59	0x3cdd45fb	0.027010908
60	0xbd63a812	-0.055580206
61	0x3e1346c3	0.14382462
62	0xbf1e096c	-0.61733127
63	0xbec61624	-0.38688767
64	0x3db9e9af	0.09077775
65	0xbe5df967	-0.2167717
66	0xbd697aa6	-0.057001732
67	0xbe220874	-0.15823537
68	0x3ced53e9	0.028970676
69	0x3e6dde1b	0.23229258
70	0x3db232bf	0.08701085
71	0x3e600ea5	0.21880586
72	0x3ec14453	0.3774744
73	0xbd1cc12c	-0.03827016
74	0xbba79e0b	-0.0051152757
75	0x3e33a21c	0.17542309
76	0x3e3def23	0.18548255
77	0x3e6a02c3	0.22852616
78	0x3e71d1ef	0.2361524
79	0xbeae4c0f	-0.34042403
80	0x3e0bbe90	0.13646913
81	0xbd20bf8d	-0.039245177
82	0x3d996c84	0.07491401
83	0xbe174772	-0.14773348
84	0x3ca48993	0.020085132
85	0x3c12457a	0.008927697
86	0x3e5104bb	0.20411961
87	0x3dd5d316	0.10440652
88	0xbe2f0a07	-0.17093669
89	0xbe4a3cc3	-0.19749741
90	0xbd685a19	-0.05672655
91	0x3eacb2b6	0.33730096
92	0x3e4f4011	0.20239283
93	0xbf059a75	-0.5218881
94	0x3d2a09fa	0.04151342
95	0xbe188c3d	-0.14897247
96	0x3d654a88	0.05597928
97	0x3d93d38d	0.072180845
98	0xbe0c3ea6	-0.13695773
99	0x3df34df0	0.118801
100	0xbe259519	-0.16170157
101	0x3dca9d4c	0.09893283
102	0xbb1e714d	-0.002417642
103	0xbca4d4b0	-0.020120949
104	0x3dace3ed	0.08441911
105	0x3e8cb7ec	0.2748407
106	0x3da785ed	0.08179841
107	0xbdc30d83	-0.095240615
108	0xbf2db01f	-0.67846864
109	0xbd1d0221	-0.03833211
110	0x3dbde1a2	0.09271552
111	0x3e21286e	0.15738079
112	0xbda993ed	-0.08280168
113	0xbd24f255	-0.04027017
114	0x3e8d26f6	0.27568787
115	0x3e26a3d4	0.16273433
116	0xbe6316cd	-0.22176667
117	0xbe24e76f	-0.1610391
118	0x3e85959d	0.26090708
119	0xbe6b702c	-0.22992009
120	0x3eb7feef	0.35936686
121	0xbee03361	-0.437892
122	0xbcf2f07d	-0.02965569
123	0x3e35a383	0.17738156
124	0xbed6cda0	-0.41953754
125	0x3e31e06e	0.1737077
126	0xbe8af894	-0.27142775
127	0x3ca7a1de	0.020462926
128	0xbebdb8ce	-0.37055057
129	0xbe551bbb	-0.2081136
130	0x3ba247ba	0.004952398
131	0x3e58d299	0.21174087
132	0xbe50bd43	-0.20384698
133	0x3db20ea4	0.08694199
134	0xbd8e4ec5	-0.06948618
135	0x3e9629ab	0.29328665
136	0xbde6c0ab	-0.11267217
137	0x3d28ff28	0.04125896
138	0xbe194592	-0.14967945
139	0xbe32f6ad	-0.17476912
140	0x3baee1cc	0.0053369757
141	0x3e73ea0f	0.23819755
142	0xbe9cb886	-0.3060953
143	0x3dd03205	0.101657905
144	0x3e37b1bc	0.17938894
145	0xbd934f44	-0.07192853
146	0xbe700028	-0.2343756
147	0x3d22134d	0.039569188
148	0xbe85f738	-0.26165175
149	0x3c8601df	0.016358314
150	0xbcdb55dd	-0.026774341
151	0x3e9ca4a0	0.3059435
152	0x3ec4606f	0.38354823
153	0xbe4ae51e	-0.19813964
154	0xbe08a801	-0.13345338
155	0xbe1de122	-0.15417913
156	0x3e0065fc	0.12538904
157	0x3ed6c4b6	0.41946954
158	0xbe8975b8	-0.26847625
159	0xbd3eac3b	-0.04655097
160	0x3e8614d1	0.26187757
161	0x3dc260ed	0.094911434
162	0xbe8af649	-0.27141026
163	0xbea9df94	-0.3317839
164	0xbdaae78b	-0.083449446
165	0xbdbd388b	-0.092393
166	0x3e2e48dd	0.17019983
167	0x3ce34cc8	0.027746573
168	0xbdfba2dc	-0.12286922
169	0xbe64f15b	-0.22357695
170	0xbde45fd3	-0.111510895
171	0x3c630fae	0.013858719
172	0xbd142f89	-0.036178146
173	0xbe533963	-0.2062736
174	0xbee5689e	-0.4480638
175	0xbdcc68a7	-0.09980898
176	0xbd5fd64d	-0.054647733
177	0x3e552b86	0.20817384
178	0x3ed12dd8	0.40855289
179	0x3e4c064e	0.1992428
180	0xbc977cf6	-0.018492203
181	0xbde55b84	-0.11199096
182	0x3cf4e6d2	0.02989522
183	0x3e659ac1	0.22422315
184	0x3d13ad83	0.036054146
185	0xbe1ca02f	-0.1529548
186	0xbe91b6aa	-0.28459674
187	0x3cad746d	0.02117368
188	0x3e38ae0a	0.1803514
189	0xbdce5a05	-0.100757636
190	0x3e20813a	0.15674296
191	0xbe33333a	-0.1750001
192	0x3e762dd1	0.24040915
193	0x3c9669d5	0.018361012
194	0x3ea51eea	0.32250148
195	0xbccfa0d8	-0.025345251
196	0x3ebba362	0.3664809
197	0xbef967d2	-0.4871202
198	0xbd97da9f	-0.074147455
199	0xbf4e5505	-0.8059848
200	0xbf0f5ef7	-0.5600428
201	0x3e139c7a	0.1441516
202	0xbe10a985	-0.14127167
203	0x3e58ef4f	0.21185039
204	0xbf1ad1b9	-0.6047626
205	0x3d46260f	0.04837614
206	0xbe0a2df7	-0.13494097
207	0x3eace671	0.33769563
208	0x3d8b0f94	0.06790081
209	0x3cd0498d	0.025425697
210	0xbe7a9288	-0.2446996
211	0xbdd99cf4	-0.106256396
212	0xbecc0b8e	-0.39852566
213	0x3e27f98c	0.16403788
214	0xbee36f74	-0.4442097
215	0x3e50319f	0.20331429
216	0xbea18c97	-0.31552574
217	0xbda0bd1b	-0.07848569
218	0xbe1e37af	-0.15450929
219	0x3de5e1cc	0.11224708
220	0x3d91e1d7	0.07123154
221	0x3e59479f	0.21218728
222	0xbcf68660	-0.030093372
223	0x3d009e11	0.031400744
224	0xbd7e7995	-0.06212767
225	0x3e889816	0.26678532
226	0x3e0fded1	0.14049841
227	0xbce86f70	-0.02837345
228	0x3ea04541	0.31302837
229	0xbe8eee2f	-0.27916095
230	0x3e0f803b	0.1401376
231	0x3e79e99b	0.2440552
232	0x3e9612a5	0.293111
233	0x3cdba837	0.02681361
234	0xbd8ea39b	-0.06964799
235	0xbc73acfd	-0.014872787
236	0xbc7c66d5	-0.015405376
237	0x3c5d10d7	0.013492784
238	0xbe806f7d	-0.2508506
239	0xbbc9875d	-0.0061501698
240	0xbe497a5c	-0.19675583
241	0x3e986092	0.29761177
242	0xbe17d329	-0.14826645
243	0xbddf1f88	-0.10894686
244	0xbef7bfca	-0.4838851
245	0x3daa32eb	0.08310493
246	0xbe69c01b	-0.22827189
247	0xbee69c3d	-0.45041075
248	0x3e3b821c	0.18311352
249	0x3e08be64	0.13353878
250	0xbea84494	-0.3286482
251	0xbe21384e	-0.15744135
252	0x3e5fc2c1	0.21851636
253	0x3e0b7309	0.13618101
254	0xbd729a34	-0.05922909
255	0xbc9849a9	-0.018589811
