prototype/chainer_prototype/learned_model/v5.model (npz, 246534 bytes, 16 tensors)

predictor/conv1/W f4 [32, 3, 3, 3]
0	0xbd178bf7	-0.036998715
1	0x3d0489f8	0.03235814
2	0xbe910043	-0.28320512
3	0x3e0b3547	0.13594542
4	0x3dcab63e	0.09898041
5	0x3eb894ef	0.36051127
6	0xbe0f3d26	-0.1398817
7	0xbd62de67	-0.05538788
8	0xbcfdc655	-0.030978361
9	0x3c5afa45	0.013365333
10	0x3d02cc79	0.03193328
11	0xba76b86f	-0.0009411638
12	0x3e3131b7	0.17304121
13	0x3e3d30fa	0.18475714
14	0xbe9e6be7	-0.30941698
15	0x3e02fa35	0.12790759
16	0x3de16251	0.110050805
17	0x3ed1f245	0.4100515
18	0xbc8e3d08	-0.017363086
19	0x3e1b5c5b	0.1517195
20	0xbd82489e	-0.06361507
21	0xbdc0823f	-0.093998425
22	0xbea67012	-0.32507378
23	0x3d935cdb	0.07195445
24	0x3e171203	0.14752965
25	0xbdfe15af	-0.124064796
26	0x3e87665f	0.2644529
27	0x3dd0f4c9	0.10202939
28	0x3d45ae30	0.04826182
29	0x3ec21715	0.37908235
30	0xbe9ff4b3	-0.31241378
31	0x3d85f311	0.06540502
32	0xbdeb1bc7	-0.114799075
33	0x3d8eca7a	0.06972213
34	0xbda0da22	-0.078541055
35	0x3d27dda6	0.040982865
36	0x3e0beb02	0.13663867
37	0x3e9bb770	0.3041339
38	0xbcf65d29	-0.03007372
39	0x3d0eb3ba	0.03483937
40	0xbe347aa9	-0.17624916
41	0x3da7532a	0.08170159
42	0xb8b0dba9	-8.433249e-05
43	0xbbd8bedd	-0.0066145496
44	0x3daeea7d	0.08540819
45	0x3e34411d	0.17602964
46	0xbdc2b55a	-0.09507246
47	0xbd977adc	-0.073964804
48	0x3e42b0fa	0.19012824
49	0xbd7be844	-0.061500803
50	0xbd223d8c	-0.039609477
51	0x3e861152	0.2618509
52	0x3e4d9575	0.20076545
53	0x3e28d57d	0.1648769
54	0xbd19aedc	-0.037520275
55	0x3e817526	0.2528469
56	0xbe29e618	-0.1659168
57	0x3e48e318	0.1961788
58	0xbed6f755	-0.41985574
59	0x3e4014b9	0.18757905
60	0xbde602fc	-0.11231038
61	0xbe258149	-0.161626
62	0x3e997d8e	0.29978603
63	0x3e8661bb	0.26246437
64	0xbe0d42c2	-0.13794997
65	0xbe310e2f	-0.17290567
66	0xbdc1f31d	-0.09470198
67	0x3c92f316	0.017938178
68	0x3f095493	0.53644675
69	0xb98621e5	-0.00025583725
70	0xbed28fd0	-0.41125345
71	0xbcee8496	-0.029115956
72	0xbdc65d0c	-0.09685716
73	0x3dd6f7d5	0.10496489
74	0xbe816338	-0.2527101
75	0xbe2973b7	-0.16548048
76	0xbd9011c0	-0.070346355
77	0x3e24c34b	0.16090123
78	0xbe14f843	-0.1454783
79	0xbb119244	-0.0022212425
80	0x3e44a7fa	0.19204703
81	0x3c5e34c9	0.01356239
82	0x3dda0d49	0.10647065
83	0xbd800477	-0.062508516
84	0x3d74281d	0.059608568
85	0xbd5cfce7	-0.053952124
86	0x3d95b228	0.07309371
87	0x3ced23f1	0.028947802
88	0xbdbdd3a4	-0.09268883
89	0xbc287493	-0.0102817
90	0x3db1724e	0.0866438
91	0xbe250ae8	-0.16117442
92	0x3e3c8431	0.18409802
93	0x3d0c4ef4	0.034254983
94	0x3d45ee4b	0.048322957
95	0xbe4728f6	-0.19449219
96	0x3d9a6866	0.07539444
97	0xbe32bf55	-0.174558
98	0x3f0cedc2	0.5505029
99	0x3d8259b3	0.06364765
100	0xbe363342	-0.17792991
101	0xbc5c7b2e	-0.013457103
102	0xbe80ed88	-0.25181222
103	0x3e2e737c	0.17036241
104	0xbdece70e	-0.11567508
105	0xbe093549	-0.13399233
106	0x3d8702d1	0.06592334
107	0xbe64e212	-0.22351864
108	0xbe8b56f3	-0.27214774
109	0x3e90686e	0.28204674
110	0xbb8e0dba	-0.0043351324
111	0x3cc7c149	0.024384158
112	0x3ea0acc7	0.3138182
113	0xbd20f4dc	-0.039296016
114	0xbdb73dbf	-0.08947324
115	0xbe332f20	-0.17498446
116	0xbe0557ef	-0.13021825
117	0x3e4ab098	0.19793928
118	0xbdb3f691	-0.08787263
119	0xbb8e2557	-0.0043379473
120	0xbdfd2b59	-0.123617835
121	0x3e25eb30	0.16202998
122	0x3e05a97b	0.13052933
123	0x3dd5169a	0.104047015
124	0xbd770015	-0.060302813
125	0xbe37b157	-0.17938744
126	0x3e552705	0.20815666
127	0x3ee54bad	0.447843
128	0xbe146738	-0.144925
129	0xbde8d4b3	-0.11368694
130	0xbdba64b1	-0.091012366
131	0x3e32d499	0.17463912
132	0x3d55dcfb	0.052212697
133	0x3dedbfff	0.11608886
134	0xbc5d3669	-0.013501742
135	0xbe6663fc	-0.22499079
136	0xbd2bab94	-0.041911677
137	0xbe905bd1	-0.2819505
138	0x3e42f724	0.19039589
139	0x3da2f5c9	0.07957036
140	0x3daac88a	0.08339031
141	0x3efecaea	0.49764186
142	0x3e584bc7	0.21122657
143	0x3e6b61a5	0.22986467
144	0x3dba287e	0.090897545
145	0x3e649fe2	0.22326615
146	0x3e4451c4	0.19171816
147	0x3e0f6efc	0.14007181
148	0x3e8f149e	0.27945417
149	0xbe1b04a8	-0.15138495
150	0xbea0f1d2	-0.31434494
151	0xbe279f07	-0.16369258
152	0xbdf06463	-0.11737897
153	0xbe886c80	-0.2664528
154	0xbe749b62	-0.23887399
155	0x3db1cd21	0.08681703
156	0xbed27b42	-0.41109663
157	0xbd9e4a39	-0.077290006
158	0x3b98fbbd	0.0046686814
159	0x3e7329c6	0.23746404
160	0x3daef4cc	0.08542785
161	0xbd90f137	-0.07077258
162	0x3ed57381	0.41689685
163	0x3e6cc7a1	0.23123027
164	0xbe28b2c6	-0.16474447
165	0x3e7aff26	0.24511394
166	0xbdca9363	-0.09891393
167	0x3e01dc9e	0.12681815
168	0x3d9f7f70	0.07787979
169	0x3dd100ad	0.10205207
170	0xbeb0b099	-0.34509733
171	0xbe3237ac	-0.1740405
172	0xbe971401	-0.2950745
173	0x3e845417	0.25845405
174	0x3da2df0f	0.07952701
175	0xbe47c368	-0.19508135
176	0x3df56d3e	0.11983727
177	0x3d13a256	0.036043487
178	0x3d6fd77f	0.058555122
179	0xbe9bb4f3	-0.3041149
180	0xbe723b27	-0.23655377
181	0xbe3dd745	-0.1853915
182	0xbd81e193	-0.06341853
183	0x3e819c4a	0.25314552
184	0x3e603295	0.21894296
185	0xbe28332e	-0.16425774
186	0x3dc6fcad	0.09716163
187	0xbd9d76cd	-0.07688675
188	0xbdfacf0f	-0.122465245
189	0xbdeb080c	-0.11476144
190	0xbe159e30	-0.14611125
191	0xbe4c3656	-0.19942603
192	0xbda9a876	-0.082840845
193	0x3c18374f	0.00929053
194	0xbd892419	-0.06696338
195	0xbd8421d7	-0.06451767
196	0x3e89625c	0.26832855
197	0x3e0cf341	0.13764669
198	0x3d8b69a1	0.068072565
199	0xbe297bc2	-0.16551116
200	0xbe6cbcd6	-0.2311891
201	0x3e9ea08f	0.3098187
202	0x3eb3934e	0.35073322
203	0xbca96a60	-0.020680606
204	0x3e27a23f	0.16370486
205	0xbe2ae2b1	-0.16688038
206	0xbd0fc50b	-0.035100024
207	0x3e43f348	0.19135773
208	0x3c7416a9	0.014897981
209	0xbb8bddd2	-0.0042683864
210	0xbe925b40	-0.28585243
211	0x3f0cdf33	0.55028075
212	0xbe128dbb	-0.14311878
213	0xbe48aabd	-0.19596381
214	0xbe335547	-0.17513
215	0xbc206537	-0.0097897565
216	0x3e90e1b5	0.282972
217	0xbe37feb4	-0.17968255
218	0x3d411db3	0.047147464
219	0x3ef2e34f	0.47439048
220	0x3d99d1ce	0.0751072
221	0xbed54e73	-0.41661415
222	0xbe600971	-0.21878602
223	0xbc07baec	-0.008284312
224	0x3c8eb729	0.017421322
225	0xbe733e8d	-0.2375433
226	0x3e2f92f6	0.17145905
227	0x3e814176	0.25245255
228	0x3d01d6b9	0.031698916
229	0xbc5be294	-0.01342072
230	0x3e99a8ff	0.30011746
231	0x3e44cc1f	0.19218491
232	0xbe6c1783	-0.23055844
233	0x3e0a3901	0.13498308
234	0xbe6d4072	-0.23169115
235	0xbe87e6e6	-0.2654335
236	0x3d921c53	0.07134309
237	0x3dd55abd	0.104176976
238	0x3e5a90a2	0.21344236
239	0x3e9104e2	0.28324038
240	0xbe78dca0	-0.24302912
241	0xbdb04e6e	-0.08608709
242	0x3ec3cbba	0.3824137
243	0xbd88d3bc	-0.0668101
244	0x3c91ab3f	0.017781852
245	0xbe1beb52	-0.15226486
246	0xbc7046ac	-0.014665287
247	0xbe0bf2a3	-0.13666777
248	0x3d8b4191	0.06799615
249	0xbdd01601	-0.10160447
250	0xbed4bbcd	-0.4154953
251	0x3df98622	0.12183787
252	0xbc0497f5	-0.00809287
253	0x3e9c7baa	0.30563098
254	0x3e8a4450	0.27005243
255	0xbe5b994e	-0.214452

predictor/conv1/b f4 [32]
0	0xbd4bd5b1	-0.04976434
1	0xbd3ff796	-0.046866976
2	0x3cc13128	0.02358301
3	0x3d8737d9	0.06602449
4	0x3a190ccc	0.00058383937
5	0x3cc0424d	0.023469115
6	0xbb02ed12	-0.001997773
7	0x3ca2c774	0.019870497
8	0x3967d8c6	0.00022110631
9	0xbb6216b0	-0.0034498386
10	0x3cceb914	0.025234737
11	0xbb54e63c	-0.0032485863
12	0x3e43046f	0.1904466
13	0xbc95b396	-0.01827411
14	0x3d9ef2a4	0.07761124
15	0x3d0a9af6	0.03383919
16	0x3db956e1	0.09049774
17	0x3d0fb3f9	0.035083745
18	0x3d376dd6	0.044782482
19	0x3cdd84fd	0.027040953
20	0xbbd0b5cd	-0.0063693286
21	0x3d5ca347	0.05386665
22	0x3ccfb344	0.025354035
23	0xbc9e2100	-0.019302845
24	0x3cff0e08	0.03113462
25	0xbc993939	-0.018704044
26	0x3da52e74	0.08065501
27	0x3bc808b1	0.0061045517
28	0xbd9ee161	-0.07757831
29	0x3c1c3967	0.00953517
30	0x3e1ae984	0.15128142
31	0xbc968804	-0.018375404

predictor/conv4/W f4 [32, 32, 3, 3]
0	0x3a97e6e3	0.0011589195
1	0x3da8d486	0.08243661
2	0xbd2a7ceb	-0.041623037
3	0x3d73eabe	0.05955004
4	0xbbbe63d2	-0.0058102394
5	0xbc1afc97	-0.009459636
6	0xbdf26c3b	-0.118370496
7	0xbce9380d	-0.02846911
8	0x3c206693	0.009790081
9	0xbd9c1549	-0.07621247
10	0x3db50b69	0.08840067
11	0xbca72728	-0.020404413
12	0xbd166d86	-0.036725543
13	0x3d8a52c2	0.06754066
14	0x3dc00a9e	0.09377025
15	0xbc4824d0	-0.012215808
16	0x3c7d75ba	0.015469963
17	0xbdba234b	-0.09088763
18	0x3d777e26	0.06042304
19	0xbd50b2fd	-0.050951947
20	0xbd005b99	-0.031337354
21	0xbcc9b5e9	-0.024622874
22	0x3e0aaa86	0.13541612
23	0xbd75eda1	-0.060041074
24	0xbd8d8747	-0.06910568
25	0xbdb90856	-0.09034793
26	0x3caddaf4	0.021222569
27	0x3d15e385	0.036593933
28	0x3cb7ffe2	0.022460882
29	0x3bebdfc7	0.007198307
30	0xbd3ce7a7	-0.04611936
31	0x3d21368d	0.039358664
32	0xbd02d0de	-0.031937473
33	0x3d74b875	0.059746224
34	0xbd2c78cd	-0.042107392
35	0xbd3eb823	-0.046562325
36	0x3d0fb0a2	0.03508056
37	0x3d4331d9	0.04765496
38	0xbda12f32	-0.0787033
39	0xbd777a94	-0.060419634
40	0xbd2b3e8d	-0.0418077
41	0x3c80e22a	0.015732843
42	0x3d7cb4cb	0.061695855
43	0x3d4ee27f	0.050508972
44	0xbdb338ff	-0.087511055
45	0x3df562f6	0.11981766
46	0xbdee2ffe	-0.116302475
47	0x3dfdbed9	0.12389917
48	0x3c000245	0.007813041
49	0x3de1bd24	0.11022404
50	0xbd7d5ab8	-0.061854094
51	0x3d917ffe	0.07104491
52	0x3d91d9b8	0.07121605
53	0x3cb005dd	0.02148717
54	0x3c175703	0.009237054
55	0xbbe347bc	-0.0069360416
56	0x3d8e9386	0.069617316
57	0x3d828cab	0.063744865
58	0xbcbdb3d5	-0.02315704
59	0x3e048102	0.12939838
60	0x3cc3f8cb	0.023922345
61	0xbc303d8d	-0.010756862
62	0xbb64e5cf	-0.0034927016
63	0xbd97087c	-0.07374665
64	0x3c7fa28b	0.015602718
65	0xbccaeab2	-0.024770115
66	0x3d9a3bd2	0.07530941
67	0x3db7d478	0.08976072
68	0x3c73c20b	0.014877806
69	0x3c32932f	0.010899349
70	0x3cad4de2	0.021155301
71	0x3cf10638	0.02942191
72	0x3c0aea45	0.008478706
73	0xbb4d2439	-0.0031302108
74	0x3d6df0e5	0.058091063
75	0x3d5cb750	0.053885758
76	0xbe1822bc	-0.14857
77	0x3daad9fe	0.0834236
78	0xbcdb9d44	-0.026808389
79	0x3d1c01d8	0.038087696
80	0x3dbcdd7b	0.092219315
81	0x3c551044	0.013004366
82	0xbcd12ba1	-0.0255335
83	0x3e25886f	0.16165327
84	0xbc58f804	-0.013242725
85	0xbdc69a0e	-0.09697352
86	0xbe24ce94	-0.16094428
87	0xbd7b1d5b	-0.061307292
88	0x3dbc3613	0.09190001
89	0xbbf91280	-0.0076010823
90	0xbcc21080	-0.023689508
91	0x3dad9762	0.084761396
92	0xbd89d6ef	-0.067304485
93	0x3c855f5b	0.01628082
94	0x3c8bffec	0.017089806
95	0xbd973074	-0.073822886
96	0xbd1e9fd6	-0.03872665
97	0xbca82059	-0.020523237
98	0xbd850ea8	-0.06496936
99	0xbdc75cf6	-0.09734528
100	0x3be06a95	0.006848643
101	0xbcbcf50f	-0.023066072
102	0x3b30b99c	0.00269661
103	0xbb8b0fc8	-0.0042438246
104	0x3d4d3ca0	0.050106645
105	0x3b5ec756	0.0033993325
106	0xbde07db7	-0.10961478
107	0x3d595942	0.05306364
108	0x3bf6a5f7	0.007527109
109	0xbc660b6f	-0.014040812
110	0xbd4b3abc	-0.04961656
111	0x3d3e37be	0.04643988
112	0xbda39b8c	-0.079886526
113	0xbc0fc66b	-0.008775334
114	0x3dc97963	0.09837606
115	0x3ca5e10f	0.020248918
116	0xbda42018	-0.08013934
117	0xba82317f	-0.0009932964
118	0x3d7eba6a	0.062189497
119	0x3ce9d53b	0.028544059
120	0xbd07b583	-0.033132087
121	0x3da8f118	0.0824911
122	0xbe39d589	-0.18147863
123	0x3cae48ea	0.021275003
124	0xbd929f96	-0.07159345
125	0xbdf646fa	-0.120252565
126	0x3dfb766c	0.122784466
127	0x3c80066e	0.015628066
128	0xbcd53ba1	-0.02602941
129	0xbe13d2d4	-0.14435893
130	0x3d108b63	0.03528918
131	0xbdad25b6	-0.084544584
132	0xbdbb8d6f	-0.09157836
133	0xbc9b883c	-0.01898586
134	0x3ce30965	0.02771444
135	0xbcc59591	-0.02411917
136	0xbd391e18	-0.045194715
137	0x3d8ab385	0.06772522
138	0x3db1cd18	0.08681697
139	0x3d02bbff	0.03191757
140	0x3c5337a2	0.012891682
141	0xbd70c3c3	-0.058780443
142	0xbadd49dd	-0.0016882975
143	0x3b940dde	0.0045182547
144	0xbd8e75ec	-0.069560856
145	0xbdb0e55e	-0.08637498
146	0xbc04aec7	-0.008098311
147	0x3cb107d4	0.021610178
148	0x3dc383e8	0.095466435
149	0x3d8c334c	0.068457216
150	0xba1ad9ab	-0.0005907069
151	0x3ae49102	0.0017438235
152	0xbd76e2c1	-0.060274843
153	0x3e08927c	0.1333713
154	0x3d5a5bd3	0.053310227
155	0x3c897d08	0.016783252
156	0x3d4d9620	0.050192
157	0xbb8e99d3	-0.0043518334
158	0xbdf9ad86	-0.121913
159	0x3ca45d9a	0.020064164
160	0x3dfc122a	0.12308152
161	0xbd79e73b	-0.061011534
162	0x3ca65460	0.020303905
163	0xbc38fd81	-0.011290909
164	0x3c385768	0.011251308
165	0x3d1e2cb7	0.038616862
166	0xbd875580	-0.06608105
167	0x3ccc1dda	0.024916578
168	0x3d9977b6	0.07493536
169	0x3afdeb84	0.0019372557
170	0xbd4ac9f6	-0.04950901
171	0x3d1a823c	0.037721857
172	0x3d3cff8d	0.04614215
173	0xbe1d2458	-0.15345895
174	0xbd20e9f5	-0.03928562
175	0x3bf30e0e	0.007417447
176	0x3db8ad13	0.09017386
177	0xbd5f8282	-0.05456782
178	0xbd32ddcb	-0.04366855
179	0x3d08af69	0.03337041
180	0xba253307	-0.0006301854
181	0xbba9ef8d	-0.0051860274
182	0xbda7cffd	-0.081939675
183	0xbd34d45d	-0.044147838
184	0xbdca69a9	-0.09883434
185	0xbd2db716	-0.042410932
186	0xbab29a2b	-0.0013626268
187	0x3d676edf	0.05650222
188	0x3db68b9a	0.08913346
189	0x3d31d33d	0.043414343
190	0x3c946fdf	0.01811975
191	0xbd93f627	-0.07224684
192	0x3dbc1c68	0.091851056
193	0x3da7c6e4	0.08192232
194	0x3dbca181	0.09210492
195	0xbbbb6e2b	-0.00571992
196	0x3c2f8f84	0.010715369
197	0x3d14bcee	0.03631299
198	0x3caa6aff	0.020802973
199	0xb9d6fea9	-0.00041006997
200	0x3d4f7344	0.050647035
201	0xbcd83e34	-0.026396848
202	0x3d7a4dc0	0.061109304
203	0xba70d4b6	-0.000918697
204	0xbd2d4b62	-0.04230822
205	0xbdb93ad9	-0.090444274
206	0x3d9b0342	0.07568981
207	0x3baa8b04	0.0052045602
208	0x3bd0a0f3	0.006366843
209	0x3d04de6a	0.032438673
210	0xbd80cedd	-0.06289456
211	0x3c23a3f2	0.009987818
212	0x3db1eb38	0.086874425
213	0x3c80cd33	0.015722847
214	0xbd4f691d	-0.050637353
215	0x3cf78329	0.03021391
216	0xbcd8be06	-0.026457798
217	0x3d427e4a	0.04748372
218	0x3c92e522	0.017931525
219	0x3d2a0cb1	0.04151601
220	0xbd66f7f9	-0.05638883
221	0x3d39dd2c	0.04537694
222	0xbd6949bd	-0.056955088
223	0x3ccca4fc	0.024981014
224	0x3d0e51fa	0.034746148
225	0x3d221cbc	0.039578184
226	0xbd1504dd	-0.03638159
227	0x3d640b7c	0.055675015
228	0xba95309d	-0.0011382286
229	0x3d06a29f	0.03286993
230	0x3d94f728	0.07273704
231	0xbc95bffd	-0.018280024
232	0xbd03f5d5	-0.032216866
233	0x3e14c53c	0.14528364
234	0xbdb077bd	-0.08616588
235	0xbdd0a3d8	-0.10187501
236	0x3d1c32da	0.038134433
237	0xbcbc34d5	-0.022974411
238	0x3e0a6b9f	0.13517617
239	0xbd6fc3c5	-0.05853631
240	0x3c1625ce	0.009164287
241	0xbc2d3381	-0.0105713615
242	0x3ccb2b49	0.024800913
243	0x3cc58bfd	0.024114603
244	0x3883982c	6.274911e-05
245	0xbd46891f	-0.048470613
246	0xbce521b5	-0.027970174
247	0xbd002718	-0.031287283
248	0xbd5cd3b5	-0.053912837
249	0xbd4beb80	-0.049785137
250	0xbc0f2038	-0.008735709
251	0x3d83f365	0.06442908
252	0x3dc73483	0.09726813
253	0x3de3482b	0.11097749
254	0x3cec0708	0.028811947
255	0x3cf770e5	0.0302052

predictor/conv4/b f4 [32]
0	0x3be77d99	0.007064533
1	0x3d4471af	0.04795998
2	0x3ad0d999	0.001593399
3	0x3bccddc2	0.0062520215
4	0x38f58b20	0.000117084244
5	0x3b924e1f	0.004464879
6	0x3cc5801a	0.024108935
7	0x3d29db8c	0.04146914
8	0x3b990bfd	0.0046706186
9	0x3cf4de41	0.029891135
10	0x3c764bf7	0.01503276
11	0xbb822ee3	-0.0039728745
12	0x3d34d84d	0.044151593
13	0xba05ec87	-0.00051087927
14	0x3d0b4368	0.03399983
15	0x3cee7d97	0.02911262
16	0xbc206119	-0.009788775
17	0xbc96169f	-0.018321333
18	0xbb7f71d7	-0.0038977766
19	0x3d40aad8	0.04703793
20	0x00000000	0.0
21	0x3bc372c2	0.005964608
22	0x00000000	0.0
23	0x3c3230ce	0.010875894
24	0x3c8fa56f	0.01753494
25	0x3c42458f	0.011857404
26	0x3d1f2ce4	0.03886117
27	0x3cad5525	0.021158764
28	0xba82d141	-0.0009980575
29	0x3c1b70a2	0.009487303
30	0x3d251609	0.040304217
31	0x3d8209d4	0.06349531

predictor/conv6/W f4 [32, 32, 3, 3]
0	0xbd37aca0	-0.044842362
1	0xbd85c94c	-0.06532535
2	0x3d39a016	0.045318685
3	0x3bad7957	0.005294006
4	0x3d864c34	0.06557503
5	0x3beae1a2	0.007168011
6	0xbd3a3019	-0.045456026
7	0x3d128a39	0.03577635
8	0xbd926f84	-0.07150176
9	0x3b84e9ff	0.004056215
10	0x3b85ac63	0.004079388
11	0x3bb6da08	0.0055801906
12	0xbc84f772	-0.016231272
13	0xbb70c7a7	-0.0036740096
14	0xbad3b509	-0.0016151975
15	0xbccdec29	-0.025137024
16	0xbd6b2566	-0.057408713
17	0xbddd08ab	-0.10792669
18	0xbcb2fe7b	-0.021849861
19	0x3e2237a3	0.15841536
20	0xbd4349a8	-0.047677666
21	0xbcc8efcf	-0.024528412
22	0x3bca7842	0.0061788866
23	0x3d3fae8f	0.04679733
24	0x3d10ffaa	0.03540007
25	0xbd7b2499	-0.0613142
26	0x3d2adcad	0.04171436
27	0xbd578a0c	-0.052621886
28	0x3d137d40	0.03600812
29	0xbc88b3cc	-0.016687296
30	0xbc70f75d	-0.0147074135
31	0xbd1a60e1	-0.037690047
32	0x3d1264dc	0.03574072
33	0xbe13a00f	-0.14416526
34	0x3c155188	0.009113677
35	0x3ccd968a	0.025096197
36	0xba774fe1	-0.0009434205
37	0xbdb0b9fa	-0.08629222
38	0x3cf0642d	0.029344643
39	0x3cec820e	0.028870609
40	0xbd987c84	-0.074456245
41	0x3d453523	0.04814638
42	0x3c8a5209	0.01688482
43	0x3cae242e	0.021257486
44	0xbd108a98	-0.035288423
45	0x3df7ce08	0.12099844
46	0x3cf377d5	0.029720226
47	0xbd07adee	-0.033124857
48	0xbd76d5c0	-0.06026244
49	0xbcbca7f1	-0.0230293
50	0x3ae12e19	0.0017179876
51	0x3bc872de	0.006117209
52	0xbd961b97	-0.07329481
53	0xbcf990c8	-0.030464545
54	0x3c92b4cd	0.017908478
55	0xbd8d1792	-0.06889261
56	0x3d02812f	0.03186148
57	0x3d13eff7	0.03611752
58	0xbd90f8a3	-0.07078674
59	0xbca0b36f	-0.01961681
60	0x3db82b9d	0.089926936
61	0x3d61fe5e	0.055174224
62	0xbcbf02b9	-0.023316728
63	0x3db05c0d	0.08611307
64	0x3bd404a7	0.006470281
65	0xbd8fe3f8	-0.070259035
66	0x3b63d8f6	0.003476677
67	0xbd865065	-0.06558303
68	0xbd8b0864	-0.0678871
69	0x3d7f861c	0.062383756
70	0x3bf5ebd1	0.007504918
71	0x3da78923	0.08180454
72	0xbdbccef5	-0.092191614
73	0xbd1fd07a	-0.039017178
74	0xbd1753c1	-0.03694511
75	0xbc65e1cb	-0.014030884
76	0x3c6fc159	0.0146335
77	0x3c42ddaa	0.011893669
78	0xbcb1f048	-0.02172102
79	0xbdafb8f6	-0.085802004
80	0xbb98bcc5	-0.004661175
81	0xbc8bdb77	-0.017072422
82	0xbd7e8e75	-0.062147576
83	0xbd8d5aa9	-0.06902058
84	0xbd726219	-0.059175584
85	0xbcb620ec	-0.022232495
86	0xbd19a2b4	-0.03750868
87	0xbdfa5bdd	-0.12224553
88	0x3cafcca2	0.021459881
89	0x3c705976	0.014669767
90	0xbce0938e	-0.02741411
91	0xbd92c6cd	-0.071668245
92	0x3da9760a	0.08274467
93	0x3d216e4e	0.039411835
94	0xbbabacab	-0.0052390895
95	0xbd545441	-0.051838163
96	0xbc7b2f99	-0.015331172
97	0xbc2f873a	-0.010713393
98	0xbd80235d	-0.06256745
99	0xbd95cfaf	-0.07315003
100	0xbc4fd3ec	-0.012684803
101	0xbdf3b377	-0.118994646
102	0xbd6d25a0	-0.05789721
103	0x3d738528	0.05945316
104	0x3a8b3694	0.0010621124
105	0xbd71f133	-0.059067916
106	0xbd05182b	-0.03249375
107	0xbc5d3f13	-0.013503808
108	0x3d47caef	0.048777517
109	0x3b5d7578	0.003379194
110	0x3b316875	0.0027070318
111	0xbc0a22fa	-0.008431191
112	0xbd039f44	-0.03213431
113	0x3d3ac71c	0.04560004
114	0x3ca8c47b	0.020601502
115	0xbdea4ec4	-0.114408046
116	0xbbeade0c	-0.0071675833
117	0x3d69d856	0.05709108
118	0xbcbdf8cf	-0.02318993
119	0xbb6bc459	-0.0035975187
120	0x3d7e5bfa	0.062099434
121	0xbddb7b71	-0.10716904
122	0xbd8b0ac5	-0.067891635
123	0xbd710516	-0.05884274
124	0xbdd32327	-0.10309439
125	0x3d24c014	0.040222242
126	0x3ce08060	0.027404964
127	0x3e0cb67c	0.13741487
128	0xbca96586	-0.020678293
129	0xbd964cf5	-0.07338897
130	0xbc8e4a87	-0.017369522
131	0xbd1d4f7c	-0.03840588
132	0x3d5fc21d	0.05462848
133	0xbda53a42	-0.080677524
134	0xbd3efbf4	-0.046627
135	0x3cda4e29	0.026648598
136	0x3b95b8b4	0.0045691375
137	0xbd0f8272	-0.03503651
138	0x3c5ea7bf	0.0135897985
139	0xbd9fe77d	-0.07807825
140	0x3e05d474	0.13069326
141	0x3c5a3763	0.013318869
142	0xbdc4bc0c	-0.096061796
143	0xbd1bf5a2	-0.03807605
144	0x3d0c2bdb	0.03422151
145	0x3bde6e0d	0.0067880214
146	0x3caf266c	0.021380626
147	0x3d9748eb	0.07386955
148	0x3c557f89	0.013030895
149	0x3da5156a	0.08060725
150	0x3c558cc4	0.013034049
151	0x3d228658	0.0396789
152	0x3c195265	0.009358023
153	0x3d8ec2b2	0.06970729
154	0xbc7307c1	-0.014833392
155	0xbd63bd90	-0.055600703
156	0xbd391bb8	-0.04519245
157	0xbd3f6db3	-0.046735477
158	0x3cbd17c2	0.023082618
159	0xbd6ce654	-0.057836846
160	0xbd3a2fa6	-0.045455597
161	0xbd2312d2	-0.03981287
162	0x3d8841bb	0.06653162
163	0x3b2cde48	0.0026377607
164	0xbc15daad	-0.009146375
165	0x3d28f004	0.04124452
166	0x3b6c02e4	0.0036012465
167	0x3b4240f0	0.0029640757
168	0x3c10be57	0.008834443
169	0xbdb23c22	-0.08702876
170	0x3d289d27	0.041165497
171	0x3d665206	0.056230567
172	0xbd2e415d	-0.042542804
173	0x3c0becc1	0.008540333
174	0xbbfedd67	-0.007777858
175	0xbd8a3cbe	-0.06749867
176	0xbd6e11e8	-0.058122545
177	0xbb884ff9	-0.004159924
178	0x3ddce397	0.10785597
179	0x3d80ab55	0.06282679
180	0xbc9d5c4a	-0.019209046
181	0xbacf0190	-0.0015793312
182	0xbd46ebf8	-0.04856488
183	0x3ca153b5	0.019693235
184	0xbd9a983c	-0.07548568
185	0xbc84e8d2	-0.016224299
186	0xbd69aaf8	-0.057047814
187	0x3d7394a4	0.059467927
188	0xbdd190ff	-0.10232734
189	0xbc328d97	-0.010898015
190	0x3d4fa929	0.050698433
191	0x3ce8bee4	0.028411336
192	0x3c90295b	0.017597845
193	0x3d19d5bd	0.037557352
194	0xbdf4b3a9	-0.1194833
195	0xbd0f095f	-0.034921046
196	0xbceb4491	-0.028719218
197	0x3c0c9568	0.008580543
198	0xbd5fdd3c	-0.054654345
199	0xbc40a64c	-0.011758398
200	0xbc71a5b1	-0.014748977
201	0xbdab90e2	-0.083772436
202	0xbcb7405d	-0.022369558
203	0xbc4a138c	-0.012333762
204	0x3d87841d	0.066169955
205	0xbc56d160	-0.013111442
206	0x3bf4fd33	0.0074764728
207	0x3d3ce77b	0.046119194
208	0x3c02f99b	0.007994081
209	0x3cfc5809	0.030803697
210	0x3ca08780	0.019595861
211	0x3d31bdeb	0.04339401
212	0x3d082155	0.033234913
213	0x3e092608	0.13393414
214	0x3d3210d6	0.043473087
215	0xbdbd815f	-0.09253191
216	0x3d2a5b65	0.041591067
217	0xbda14b5a	-0.078757
218	0x3dc3a116	0.09552209
219	0xbc517ab2	-0.0127856005
220	0x3c629180	0.013828635
221	0x3d3b2324	0.04568781
222	0xbd4386c8	-0.04773596
223	0xbd53e31e	-0.051730268
224	0xbd515953	-0.051110577
225	0x3d56d040	0.052444696
226	0x3d4aa482	0.049473293
227	0xbb14fc51	-0.00227334
228	0x3df7313e	0.12069939
229	0xbd626e54	-0.055281
230	0x3da02a7d	0.07820604
231	0x3bd07c2f	0.00636246
232	0xba9a2b5c	-0.001176219
233	0x3d4580cb	0.04821853
234	0xbbe6fc3d	-0.007049112
235	0x3deb855e	0.11500047
236	0xbe2c5abd	-0.16831489
237	0xbd23654d	-0.03989153
238	0xbdbedd66	-0.09319572
239	0x3e148fdf	0.14508007
240	0xbd9d16cd	-0.076703645
241	0xbdfe2ce0	-0.12410903
242	0xbde833e4	-0.11338022
243	0xbca33849	-0.0199243
244	0x3d6e2f54	0.058150604
245	0xbda2348d	-0.079201795
246	0x3d577475	0.052601296
247	0x3d0caffa	0.03434751
248	0xbdd47132	-0.10373153
249	0x3c710894	0.014711518
250	0x3bfc9c42	0.007709057
251	0x3d8bb367	0.06821328
252	0xbd142438	-0.036167353
253	0x3da07580	0.07834911
254	0xbc8bf5b0	-0.017084926
255	0xbdba8ffe	-0.091094956

predictor/conv6/b f4 [32]
0	0xbaeb7a09	-0.0017965446
1	0x3ce6ddaf	0.028181879
2	0xbc0cd4b6	-0.008595636
3	0x3d5d0235	0.053957183
4	0xbc214ca9	-0.009844937
5	0x3ca010a4	0.019539185
6	0x00000000	0.0
7	0xba07dfe2	-0.00051832024
8	0x00000000	0.0
9	0x3c9a793d	0.018856639
10	0x3d0d7157	0.034531917
11	0x00000000	0.0
12	0x3ca5caaa	0.02023824
13	0x3c87db83	0.016584164
14	0x3c96cbcb	0.018407723
15	0x3c5d8622	0.013520749
16	0x3d0604fc	0.032719597
17	0x3c820ea1	0.015876116
18	0x3c921a6a	0.01783486
19	0x3c3e9e6b	0.0116344495
20	0x3cb0b915	0.021572629
21	0x3cd0ba64	0.025479503
22	0x3d0888df	0.033333655
23	0x3aaeb2e3	0.0013328459
24	0x3d4921da	0.04910455
25	0xbc5f67d7	-0.013635597
26	0x3c4b0bcb	0.012392948
27	0x3d56061c	0.05225192
28	0x3c7ac36b	0.01530538
29	0x3c53b882	0.012922408
30	0x3d435191	0.04768521
31	0x3be92a43	0.0071156337

predictor/fc1/W f4 [512, 32]
0	0x3cd82d05	0.026388654
1	0xbe4ccef2	-0.20000818
2	0x3a17b507	0.0005787168
3	0x3e5c2aff	0.21500777
4	0x3e57e064	0.21081692
5	0x3cad42e8	0.021150067
6	0x3dce362d	0.10068927
7	0x3e7cdcc7	0.24693595
8	0x3eb8fcbe	0.36130327
9	0x3e7e362f	0.24825357
10	0xbde220c2	-0.11041404
11	0x3e4bf14e	0.19916269
12	0xbe136664	-0.14394528
13	0x3d9b3c27	0.075798325
14	0x3be55a5c	0.006999297
15	0x3dc29e1e	0.09502815
16	0xbceba003	-0.028762823
17	0x3e6cd852	0.23129395
18	0xbdf4feed	-0.11962686
19	0x3d0665cd	0.03281193
20	0xbe9fd08d	-0.312138
21	0x3ec6e859	0.38849142
22	0xbcc27119	-0.02373557
23	0x3e1938ad	0.14963026
24	0xbe8077a0	-0.25091267
25	0x3e6fefbd	0.23431297
26	0x3c02021b	0.007935072
27	0xbdc98b8f	-0.09841072
28	0x3d70a6ed	0.058752943
29	0xbd354601	-0.044256214
30	0xbdb2b0e7	-0.08725148
31	0xbcc1bc84	-0.023649462
32	0xbe00cc52	-0.12577942
33	0xbe957bb0	-0.2919593
34	0xbdf2bab5	-0.11852018
35	0xbc8de4dc	-0.017321043
36	0x3e1a4181	0.1506405
37	0xbdbd61f3	-0.09247198
38	0xbc2da073	-0.010597336
39	0x3e2970ff	0.16547011
40	0x3eb132a5	0.3460895
41	0x3de8b345	0.11362318
42	0x3dd314cd	0.10306702
43	0x3c88406f	0.016632287
44	0xbe2c0b4e	-0.16801187
45	0xbe68ce55	-0.2273496
46	0xbe586df2	-0.21135691
47	0x3d92f714	0.07176033
48	0x3ba79540	0.0051142275
49	0xbddfe505	-0.10932354
50	0xbe4718f1	-0.19443108
51	0x3e51dccc	0.20494384
52	0xbe82c01e	-0.255372
53	0xbdcfde78	-0.101498544
54	0xbdff54ae	-0.12467323
55	0xbdf7a8ed	-0.12092767
56	0xbdabef3c	-0.0839524
57	0x3dfa37a4	0.12217644
58	0xbc282a8d	-0.010264051
59	0xbdb42d26	-0.08797674
60	0xbe24e456	-0.16102728
61	0x3c5be333	0.013420868
62	0xbd8a7ab6	-0.067616865
63	0x3d141b28	0.03615871
64	0x3d2aa9ac	0.041665718
65	0x3e0b1b91	0.13584734
66	0x3e4432d7	0.19160019
67	0xbdfc5aed	-0.1232203
68	0xbe4a6a5f	-0.1976714
69	0xbdeebd46	-0.11657195
70	0x3d952641	0.07282687
71	0xbdac7e45	-0.084225215
72	0xbeb00aca	-0.3438323
73	0xbd1ef6f6	-0.03880974
74	0x3ed5aa9f	0.41731736
75	0x3d847d88	0.06469256
76	0x3e4be879	0.199129
77	0xbe7522ff	-0.23939131
78	0x3e566d4a	0.20940128
79	0xbe2c75c7	-0.16841803
80	0xbc3e9c85	-0.011633997
81	0xbe424cc5	-0.18974598
82	0xbeb82fe2	-0.35974032
83	0xbe948a9d	-0.29012004
84	0x3e417a28	0.18894255
85	0xbd332e49	-0.043745313
86	0xbe2419c4	-0.16025454
87	0x3dc5b22f	0.096531264
88	0xbe0c5260	-0.13703299
89	0xbe954b74	-0.2915913
90	0xbeddef42	-0.43346602
91	0x3d74257a	0.059606053
92	0xbc30e3eb	-0.010796527
93	0x3da24fc5	0.07925371
94	0xbdc133a4	-0.09433678
95	0x3b86af65	0.004110264
96	0xbd365ee4	-0.04452409
97	0x3da63abe	0.08116673
98	0xbae727d7	-0.0017635775
99	0xbeb2c60f	-0.34916732
100	0x3e44399a	0.19162598
101	0x3e350f4a	0.17681614
102	0x3d086283	0.033297073
103	0xbdebc48a	-0.11512096
104	0x3e489d4d	0.19591255
105	0xbea29fd3	-0.3176256
106	0x3e4a4c08	0.19755566
107	0x3e4523ba	0.1925191
108	0x3ddbb9e4	0.10728815
109	0xbd3917f2	-0.04518885
110	0x3d425569	0.047444735
111	0xbe76c7a8	-0.240996
112	0x3e552171	0.20813538
113	0x3e48526f	0.19562696
114	0x3dce60cd	0.10077057
115	0x3eead467	0.45865175
116	0x3e00d4b3	0.12581138
117	0xbcffdfb4	-0.0312346
118	0xbd842287	-0.06451898
119	0x3d938509	0.07203109
120	0x3ca188b0	0.019718498
121	0xbeb4c8d0	-0.35309458
122	0xbdf9b41f	-0.121925585
123	0x3e040260	0.12891531
124	0xbd5a87a3	-0.05335201
125	0x3dee5fc7	0.11639362
126	0x3d87f977	0.066393785
127	0xbe86c0c3	-0.2631894
128	0xbe02a7b6	-0.12759289
129	0xbddc0dbe	-0.107448086
130	0x3e5a6d44	0.21330744
131	0x3e3282b2	0.17432669
132	0x3dbd677a	0.09248252
133	0x3e7e3988	0.24826634
134	0x3c9387eb	0.018009147
135	0x3cefe115	0.029282132
136	0xbd23cc0e	-0.039989524
137	0x3b9ff699	0.0048816917
138	0xbdc53db1	-0.09630907
139	0xbe256002	-0.16149905
140	0xbda5af62	-0.08090092
141	0xbe0e91c1	-0.13922788
142	0xbdddb06b	-0.10824665
143	0xbe501007	-0.20318614
144	0x3e08a1ed	0.1334302
145	0xbe30e0c3	-0.1727324
146	0x3d12e933	0.035866927
147	0x3ed0cbb3	0.4078041
148	0x3ddf7216	0.10910432
149	0x3e8a5e68	0.2702515
150	0x3d0890d1	0.033341233
151	0x3ec74c45	0.38925377
152	0xbdcf1312	-0.10111059
153	0x3b868ce5	0.0041061514
154	0x3d7df873	0.062004518
155	0xbd3e2f9d	-0.046432126
156	0x3d9841a5	0.07434396
157	0xbe045248	-0.12922013
158	0xbdf147d9	-0.11781282
159	0xbde6be3a	-0.112667516
160	0xbe48e0d4	-0.19617015
161	0x3c644244	0.013931815
162	0x3df3d659	0.11906118
163	0x3d3fb333	0.046801757
164	0x3decdb2d	0.11565242
165	0x3e19f357	0.15034233
166	0x3ceb72c5	0.02874125
167	0xbdda55d0	-0.10660899
168	0x3d85dd19	0.06536312
169	0x3cadf95e	0.021237072
170	0xbe0d1954	-0.13779193
171	0x3d6c35a5	0.057668347
172	0xbeba62cb	-0.36403498
173	0xbd994394	-0.07483593
174	0x3e8caba3	0.27474698
175	0x3ea6f168	0.32606053
176	0x3ce2ecf5	0.02770088
177	0xbdf51bfb	-0.119682275
178	0x3dcf7a60	0.10130763
179	0x3e18306f	0.14862226
180	0x3d1a4956	0.037667595
181	0xbc434395	-0.011917968
182	0xbce70028	-0.028198317
183	0xbb013ce0	-0.0019720122
184	0x3d872dd3	0.06600537
185	0x3e9b480c	0.30328405
186	0x3e776300	0.24158859
187	0xbda4c8a5	-0.080460824
188	0x3ea84b4e	0.32869953
189	0xbe718404	-0.23585516
190	0x3d18b30b	0.037280124
191	0x3da2bf08	0.079465926
192	0x3e42b131	0.19012906
193	0xbc5cd749	-0.013479062
194	0x3e6850cd	0.22687073
195	0xbdc87262	-0.09787442
196	0xbdce9414	-0.100868374
197	0x3d85537d	0.06510065
198	0x3dfcbbac	0.12340483
199	0xbe18ffb9	-0.149413
200	0x3eb2ca86	0.34920138
201	0x3ecded92	0.40220314
202	0xbd7616b4	-0.060080245
203	0x3c078090	0.008270398
204	0x3df2b41a	0.11850758
205	0x3ea52343	0.32253465
206	0x3d46c153	0.048524212
207	0x3dc7b184	0.09750655
208	0x3eb769bf	0.35822865
209	0x3ce89252	0.028390083
210	0xbe02aa8f	-0.12760375
211	0xbdbb684b	-0.09150752
212	0xbc4a07ea	-0.012330988
213	0xbe08313a	-0.13300028
214	0x3f1c37b3	0.6102249
215	0x3d14a9a8	0.03629461
216	0xbd83945a	-0.0642478
217	0x3eade23f	0.33961675
218	0x3e7d35af	0.2472751
219	0xbdcfacea	-0.101404026
220	0x3e78c6eb	0.24294631
221	0xbd939ae0	-0.072072744
222	0xbead1849	-0.3380759
223	0x3e86685e	0.262515
224	0xbc954648	-0.01822199
225	0x3e39307a	0.18084899
226	0xbddff408	-0.10935217
227	0xbd613197	-0.054978933
228	0x3d845c03	0.06462862
229	0x3e194050	0.1496594
230	0x3dfae6a3	0.12251022
231	0x3e3b5310	0.18293405
232	0x3e081009	0.13287367
233	0x3da0a9fa	0.078449205
234	0xbdf017af	-0.11723267
235	0x3df42f97	0.119231395
236	0xbe9e37ce	-0.3090195
237	0xbe16b887	-0.14718829
238	0xbd0c6b3a	-0.034281947
239	0xbebef7eb	-0.3729852
240	0x3df28cd0	0.11843264
241	0x3e3349cf	0.17508624
242	0xbc8bddbb	-0.017073503
243	0xbce63d58	-0.028105423
244	0xbe4f0543	-0.20216851
245	0x3e13974d	0.14413185
246	0xbee5261f	-0.44755647
247	0x3eb0d210	0.34535265
248	0xbe77a2f9	-0.24183263
249	0xbe82e885	-0.25568023
250	0x3d941cf7	0.07232087
251	0xbe44c69d	-0.1921639
252	0x3e73c49e	0.23805472
253	0xbd04151b	-0.03224669
254	0xbe4066b4	-0.18789178
255	0x3ee5be8d	0.4487194

predictor/fc1/b f4 [512]
0	0xbc2ba0dd	-0.0104753645
1	0x00000000	0.0
2	0x3d8b16ab	0.06791433
3	0x3ccb1570	0.024790496
4	0x3d10c7c8	0.035346776
5	0x3cae6ba4	0.021291561
6	0xbcb8f008	-0.022575393
7	0xbcd743ac	-0.026277386
8	0x3d6a97d0	0.057273686
9	0x3d3ed432	0.046589084
10	0x3c5c2f8d	0.013439071
11	0x3d611c86	0.054958843
12	0xbc18806d	-0.009307963
13	0x3cf09fc1	0.029373052
14	0xbcfe2dcc	-0.031027697
15	0xbc872e0f	-0.016501455
16	0x3af43aa5	0.00186332
17	0x3cc3d097	0.023903174
18	0x3d07d678	0.033163518
19	0x3d3ef7d9	0.046623085
20	0x3d46d864	0.04854621
21	0x3c8ede38	0.017439947
22	0x3bf24985	0.007394018
23	0x3c939bde	0.01801866
24	0x00000000	0.0
25	0x3ce48948	0.027897492
26	0x3ce3c1c0	0.027802348
27	0xbbed18fb	-0.007235644
28	0x3c930747	0.017947806
29	0x3c90c21d	0.017670685
30	0x3b0de953	0.0021653965
31	0xbba68db3	-0.00508281
32	0xbbae14e5	-0.0053125494
33	0xbbf6e5de	-0.0075347265
34	0x3bff302f	0.0077877264
35	0x3d79c8f7	0.06098267
36	0x3be1ae9b	0.0068872697
37	0x3d6c1df1	0.05764574
38	0xbc5dcb49	-0.0135372365
39	0x3c93e7c9	0.01805486
40	0xbc0dbdd6	-0.008651217
41	0x3d11f747	0.035636213
42	0x3b0992e3	0.0020992092
43	0x3ccecfa2	0.025245491
44	0x3c0ffc9b	0.008788253
45	0x3c6f436f	0.01460348
46	0xbc0251b2	-0.007954048
47	0x3cc55ad2	0.024091158
48	0xbcdfd837	-0.027324779
49	0x3cd48339	0.025941478
50	0x3cb48729	0.022037106
51	0xbbafb3e8	-0.0053620227
52	0x3c097f01	0.0083920965
53	0xbc84c723	-0.016208237
54	0x3afff887	0.0019529023
55	0xbd47cdb3	-0.048780154
56	0x3d56738f	0.0523563
57	0x3c7ad1bb	0.015308793
58	0x3c02b3de	0.007977454
59	0x3ca54a34	0.020176984
60	0xbb8a5eff	-0.00422275
61	0x3c9ab3e3	0.018884605
62	0x3c5c1da3	0.0134348
63	0xbb4ff9c8	-0.0031734575
64	0x3d0fa898	0.035072893
65	0xba97bafc	-0.0011576111
66	0xbc428c1d	-0.011874226
67	0x3d7c1e19	0.06155214
68	0x3d6ee09a	0.058319665
69	0x3cfd61db	0.03093045
70	0x3d59750f	0.05309015
71	0x3cbed4f4	0.023294903
72	0x3d30b595	0.04314192
73	0x3c8d4dc0	0.017248988
74	0x3cea616d	0.02861091
75	0xbc47941a	-0.012181306
76	0x3d59363d	0.05303024
77	0x3ce0f4de	0.027460512
78	0xbd3dc470	-0.046329916
79	0xbd187b59	-0.03722701
80	0xbce540c3	-0.027984982
81	0xbc3b2b6c	-0.011423927
82	0xba78af16	-0.0009486539
83	0x3d2b4889	0.04181722
84	0x3da35aa2	0.07976271
85	0x3bf4c1b1	0.007469379
86	0x3cba024a	0.02270617
87	0xbc82c7cc	-0.015964411
88	0xbc881723	-0.016612595
89	0x3d04fbbd	0.03246664
90	0xbc8fe1d0	-0.01756373
91	0x3c9711e3	0.018441146
92	0xbd0b8c8c	-0.034069583
93	0x3bf0b595	0.007345865
94	0x3d06cd83	0.032910835
95	0x3c456b16	0.012049457
96	0x37fe2790	3.0297582e-05
97	0x3ce24010	0.027618438
98	0xbc8cc6df	-0.017184673
99	0xbc39df27	-0.011344708
100	0xbbda6c42	-0.0066657374
101	0x3ba7893e	0.005112796
102	0x3d45bf56	0.048278175
103	0x00000000	0.0
104	0x3cdd6b21	0.027028622
105	0xbcdc81ae	-0.026917305
106	0x3c8c77a1	0.017146887
107	0xbcec6754	-0.028857864
108	0x3c9f01a9	0.019409971
109	0xbce3688a	-0.027759809
110	0x3d1d7c3a	0.03844855
111	0xbc06749c	-0.008206513
112	0xbbe582a4	-0.007004099
113	0x3cc30d97	0.023810191
114	0xbce62bc8	-0.028097048
115	0x3bcbbb47	0.0062173936
116	0x3ceaf0ab	0.028679213
117	0x3c74b7e9	0.014936426
118	0x3c8f9946	0.017529141
119	0xbcaf960e	-0.021433856
120	0x3d6a8edd	0.05726515
121	0x3c301c45	0.0107489275
122	0x3d576511	0.05258662
123	0x3cdad482	0.02671266
124	0xb738cf67	-1.1015544e-05
125	0x3d4cdafb	0.050013524
126	0x00000000	0.0
127	0x00000000	0.0
128	0x3b696ada	0.0035616667
129	0xbb9f3fb8	-0.004859891
130	0x3cb920a8	0.02259858
131	0x3d1849f1	0.03717989
132	0x3c8dbc8b	0.017301818
133	0x3d2c5d92	0.042081423
134	0xbc132902	-0.008981945
135	0xbc812cde	-0.015768465
136	0x3b8b7988	0.004256431
137	0x3d1a0acd	0.037607957
138	0x3d8f25af	0.069896095
139	0x3c4c2e29	0.012462177
140	0xbc95f31a	-0.018304396
141	0xba1d46f8	-0.000599965
142	0x00000000	0.0
143	0x3d292750	0.041297257
144	0x3d1ff4ab	0.039051693
145	0xbd2927cf	-0.04129773
146	0x3d6d8937	0.057992186
147	0xbb8c6a5a	-0.004285139
148	0x3c424765	0.011857842
149	0xbc3ade60	-0.011405557
150	0xbab84cc4	-0.0014060964
151	0x3d07ccf9	0.03315446
152	0xbcf0d715	-0.029399434
153	0x3d02ec40	0.031963587
154	0x3d032773	0.032020044
155	0x00000000	0.0
156	0x3c444f4a	0.011981795
157	0x3c8a60f3	0.016891932
158	0xbcd2cd49	-0.025732653
159	0x3d8e55c2	0.06949951
160	0xbc428938	-0.011873536
161	0xbc2b5a0b	-0.01045848
162	0x3d678c94	0.05653055
163	0x3c8773d3	0.016534721
164	0x3bee2c6d	0.0072684796
165	0x3d342894	0.04398401
166	0x3d150df7	0.03639027
167	0x3cb72e2b	0.022360882
168	0x3cba5f7d	0.02275061
169	0x3bdeee58	0.006803315
170	0x3d5c17a0	0.053733468
171	0x3c5c9396	0.013462922
172	0xba6f511e	-0.0009129214
173	0x00000000	0.0
174	0x3d84aa10	0.06477749
175	0x3ce1ae60	0.027548969
176	0xbb14469a	-0.002262509
177	0xbc105c83	-0.008811119
178	0x3afb1d84	0.0019158577
179	0x3c44d4ba	0.012013609
180	0x3d96d22d	0.073643066
181	0x3d2928ac	0.041298553
182	0x3d682900	0.056679726
183	0x3d3e67d9	0.046485756
184	0x3d4140cf	0.047180947
185	0x3bbfd046	0.0058536856
186	0x3cf21da9	0.029555159
187	0xbce91a57	-0.028454943
188	0x00000000	0.0
189	0x3cbeb78e	0.023280885
190	0x3d3633ac	0.044482872
191	0x00000000	0.0
192	0x3cee03d0	0.029054552
193	0x3bb5d4e3	0.0055490597
194	0xbd0a89ac	-0.0338227
195	0x3d76e214	0.0602742
196	0x00000000	0.0
197	0x3be74b1c	0.0070585143
198	0x3c8b6957	0.017018003
199	0xbc58dff0	-0.013236985
200	0xbd0b01f8	-0.033937424
201	0x3a3dc4f8	0.00072391285
202	0x3d3b43f2	0.045719095
203	0x00000000	0.0
204	0x3d26a0d7	0.040680733
205	0xba107865	-0.0005511104
206	0x3d638292	0.055544443
207	0x3c937c34	0.01800356
208	0x3d5db214	0.054124907
209	0xbc187eb1	-0.009307549
210	0x3cde63cd	0.027147198
211	0xbcbc8071	-0.023010464
212	0xbbcaec91	-0.0061927517
213	0x3cdaf4d0	0.026728064
214	0xba88412b	-0.0010395398
215	0xbbc3da61	-0.0059769605
216	0xbd3b8baf	-0.04578751
217	0xbbca2d65	-0.006169962
218	0x3c5a07d0	0.013307527
219	0x3d68832b	0.056765717
220	0x3cf073f2	0.029352162
221	0x3be0e4ab	0.006863197
222	0x3db6ffcc	0.08935508
223	0x3d046b2f	0.03232878
224	0x3c397ab3	0.011320758
225	0x3d927bfc	0.071525544
226	0x3cd81178	0.026375517
227	0x3c2216d6	0.00989314
228	0x3d810d29	0.06301338
229	0xbc0ff714	-0.008786935
230	0x3d4b5795	0.04964407
231	0xba0713c8	-0.0005152789
232	0x00000000	0.0
233	0xbbd2b9cb	-0.0064308397
234	0x3c9c3278	0.019067034
235	0x3d080eb4	0.033217147
236	0x3cd22359	0.02565162
237	0xba8ea0c4	-0.0010881652
238	0xbb8d3441	-0.0043092077
239	0x3bcb48c7	0.006203744
240	0xbbcbe103	-0.006221892
241	0x3d45256f	0.048131403
242	0x3bac2149	0.0052529913
243	0xbc11df2a	-0.008903304
244	0x3cf3a3a5	0.029741118
245	0x3d559001	0.052139286
246	0x3cddb1c7	0.02706231
247	0xbc7d3ce7	-0.015456415
248	0x3d24c156	0.040223442
249	0x3cecbbca	0.028898139
250	0xbcc598cf	-0.024120716
251	0x3d11fec1	0.035643343
252	0x3ce6ff9a	0.028198052
253	0x3cec2cc1	0.028829934
254	0x3d92b17d	0.071627595
255	0xba5865ca	-0.0008254914

predictor/conv5/W f4 [32, 32, 3, 3]
0	0x3db3c20d	0.087772466
1	0xbb9e7806	-0.0048360853
2	0x3d9562fd	0.07294271
3	0x3c987774	0.018611647
4	0x3ded5e4a	0.1159025
5	0xbd4a854a	-0.04944352
6	0x3cd079d2	0.025448713
7	0xbc942940	-0.018086076
8	0x3d89f7e6	0.06736736
9	0xbc08a902	-0.008341076
10	0xbd43dc61	-0.04781759
11	0xbc48f369	-0.012265065
12	0xbb922a96	-0.004460643
13	0x3cbfaf5e	0.023399051
14	0xbd246f46	-0.04014518
15	0xbc0ebc7c	-0.00871193
16	0x3cd2e75d	0.025745088
17	0xbca4208e	-0.020035055
18	0x3c8c8b8c	0.017156385
19	0xbd932100	-0.071840286
20	0x3d712742	0.05887533
21	0xbbb22009	-0.005435948
22	0x3d861c68	0.06548387
23	0x3cee9d77	0.02912782
24	0x3ca3ef4f	0.020011572
25	0xbc981883	-0.018566376
26	0xbd9699bc	-0.07353541
27	0x3c091cd1	0.008368687
28	0xbd860d37	-0.06545489
29	0x3c85816f	0.01629707
30	0x3d8ef742	0.069807544
31	0xbbb9967c	-0.005663691
32	0x3c3dbb12	0.011580246
33	0x3c6542ec	0.013993006
34	0x3d156fcf	0.036483582
35	0x3cc52de7	0.02406974
36	0x3dacda82	0.084401146
37	0xbd85fcb2	-0.065423384
38	0x3c0a9711	0.008458869
39	0xbc18fdd2	-0.009337859
40	0xbd8dea50	-0.06929457
41	0xbdf35605	-0.11881641
42	0x3bcb65d4	0.006207207
43	0x3c1981b5	0.0093693035
44	0xbc13e1d6	-0.009026011
45	0xbd8b2799	-0.06794662
46	0xbd32537a	-0.04353664
47	0xbcd95266	-0.026528548
48	0xbdcd6398	-0.100287616
49	0x3cb9087a	0.02258705
50	0xbd7b34f2	-0.06132979
51	0xbcd34d7e	-0.025793787
52	0xbd55633a	-0.052096583
53	0x3ab8975e	0.0014083197
54	0x3e17caaf	0.14823411
55	0x3dc9a902	0.09846689
56	0xbcab9759	-0.020946192
57	0xbd0c7f64	-0.034301177
58	0xbd0058cb	-0.03133468
59	0x3d91cb4c	0.07118854
60	0xbd5681e7	-0.05236998
61	0x3a083e7b	0.00051972986
62	0x3daf1eee	0.08550821
63	0xbde501aa	-0.11181958
64	0xbd5a484f	-0.053291615
65	0x3d104f9c	0.03523217
66	0xbdae7f9c	-0.08520433
67	0xbb19a5b7	-0.002344472
68	0xbd141656	-0.036154114
69	0xbcf4257b	-0.029803028
70	0x3cd8f336	0.02648316
71	0x3cf03dd3	0.029326355
72	0x3d2af5fc	0.041738495
73	0xbd02b7ee	-0.03191369
74	0x3c466ac7	0.012110419
75	0xbd2dd611	-0.042440478
76	0xbd7a0096	-0.061035715
77	0x3d3c0787	0.045905616
78	0x3d2b86fd	0.04187678
79	0xbdc90d36	-0.09816973
80	0x3b80786a	0.0039206045
81	0x3d59ca7e	0.053171627
82	0xbd1bcc49	-0.03803662
83	0x3b29d755	0.0025915701
84	0xbc37e632	-0.011224316
85	0xbd3c9ad3	-0.04604609
86	0xbc6c48a8	-0.0144216195
87	0xbd37ecbd	-0.044903506
88	0x3e09d65c	0.13460678
89	0x3c3a9377	0.011387697
90	0xbd9fd1da	-0.07803698
91	0x3ccc0e28	0.024909094
92	0x3d6cdd06	0.057827972
93	0xbdb925a0	-0.090403795
94	0xbd4aa7bc	-0.04947637
95	0x3d053466	0.032520674
96	0x3ceba0ad	0.02876314
97	0x3c37ba45	0.011213844
98	0xbaf3b53f	-0.0018593444
99	0xbcebbd39	-0.028776752
100	0xbdafcb83	-0.08583739
101	0xbc97fab2	-0.018552158
102	0x3db217d2	0.086959496
103	0xbc99bb1c	-0.018765979
104	0xbc92c035	-0.017913917
105	0xbdd6a90a	-0.104814604
106	0xbd2e5cd0	-0.04256898
107	0xbce73ccc	-0.028227232
108	0xbda25a9b	-0.07927438
109	0xbbb0a695	-0.005390952
110	0xbc7eea36	-0.01555877
111	0x3c9f9b01	0.019483091
112	0xbcbef164	-0.023308463
113	0xbdc205e4	-0.0947378
114	0x3d370d2e	0.044690304
115	0xbdd4be00	-0.10387802
116	0x3d7b2825	0.06131758
117	0xbdb3543f	-0.08756303
118	0xbd3b35dd	-0.045705665
119	0x3d63ac52	0.05558426
120	0x3d12d3e1	0.035846595
121	0xb97f04ff	-0.00024320556
122	0xbca4f320	-0.020135462
123	0xbc85e89d	-0.01634627
124	0xbd97c758	-0.07411069
125	0xbced44b5	-0.028963426
126	0xbd0790ee	-0.0330972
127	0xbcaeb09d	-0.02132445
128	0x3b5ad649	0.0033391884
129	0x3d3e4524	0.046452656
130	0x3d911ed0	0.07085955
131	0x3c351d93	0.011054414
132	0xbd6c6834	-0.057716563
133	0xbcac5c90	-0.021040231
134	0x3ce3e40b	0.0278187
135	0xbdd2bacf	-0.10289537
136	0x3c657985	0.014006023
137	0x3da51ba6	0.08061914
138	0xbc4a661a	-0.0123534445
139	0xbcd784bb	-0.026308408
140	0xbcb22757	-0.021747274
141	0x3de56dc9	0.112025805
142	0xbd3bfc33	-0.045894813
143	0x3d31689a	0.043312646
144	0x3acbd6b4	0.0015551657
145	0xbd8a2c00	-0.067466736
146	0x3c918666	0.017764281
147	0xbd7a720f	-0.06114393
148	0xbd29b867	-0.041435625
149	0x3d030250	0.031984627
150	0xbd9e2516	-0.07721917
151	0xbd1b65c1	-0.037938837
152	0xbd32dff6	-0.043670617
153	0x3cc62cfa	0.024191368
154	0x3dccac63	0.09993818
155	0x3d934259	0.07190389
156	0xbd1c1c2a	-0.038112797
157	0xbd8f90c2	-0.07010032
158	0x3d161246	0.03663852
159	0x3c7fc2b7	0.0156103885
160	0xbb4d553f	-0.0031331328
161	0xbdca9ee8	-0.0989359
162	0x3d101701	0.03517819
163	0x3d5a161f	0.053243753
164	0xbd4de16b	-0.050263803
165	0xbd8cc318	-0.06873149
166	0xba89b25d	-0.0010505427
167	0xbda5c8e4	-0.080949575
168	0xbafcf0f3	-0.0019297883
169	0x3d151f9f	0.03640711
170	0x3c59953b	0.013280208
171	0x3b91b2c1	0.004446358
172	0xbd31c322	-0.043398984
173	0x3d922439	0.07135815
174	0xbdbac681	-0.09119893
175	0xbd6a6b0a	-0.057230987
176	0xbc17a3f1	-0.009255395
177	0x3d258653	0.040411305
178	0xbd5131ff	-0.05107307
179	0xbd09a3a9	-0.033603344
180	0xbd34f8b8	-0.04418251
181	0xbab0ffba	-0.0013503947
182	0xbca7d17b	-0.02048563
183	0xbc6ca936	-0.01444464
184	0x3cfddfab	0.030990442
185	0x3d285e07	0.041105296
186	0xbd10bc4d	-0.035335828
187	0x3dc190a4	0.09451416
188	0xbd40b2a0	-0.04704535
189	0x3cf2f8a2	0.029659573
190	0xbd1b9a4a	-0.03798894
191	0xbd55a4b1	-0.052159015
192	0x3d5d85eb	0.054082792
193	0x3cd4372c	0.025905214
194	0x3c1deb98	0.009638689
195	0x3aea8806	0.0017893321
196	0x3d1eea6d	0.038797785
197	0xbdcb7ed9	-0.09936304
198	0x3db2a5fc	0.08723065
199	0xbc5c5fa1	-0.013450534
200	0xbd9307bc	-0.071792096
201	0xbcae5ad1	-0.021283539
202	0xbd339d55	-0.043851215
203	0xbbce3ef5	-0.006294126
204	0xbc7234c5	-0.014783089
205	0xbcb98f7b	-0.022651425
206	0x3d4c5254	0.0498832
207	0x3b9e12c1	0.004824013
208	0x3e0089b7	0.12552534
209	0x3c86159d	0.016367728
210	0xbd84554e	-0.06461583
211	0x3cf47698	0.029841706
212	0x3dba5fd9	0.09100313
213	0x3d29a6a9	0.041418705
214	0xbd0be7e3	-0.03415669
215	0x3d7f5ebb	0.0623462
216	0xbd1673fb	-0.0367317
217	0xbce0eba1	-0.027456107
218	0x3d351e60	0.04421842
219	0x3ba45445	0.0050149285
220	0x3d2fb591	0.042897765
221	0xbdad5c44	-0.08464864
222	0xbd72030b	-0.059084933
223	0x3dad2820	0.08454919
224	0xbd8a4994	-0.06752315
225	0xbd01b85c	-0.03166996
226	0x3d47e4a0	0.04880202
227	0x3c21e914	0.00988223
228	0x3c83b58c	0.01607778
229	0xbd94a0f9	-0.072572656
230	0x3db26561	0.08710743
231	0xbd77e2f4	-0.060519174
232	0xbd16996b	-0.036767405
233	0x3b946ed4	0.0045298133
234	0xbb1f08a2	-0.002426662
235	0xbabdc436	-0.0014478031
236	0xbc9ecf80	-0.019386053
237	0x3d9e5f73	0.07733049
238	0xbda689de	-0.08131765
239	0x3ce3f3cc	0.027826212
240	0x3ca613e2	0.020273153
241	0xbd844298	-0.06458014
242	0x3c3d08c6	0.011537736
243	0xbba13931	-0.004920148
244	0xbdab4abf	-0.08363866
245	0x3d514f3c	0.051100954
246	0xbcac0de7	-0.021002723
247	0x3cb52294	0.022111215
248	0x3cdb3786	0.026759874
249	0xbcd159c7	-0.025555504
250	0x3e35833c	0.17725843
251	0x3db447bb	0.08802744
252	0xbc754c60	-0.0149718225
253	0x3da5cd97	0.08095854
254	0xbb183c09	-0.0023229143
255	0xbaee762e	-0.0018193179

predictor/conv5/b f4 [32]
0	0x00000000	0.0
1	0x3ce2a1ba	0.027665008
2	0x3b5d2e32	0.0033749458
3	0x3c0df482	0.008664252
4	0x3cd04feb	0.025428733
5	0x3d167405	0.03673174
6	0xbbcf8262	-0.0063326815
7	0xbc4f640d	-0.012658131
8	0x3c59e5a0	0.013299376
9	0x3ca8fbd1	0.020627888
10	0x3d2fc0f7	0.042908635
11	0x00000000	0.0
12	0x3d060171	0.03271622
13	0xbb910b07	-0.0044263634
14	0xbb252b1e	-0.0025202702
15	0x3d543242	0.051805742
16	0x3ca38889	0.019962566
17	0x3bb9695d	0.0056583122
18	0x3d126a1e	0.035745732
19	0xbbe52070	-0.0069923922
20	0xba258c9d	-0.00063152035
21	0x3bbd118e	0.005769915
22	0x3bbc5df6	0.0057485057
23	0x3d2981d9	0.041383598
24	0x3ca3fc50	0.020017773
25	0x3cec081b	0.028812459
26	0x3c8679b5	0.016415456
27	0x3cac6738	0.021045312
28	0x3c5a1022	0.01330951
29	0xba955b67	-0.0011395038
30	0x3c94a054	0.018142857
31	0xba7a32bb	-0.00095443026
