prototype/chainer_prototype/learned_model/v6.model (npz, 246339 bytes, 16 tensors)

predictor/conv3/W f4 [32, 32, 3, 3]
00000000: bd22 023e 72bb 58bd f2df c3bb a55d 163d
00000010: e1c4 1c3d 196f 9c3c 5cd2 3e3d 169a 263c
00000020: bdda 343d 3d60 a23b c176 fbbc 73b8 8dbd
00000030: 64ef bd3b 97c0 e63d cda5 473d 937e a93c
00000040: 2359 88bd 2bc1 8dbd 3c03 d6bc c562 083d
00000050: 2047 9a3d 5adc 093d e5da 433d f67b 88bd
00000060: 0220 80bd 623d 13bd 239e 1f3e 79ab e83c
00000070: 0f0d 103e ff65 023d cfed 5cbb 708d 15bd
00000080: b0e1 51bc 12b8 aabd add8 30be 45d4 26bd
00000090: 9f34 adba 9908 13bd 0d21 c83c 5869 9d3d
000000a0: 6ea0 443d 92cb e73b c8e7 0c3c a2da b6bc
000000b0: 56fd 8f3c 27dd 4abb 5887 44bd 1d6b 4d3d
000000c0: 9655 e2bd cb95 4fbd 9802 e93c 6eeb 863b
000000d0: 7b7d 593d 851b 14bd ef1e 82bc a5ef 42bd
000000e0: fc28 0bbd 338a b2bc 4772 d83c b19f d6bd
000000f0: b3ba 95bd 752d 81bd 9341 d23d 1988 383b
00000100: 6f94 afba 4c9b b13b cc7b 5dbb c7b5 a9bc
00000110: eb5b 5fbc 4c42 d93c 40bd d2bc 8927 2abd
00000120: aac5 e23c 9cba ac3d e1e9 ba3c 0fab f0bc
00000130: 7641 09bd 443b 07bd 668b 3d3d 0ce4 b73d
00000140: f2c0 f9bc 6df0 843d efbf a13d 0a0b 05bd
00000150: 1ae1 843c 9f86 2e3d 5c54 ef3d 7a5d f43b
00000160: 6b74 e0bd 3faf 083d 230e 733d e0bc 8a3c
00000170: 3eea 19bd 7565 463d b988 0c3c 4ab8 36ba
00000180: 7964 6cbd 9252 913d 3ce3 f8bc 2463 113d
00000190: c586 ca3c 730b d2bc 0e1e 2b3b 21bb eb3d
000001a0: 46fd 513d a77a 553d 1a19 133d dc62 393d
000001b0: a9ef 063c 94e0 0f3d 537d 92bc 7f47 16bc
000001c0: ea07 373d 6d0d b2bd 0abb f43c cbc0 9d3d
000001d0: 4221 9dbd b175 6e3d f3d3 64bd 32b5 f03c
000001e0: dd43 b1bd 4b0a 49bb 6164 9f3d a9e5 463c
000001f0: 8b85 8cbd 842a a23d 6725 30bd cd61 ba3d
00000200: fddc 5a3d 024d 91bd dbf8 8ebd 4af7 953d
00000210: 1fe4 b73c a60f b33d dfa6 22bd 9c8c d03c
00000220: caee 0b3d 1cdd 5cbb 1829 3bbd 8783 3a3d
00000230: 13b6 d33c 3b60 213c b6b8 83b8 b10b c5ba
00000240: 0adf d0bd 6c3a 173d cffe 0dbe 4f1e a93d
00000250: 6ed7 9fbc c3ad b3bb b951 543d fdf8 b13d
00000260: b423 a03d 4f90 973d 547c 953c 9db3 913d
00000270: 1c12 12bd 89d6 223d 739a 803d 2e24 cfbb
00000280: 9f79 04bd 2533 083e 013a acbd 820b a53d
00000290: 3863 923d 0105 29bd f1f1 2e3d f338 80b9
000002a0: 8958 c53d b326 043d 54f3 22bc f6bb b73c
000002b0: 9ceb 06be 916e a73b 641d babc f239 d33d
000002c0: fb51 dbba 36bd 33bd 6ae5 d13c fdb3 23bd
000002d0: 92e1 69bc 6516 9ebc ab7d 2e3c 05ac f4bc
000002e0: d590 0cbc 3df2 093e 0d54 a3bc 31d6 11be
000002f0: de7c ebbd 1323 a73c beb2 70bc 0415 ec3d
00000300: 8b05 85bd 6563 ad3c 1e1c de3c 5d72 a4bd
00000310: 5c1b fcbd 19f4 09be 8dac bbbd 38a8 a33c
00000320: 3198 0abe 1588 803d c7f5 2fbd 6fca 6f3d
00000330: 0224 dab8 7ba8 223e 3306 bf3c f377 53bd
00000340: f9af 323e 4f19 013d 006b f8bd 567c bebd
00000350: f6ec 313b 1304 a0bc 3a3a 68bd 23b3 88bd
00000360: e093 85bd d96e 093c 109a 873d a8fc 59bd
00000370: b507 9b3d 4e69 f4bb 1842 c63d bb9b 153c
00000380: 63da 5538 8af7 78bc e0bc a43d a1b5 eabc
00000390: 5c67 d53c 5163 fcbc 76ea aebc 2610 ce3c
000003a0: 001d 8d3c a26d 91bd 5ece c7bc ecfb d4bd
000003b0: a863 f53c e738 03bd cf6d 80bd 8d3b 013e
000003c0: 9f52 b93b 9587 ae3d b83d 6f3d 2e94 02bc
000003d0: 8f9f 6fbd c50e 22bd 03ca fdbc d2eb 7a3d
000003e0: 9f83 873c 6b13 eabd 1d59 273d c6f8 173d
000003f0: 63cc 153d e49d 2ebd 33ac 93bd d6c8 9cbc
0.12708564 -0.052913137 -0.005977624 0.0367104 0.038273696 0.019095944 0.046587333 0.010168573
0.044153918 0.00495532 -0.030696275 -0.069199465 0.00579636 0.11267202 0.048742104 0.020690238
-0.066576265 -0.069216095 -0.02612459 0.03329732 0.07533097 0.03365741 0.047816176 -0.06664269
-0.06256105 -0.03594721 0.15587668 0.028402077 0.14067481 0.031835552 -0.003371108 -0.03651184
-0.012810156 -0.0833589 -0.17270155 -0.04072978 -0.0013214535 -0.03589687 0.024429822 0.07686108
0.04800456 0.007073828 0.008600183 -0.02232105 0.017576855 -0.003095457 -0.047980636 0.05015098
-0.110514805 -0.050679963 0.02844362 0.004117421 0.053098183 -0.036159057 -0.01588389 -0.047591824
-0.033974633 -0.021794414 0.02642168 -0.104796775 -0.07311001 -0.06307498 0.102664135 0.0028157292
-0.0013395677 0.005420124 -0.0033795713 -0.020716561 -0.013632755 0.02652087 -0.025725007 -0.04154161
0.027682144 0.084340304 0.0228166 -0.029378442 -0.033509694 -0.033015504 0.04627552 0.08979043
-0.030487511 0.0649117 0.078979366 -0.03248123 0.016220618 0.042608853 0.11686012 0.0074574323
-0.10959705 0.033370253 0.059339654 0.016935766 -0.037576906 0.0484366 0.008577519 -0.000697021
-0.057713006 0.07095827 -0.030381791 0.03549494 0.024722466 -0.025640225 0.0026110443 0.115103014
0.05126693 0.052118924 0.03591261 0.045260295 0.00823585 0.035126284 -0.017882025 -0.009172319
0.04468528 -0.08693967 0.029874343 0.07702788 -0.07672359 0.058217708 -0.055866193 0.029383276
-0.08655522 -0.00306763 0.07782818 0.012139716 -0.06861409 0.079182655 -0.04300442 0.09100685
0.053433407 -0.07094766 -0.06981059 0.07322557 0.022447644 0.08743219 -0.039709922 0.025457673
0.034163274 -0.0033701127 -0.045693487 0.04553559 0.025843656 0.009849603 -6.280972e-05 -0.0015033392
-0.10198791 0.03692095 -0.13866733 0.08257734 -0.019511905 -0.0054833605 0.05183575 0.08690069
0.0781931 0.074005716 0.01824776 0.07114337 -0.0356618 0.039755378 0.06279459 -0.0063214516
-0.03234255 0.1330076 -0.08409501 0.080588356 0.07147831 -0.041264538 0.042711202 -0.00024456493
0.09636027 0.03226347 -0.009945709 0.022428494 -0.13175815 0.005109616 -0.022719093 0.103137866
-0.0016732806 -0.043881617 0.025622088 -0.039966572 -0.014274972 -0.019297788 0.010650079 -0.029867182
-0.0085794525 0.13471313 -0.01993754 -0.14241864 -0.11498426 0.020402467 -0.014691053 0.11527446
-0.06495198 0.021165559 0.027113017 -0.080296256 -0.12309906 -0.13472022 -0.09163771 0.019977674
-0.13534619 0.062759556 -0.042959 0.058542665 -0.00010401757 0.15884583 0.023318386 -0.051628064
0.1744994 0.031518277 -0.12129784 -0.09301059 0.0027149296 -0.019533193 -0.056696154 -0.066747926
-0.065223455 0.008388245 0.06621182 -0.053219467 0.075698294 -0.0074588424 0.09680575 0.009131367
5.0986546e-05 -0.015195737 0.080438375 -0.02865106 0.026050262 -0.030809077 -0.021352034 0.025154185
0.017225742 -0.07100989 -0.024390396 -0.10399613 0.029954746 -0.03203669 -0.06270944 0.12620373
0.005655601 0.08521954 0.05840847 -0.007969899 -0.058501776 -0.039564867 -0.030980116 0.061260052
0.016542254 -0.11429485 0.04085647 0.037102483 0.03657187 -0.042631045 -0.07210579 -0.019138735

predictor/conv3/b f4 [32]
00000000: 08db 8d3c d6a7 bfba 7848 4dbc c104 cabb
00000010: f98b 843c d533 813c 2212 9f3c 633c 1a3d
00000020: df3a c7b9 4998 25bb 87f8 a33c d4f2 ae3c
00000030: b530 a23c 9f18 85bb 1203 9e3c cbe7 803c
00000040: 2bfc 97bc 28fc 1b3d 8bcb 6a39 6d82 ab3c
00000050: b7a5 5c3c 4f60 25bc 0000 0000 c446 a939
00000060: 64b3 9ebc 7954 e2bb 5cfb 043c 77d6 7cb9
00000070: 3993 993c afe1 af3c 6d8e 363a 9c7d c9ba
0.017316356 -0.0014622163 -0.012529485 -0.0061651175 0.016180025 0.015771786 0.019417826 0.037655246
-0.000380001 -0.002526777 0.020015968 0.021356024 0.019798616 -0.004061773 0.019288573 0.015735528
-0.01855286 0.03808227 0.00022391805 0.020936215 0.013467244 -0.010093763 0.0 0.00032286916
-0.01937265 -0.0069070426 0.008116569 -0.00024112487 0.018746959 0.021469919 0.0006963972 -0.0015372518

predictor/fc2/W f4 [3, 512]
00000000: f987 8dbd d474 35bd ea84 e8bc 9b94 cb3d
00000010: 1a70 b3bc 2283 c8bd 6fbd cabd 710e fcbc
00000020: eb9f 0c3d d6c0 ae3d 399e 71bd 3624 513d
00000030: 5f96 c0bd bd4f d43c dafa 28bc a6d9 ee3c
00000040: e099 4bbd 5e7c bdbd 8138 03bd 4f6a 233c
00000050: f5b2 a53d 06ff 863d 218d 243d ff44 893d
00000060: e9f8 c53d 62cf 243d 66e0 11bd d7a1 683d
00000070: 52d4 89bc 59eb 7c3d deb0 d1bc 1f6b 6e3d
00000080: f322 88bc 2225 f7ba 5f68 7cbd 07ae ee3c
00000090: 203e f93c bc98 cc3c 7a7e 4ebb 8902 88b8
000000a0: 564e 643c 11a1 c1bc b799 443d 9bd0 f03d
000000b0: 64b5 813a a0dd 46bd 85a9 b53b a4db aabc
000000c0: 06a4 4fbb 09d0 673d 3342 813c 2a3e 45bd
000000d0: 887b f4bc b4eb 67bd b455 6e39 8dd3 e8bd
000000e0: debc 8cbd 81fd e1b9 8ea9 983d 027a ae3c
000000f0: 79c5 9cbc 3382 8a3b c58f 20bd 82b3 053d
00000100: ac37 683c 852d 15bd 09ef 14bc 7881 14bd
00000110: 8df5 5abd 8380 dfbc dd15 c23d f576 4c3c
00000120: 8c9d 333d 9a70 b0bd d726 903c 1cc2 c93d
00000130: c1f5 88bc c577 7fbd a7cb 4cbc b7ce f2bd
00000140: 365f dabb 1088 a13c a2ba 4b3d 025c 77bd
00000150: 830b 793d f1ff 0bbd dba5 03be bf15 81bb
00000160: 47cc 103c 7d40 0e3e 926f 1dba 0da5 d73c
00000170: 6fab 93bc b22c 463d cb5d 513d 0608 933d
00000180: 9a0a afbc bed9 563d a5f0 873d 3eda 20bd
00000190: be4c ba3d 886b 543a 1814 733b 901e 843d
000001a0: 2991 fd3c ea5b 943d 947a 16bd 479c bfbd
000001b0: 3e8b 023c 1d17 4a3d 78b1 b13c e0ba 82bd
000001c0: c7e5 97bc 0b3a eb3c fef0 4039 a07f cf3c
000001d0: 2fa0 3fbd 620b f03a 1741 333d a5e9 35bd
000001e0: 8baa 05bd 8c08 453d 3df1 62bd fd48 11bd
000001f0: 7f3f 1e3d b8f5 043d e760 153d 8b75 bf3d
00000200: 9afe 66bd 5662 633d 0f86 0d3d de3d 7bbc
00000210: c73e 5cbd 4724 0ebc ed24 30bd 4ab1 8cbc
00000220: 521d 89bd 047c b73c 89b0 eb3a f2c5 ecbd
00000230: 9adb 7e3d dc0a 10b9 a6e1 523d aeb7 98bd
00000240: 2555 1ebd 1e7c d53d 3892 0c3d 203d 683c
00000250: 89b8 893d 8a7c 9ebc d434 1d3b 0d29 423c
00000260: 80c9 1bbd a7c1 c43d 3f73 c83d 594d 973c
00000270: 7009 083d 5115 6cbb f647 73bd a77c 623c
00000280: 8d8a 8a3c 8c6e ef3d b0fa 5b3d ac4e 63bd
00000290: 3b63 b83c 2156 203d 9dd9 0abd 62c3 27bd
000002a0: 56e4 d7bd 4835 b8bc b153 b73c f40d 813d
000002b0: 2aa3 833d 347f e1bc 0779 fd3c 36b5 23bd
000002c0: dc3c d73d 0120 103c 4bec 443d 17b8 8e3d
000002d0: 8a08 273c 3ba1 a73d 36de f33d 667f b03d
000002e0: 8c7e 3e3d 72ce 703c 94a2 383d f16e a63d
000002f0: 239f 95bd b70a 6b3c ed42 8bbd ffa1 8b3c
00000300: f208 643d 50ed 8b3d 374e a83c 2558 213d
00000310: 177e 8d3d f2cb 623d 5a10 f23c a08d 8538
00000320: 8704 94bd 478e 84bd 7c40 693d 6e72 0b3e
00000330: 8aed 14bc bf8c 02bd 73b1 98bd bbf7 41bc
00000340: aeb9 8cbd f7a8 e73c 6cc6 f83a e939 bebd
00000350: d8b0 d83c 9e91 44bc 35e2 93bd 9b73 8b3d
00000360: acf2 e53d 095d 173d 016c 3abd 9fc7 1cbc
00000370: 9ece df3c e539 0cba f73c 7b3d cba8 33bc
00000380: d8d2 913c f62e 34be 262f e3bd 5a80 b23c
00000390: 8344 2a3d cebe 803d d13a 0fbd 6ba0 bebd
000003a0: e7f8 693b f885 60bc 9ce6 2c3d 18ec a5bc
000003b0: 73c9 193d e853 d5bc 2da1 efbc d6be c0bc
000003c0: e92b 543d 6740 dd3d 5397 aa3d 80d8 573d
000003d0: 3f4f 413d 011a ab3d ab41 a73c d4ad 1ebc
000003e0: d7e8 21bd b026 80bd b410 923d ae04 cdbd
000003f0: f262 bfba 1ca4 17bc b4ed 35bb 909c 193c
-0.069107 -0.04430087 -0.02838369 0.099404536 -0.02190404 -0.097906366 -0.09899413 -0.030768605
0.034332197 0.08532874 -0.058988784 0.051059924 -0.09403681 0.025916928 -0.010313714 0.029156517
-0.049707294 -0.09252237 -0.03203631 0.009974076 0.08090774 0.065916106 0.040173654 0.06702613
0.096666165 0.04023684 -0.035614394 0.056794968 -0.016824875 0.061747883 -0.025597032 0.058207627
-0.016618228 -0.0018855671 -0.061622974 0.029135717 0.030425131 0.024975173 -0.0031508491 -6.4854576e-05
0.013934692 -0.023636373 0.047998156 0.11758538 0.0009895978 -0.0485512 0.00554389 -0.020856686
-0.003168346 0.056594882 0.015778637 -0.048154987 -0.02984406 -0.05662127 0.00022729376 -0.11368475
-0.06871961 -0.0004310422 0.07454215 0.021298412 -0.019137131 0.0042269467 -0.03919961 0.032641895
0.014173429 -0.036420364 -0.009090194 -0.036256284 -0.05345683 -0.027282959 0.09476826 0.012479533
0.04385142 -0.08615227 0.017596645 0.098514766 -0.016718747 -0.06237008 -0.012499726 -0.11855834
-0.006664182 0.0197182 0.049738534 -0.06039048 0.060801994 -0.03417963 -0.12856238 -0.00393936
0.008837766 0.13891788 -0.00060057 0.02632382 -0.018026082 0.04838247 0.05111484 0.07179265
-0.02136736 0.05245375 0.06637696 -0.039270632 0.09096669 0.00081031816 0.0037090834 0.06451142
0.030953007 0.07244094 -0.036737993 -0.093559794 0.007967768 0.04933845 0.021691069 -0.063833
-0.018542184 0.0287142 0.00018400323 0.025329411 -0.046783622 0.0018313939 0.043763246 -0.044412274
-0.032633346 0.048103854 -0.055405844 -0.035469998 0.038634773 0.0324609 0.036469366 0.093485914
-0.05639515 0.055513702 0.034551676 -0.0153345745 -0.053770807 -0.008675641 -0.043003965 -0.017174382
-0.066950455 0.022398002 0.0017981689 -0.115611926 0.062221147 -0.00013736956 0.051484726 -0.07456909
-0.03865542 0.10424064 0.034319133 0.01417473 0.067246504 -0.019346494 0.0023987787 0.011850608
-0.038033962 0.09607249 0.097876064 0.0184695 0.033212125 -0.0036023448 -0.0593948 0.013823665
0.01691177 0.11691007 0.05370587 -0.05549495 0.022508254 0.03914464 -0.03389894 -0.040957816
-0.105415985 -0.022486344 0.022378774 0.063014895 0.064276055 -0.027526475 0.0309415 -0.039967738
0.10509655 0.008796693 0.04807691 0.06968706 0.010194907 0.08185049 0.11907618 0.08618049
0.046507403 0.014697658 0.04507692 0.08126629 -0.073057435 0.014345816 -0.067998745 0.01704502
0.055672593 0.06832373 0.020545108 0.0393907 0.06908815 0.05537028 0.029548813 6.368314e-05
-0.07227426 -0.0647245 0.056946263 0.1361787 -0.009089837 -0.031872507 -0.07455721 -0.011838849
-0.06871353 0.02827881 0.0018980033 -0.09288389 0.026451513 -0.0119976085 -0.0722088 0.06809159
0.112279266 0.03695396 -0.045513157 -0.009569078 0.027320202 -0.0005349203 0.061337437 -0.010965536
0.017800733 -0.17596039 -0.11092977 0.021789718 0.041569244 0.06286393 -0.0349682 -0.09307941
0.0035701336 -0.013703816 0.042212114 -0.02025418 0.037545633 -0.026040986 -0.02925166 -0.023528498
0.05179969 0.108032994 0.08329644 0.052696705 0.047194716 0.08354569 0.020417055 -0.009684999
-0.039528694 -0.06257379 0.07132092 -0.10010658 -0.0014601632 -0.009255435 -0.002776009 0.009375706

predictor/fc2/b f4 [3]
00000000: 7bae bebc bb2c 7a3c 0983 1d3c
-0.023276558 0.015269454 0.009613761

predictor/conv5/W f4 [32, 32, 3, 3]
00000000: e66c 113d 17b1 c3bc 40a8 c73d 95c7 5cbd
00000010: 3bb4 453c f20a a43d a529 9ebc 820c 65bd
00000020: 1cd2 433e 7327 3fbc 4a0d 043d 238f 6e3c
00000030: 4e02 13bd a28f 82bc e159 1d3e ba78 49bb
00000040: bd3e 1fbd ab80 8dbd d81f 803b fdb2 3c3e
00000050: 90cb 863d 7a21 bcbd 4d68 983d 8616 e63d
00000060: 6c38 82bc 907f 4cbc 555d 45bd afd2 ccbc
00000070: 60b0 f5bd b90a 333d 5740 85bc f59b 03bd
00000080: 4ef3 b23d ca53 1f3d 3126 61bd ee7f 783a
00000090: a31e b2bd 1154 1a3b f647 173d 49ad c8bc
000000a0: 85d4 d9bd 1972 a13d 416e 46bd bc8e d03c
000000b0: 4865 36bd b187 bdbd 8bb0 aabd 9881 99bd
000000c0: 424a d13c 8d2c a13c 66a0 2a3d 7749 8bbd
000000d0: 356f 55bc c670 9b3d 4834 bf3d 6de2 a2bd
000000e0: 2fb5 8b3d 079e a1bc 9567 6dbc c8c9 07bc
000000f0: 19e2 a03d e2ac 7cbd 80eb 5ebb 68a1 e23c
00000100: 029e 70bd 86ae 463d 5872 8e3d b0bc 84bd
00000110: bd69 90bb aeb2 f8bc d7c9 983b 20c4 23bd
00000120: a8b6 093d 137c f5bc 2816 b0bc 3b49 123d
00000130: 37de d7bd ae20 553d 0e6f 9a3c 255d a93d
00000140: 7346 0abd 2623 293b 9c43 973d b3a0 85bb
00000150: d8fe cf3b a8b2 bf3d 0a82 dbbd a4d7 133d
00000160: a688 7a3c 45ce febc 8296 db3d def4 e8bd
00000170: d60f b73c 0147 2b3d 19e3 ebbc ffbd 0bbd
00000180: 2372 0f3d 64e0 9bbd 037a 703d c9b1 ac3c
00000190: c343 143e b606 3cbd 901c d5bc fbc5 393d
000001a0: c646 323c 7567 7c3d 5732 003d e0f4 ac3c
000001b0: 73f0 e33c 7fbb a13c d186 36bd ba4a 5bbc
000001c0: cb77 9f3d 5bb0 3e3d 0d73 00bc ec90 9cbd
000001d0: ba06 01bc b60b 12be 4335 183d 36dc a3bc
000001e0: 43c2 1637 6da5 313d 31ba b1bc 7860 683c
000001f0: 5608 09bc 4341 ebbd d112 27bd 384b 2a3d
00000200: d4d5 2cbd 66a2 993c 4601 57bd 0075 ce3b
00000210: 4a91 463d f9c7 2dbd 216e a33d c773 33bd
00000220: 836f 923d c764 683d c888 4dbd 4cd4 6d3d
00000230: 11cb bfbb 9b23 0d3c dfba 3f3c 0e32 b23b
00000240: 7298 2dbd b9a0 b43d 6f00 22bd 8c19 843d
00000250: 5258 2cbd 9f95 5e3d 8b6a 7a3c 8ac5 89bb
00000260: 8fdc e6bc 320d 073d 86b8 ddbb 21b9 2e3d
00000270: 0854 053c 5a8a 013c e005 79bc 7adf c1bd
00000280: 1ef3 c53c b4fd d7bd 9c09 d23d 778e dcbd
00000290: 1ae8 d23d f230 9b3c 7653 19be 43ee 8c3d
000002a0: 5c6d b03c 0803 233c a646 9e3d c29b 0cbd
000002b0: ee7a 09bc 245e 5f3d ff70 2bbc 13cb 9abd
000002c0: cbf8 99bd c139 37bc a5f9 d7bc fcac 5cbd
000002d0: 3f6a e63d d4ac 77bd 8444 893c bf26 d7bd
000002e0: e40c 743d 46de 813d 61df 87bc d608 55bd
000002f0: 6969 49bb 5384 103d 6e84 bf3d 7de9 68bc
00000300: 23a9 f0bb 2fb9 a3bc 9003 4d3d ea41 bf3c
00000310: ddbb d8bd 42b1 ab3c 550b e1bc a7c7 b7bd
00000320: 00ad bdbd 5668 843d 1fdb 5ebd f5bd bf3c
00000330: 03d8 1ebc 41c2 643c 1450 c9bd 6fc3 dbbd
00000340: fb8b c0bd 4767 6a3d 0351 c2bc 187b 153d
00000350: c117 003d d409 e43d f3ee 3abd fc38 48bc
00000360: cc3c 033d 8aaa 1fba 6de2 4c3d cb65 3f3d
00000370: 1db0 583d ed08 81bd 3357 b83c f6e2 a83d
00000380: c7c2 01be affc 133d 4857 65bd 567b d13d
00000390: 28c3 b8bb 0338 7abd 51e8 093d 4501 e03b
000003a0: 8bbd b3bd 9161 dc3c 6e13 8abd 2011 57bd
000003b0: d24e 8dbc 6f43 ddbc 8c7f 00bd 193a 183d
000003c0: e2ac b93c 1701 50bd 9263 a13c 0446 b23b
000003d0: ef35 abbc 75c8 d13b 8dfb 9c3d b1d1 5a3d
000003e0: f037 f13c 6187 843c 02b3 f6bc 9344 903d
000003f0: 7c52 143c 7285 35bd 6b5a 95bc 86e2 db3c
0.035504244 -0.023888154 0.09748888 -0.053901274 0.012066896 0.080099 -0.019306967 -0.05592013
0.19123119 -0.01166712 0.032239236 0.014560494 -0.03589087 -0.01593763 0.15366317 -0.0030742125
-0.03887819 -0.06909307 0.003910046 0.18427654 0.06581795 -0.09186073 0.07441769 0.11234765
-0.015896045 -0.012481585 -0.04818471 -0.025002806 -0.119965315 0.043711398 -0.016266031 -0.032131154
0.08737813 0.038898267 -0.054968063 0.0009479512 -0.0869725 0.0023548643 0.03693386 -0.024496691
-0.10636238 0.078830905 -0.04844499 0.025458686 -0.044530183 -0.09254397 -0.08334454 -0.07495421
0.025548104 0.019674564 0.041656874 -0.06801122 -0.013027002 0.07589869 0.09336144 -0.079533435
0.068216674 -0.019728674 -0.014490028 -0.0082878545 0.07855625 -0.06168831 -0.003401488 0.027664855
-0.058744438 0.048506282 0.06955403 -0.06481302 -0.0044071362 -0.030358639 0.004662733 -0.03998196
0.03362146 -0.02996639 -0.02149494 0.03571437 -0.10540431 0.05203312 0.018851783 0.08269719
-0.03375859 0.0025808304 0.07385942 -0.0040779947 0.0063475184 0.09360248 -0.10718162 0.036094323
0.015291369 -0.031104216 0.107220665 -0.1137483 0.022346418 0.04181576 -0.028794812 -0.03411674
0.03502096 -0.076111585 0.05871011 0.021080868 0.14478974 -0.045904838 -0.026014596 0.045354825
0.0108811315 0.0616221 0.031298008 0.02111286 0.027824616 0.019742725 -0.044562165 -0.013384515
0.077865206 0.046554904 -0.00783993 -0.07644829 -0.007875139 -0.1426228 0.03716017 -0.020002466
8.985927e-06 0.043370653 -0.021695228 0.014183156 -0.008363804 -0.11487057 -0.04078943 0.04157564
-0.04219611 0.018754195 -0.05249145 0.0063005686 0.048478402 -0.042427037 0.0797999 -0.043811586
0.071501754 0.056736734 -0.050179273 0.05806379 -0.005853065 0.008614446 0.011702268 0.005438096
-0.04238171 0.08819718 -0.039551195 0.06450185 -0.042076416 0.05434191 0.015284191 -0.0042044567
-0.028181342 0.03297157 -0.0067663817 0.04265702 0.00813771 0.007906521 -0.015199155 -0.09466453
0.024163779 -0.10546437 0.10255739 -0.107693605 0.10298176 0.018944237 -0.14973244 0.06881382
0.021536522 0.009949453 0.07728319 -0.03432823 -0.008391125 0.05453314 -0.010463952 -0.075582646
-0.075181566 -0.011183203 -0.026364157 -0.05387591 0.112507336 -0.060467556 0.016756304 -0.10505437
0.059582606 0.063412234 -0.016586008 -0.05201038 -0.0030732995 0.035282444 0.09351431 -0.014215824
-0.0073443814 -0.019985763 0.050052226 0.02334686 -0.10582707 0.020958547 -0.027471224 -0.089736275
-0.09261513 0.06465213 -0.05440819 0.023406008 -0.009695056 0.013962329 -0.09829727 -0.107306354
-0.09401699 0.0572274 -0.02372027 0.036494344 0.031272653 0.11134687 -0.045638036 -0.012220617
0.032040402 -0.0006090781 0.050020624 0.046727937 0.05290233 -0.063005306 0.022502517 0.08246414
-0.12671958 0.03612965 -0.05599144 0.102286026 -0.005638499 -0.061088573 0.03366882 0.006836089
-0.08776387 0.026901992 -0.06741987 -0.052506566 -0.017249499 -0.027009694 -0.03137164 0.03716478
0.022665445 -0.05078229 0.0197008 0.0054404754 -0.020899741 0.00640207 0.07665167 0.053422634
0.029445618 0.016177835 -0.030114654 0.070443295 0.009052869 -0.044316716 -0.018231591 0.026841413

predictor/conv5/b f4 [32]
00000000: 0000 0000 0f69 a9bb 14f7 99b9 0000 0000
00000010: 4fb0 afbb c151 213c 40d5 9dbb 338d 213d
00000020: 4f53 71bc 032b b23b d535 083d 09c1 b53c
00000030: 0000 0000 9fe7 ad3c ea46 d338 0000 0000
00000040: 7b7d b7bb 4258 623c 79ae 02bc f632 40bc
00000050: ab6a 633a 5415 e63c 16e3 363a e1d1 c43b
00000060: 8861 0bbc 2653 903c b036 c3b8 cfcf ce3c
00000070: c859 e8b9 0325 333b 0bec 0a3d c953 073d
0.0 -0.0051699947 -0.00029366522 0.0 -0.005361594 0.009846152 -0.004816681 0.0394413
-0.014729335 0.0054372563 0.033254463 0.022186773 0.0 0.02122861 0.00010074473 0.0
-0.0055996752 0.013814988 -0.007976168 -0.0117309 0.00086752576 0.028086342 0.00069765875 0.006006465
-0.00850714 0.017617773 -9.308511e-05 0.025245575 -0.0004431738 0.0027335293 0.033916514 0.033038888

predictor/conv2/W f4 [32, 32, 3, 3]
00000000: add6 1abd 729d 103d 06a8 18bd c853 773c
00000010: 5fa3 2cbb 30b8 023d 0203 a3bd 7ad0 99bd
00000020: ebbf e0bc dc5a 0b3c 71fb bdbc 061e 233d
00000030: 9292 02be f800 cdbb ba58 7f3d 8a53 b33d
00000040: 021b bdbc 5644 d83c 19f6 0dbe 08a7 88bc
00000050: 6bec e2bc 1001 113d 9542 4dbd 0841 babc
00000060: a6b2 313c 906a 873d 07c3 22bd 3a89 f33c
00000070: 78fb f6bd c4fa 6e3d 31dc 6dbd e896 4f3d
00000080: 4d40 9c3d 1f98 b13b 15fa 363e eadf 9b3d
00000090: a81e 40bd 32b2 973b 43ba e83d 240e 9fbd
000000a0: 1cdf 5ebd f446 3c3d 85a0 70bd d98a 95bd
000000b0: 41fb 2f3c 3111 923c 8fff e4bd c912 acba
000000c0: 3e08 8bbc b593 a9bd ae95 043e e093 a03d
000000d0: 191b 16bb 78b1 313d 6681 0cbe 6d2a 9fbd
000000e0: 4b60 b0bc 6db8 223c 051f 87bd 366a f83d
000000f0: 110f 8dbc b522 a6bb ba68 45bd 4e07 a23d
00000100: b353 9c3c f3ec a2bd 11f6 403d f645 9e3d
00000110: b05a 863d 4daa 8fbd ac19 783c 218b aa3c
00000120: fde5 49bc 1883 02be 7508 dd39 5563 d8bd
00000130: 3867 7fbd 3470 893d 71f6 91bd 90fb 723d
00000140: 0d2c 68bc 5840 32bd 395e 90bd 3ede 1abc
00000150: 2b88 1a3d 6f66 233d 06c4 27bd b91f 87bc
00000160: 9816 823d 37a0 203e 40d3 50bd 48b9 72bb
00000170: d485 7c3c 7b03 0cbe 9b2f b4bd f70a 073a
00000180: b13e d8bc fb2e 6bbd f866 b33c f79b fa3d
00000190: cb4a 9b3b 8654 643d 036e a33b 83d5 fdbd
000001a0: 9b26 e03d 3a48 12be 9db9 b43c 25e3 363d
000001b0: 0529 303d a0da be3d d614 413d c280 e5bc
000001c0: 2001 b23c d665 e23d 8f66 003e 9db9 783d
000001d0: 5cab 183d 1cc8 093d 9e72 b53c 9a84 a93d
000001e0: 2267 0dbe f544 c03d 950c 4c3d af30 023d
000001f0: f378 9dbd eff4 ff3c 5daf 67bd 6fc5 e63d
00000200: 1798 a9bd 297a 2b3d 0abc f83c 69f2 f63c
00000210: b7b4 513d e0b8 7e3d 0f17 83bc aeab 25bc
00000220: 4b00 a93b 51aa bbbd 012d 96bd 9629 ab3c
00000230: 0e89 19bd fe6c 04be 8c9e 0f3b 09d1 64bd
00000240: ac67 013e 74ad 773d 4097 a33d 7bd1 283d
00000250: 7e6c ad3d 2ac0 efbd 44ce 093d 40bb 603d
00000260: dd69 f63d 1a9e a03c b3a3 c6bc 02e1 ec3c
00000270: cf6d e03d 1077 b73d 74fb c03d 41ef 433d
00000280: 1123 cb3c e916 d9bd 2510 5c3d 412a 123b
00000290: b100 f33c ce1c 62bd e1b2 053e 1dcb c83d
000002a0: 52a2 803d a9c6 663c 6701 50bc 84a4 b13a
000002b0: 1def 93bd fcd7 80bc bb1a cd3d 62c4 f73d
000002c0: 491e f53b e24d 023d 0ebf feba 5b13 dc3c
000002d0: 8203 9c3c 7163 c0bd da47 02bd 78e8 983b
000002e0: 637e 883b 01f1 4c3c fc01 043c 86a6 98bd
000002f0: f41a 623d 1cb9 933d 9ab4 0e3c 10b9 543d
00000300: bfbc e13d 1fba 1b3e 5401 113d 1510 dbbb
00000310: 14d7 05bd 0128 9f3d e4be 8fbd 58c6 fbbc
00000320: 8020 b03c 3d5c b7bd 2022 f4bb 9d78 aabd
00000330: e74e 3c3c 1063 eebb 5f5a 87bc dc42 a23d
00000340: 5ab1 ed3c b200 b9bd 9495 6a3d e9fe afbd
00000350: 0ed9 5bbd 710b 173e 04ee 423e 89ec 283d
00000360: a59d 163c 6248 983c 5b1e f73c 5302 f03c
00000370: ca31 7b3c 1e6d 97bc 1c23 cb3c 8840 933c
00000380: 2f54 f2bc 74bc 813d b9f2 d1bd e488 c9bd
00000390: 4568 e53d 56d9 b23d aae6 d8bd 5ce1 c1bc
000003a0: fb69 9bbd c3dc c43b 0618 a23d 9560 d5bd
000003b0: d062 83bd 83c2 1e3d 8cd3 5d3d e155 0e3d
000003c0: f1ef 51bc 6e50 d0bd d80e 303d 210c 5a3d
000003d0: 0bab 803d e981 85bd 6ebb 563d 1487 b2bd
000003e0: e498 c43c 2899 80bd a55d 743c f565 ecbc
000003f0: 0df7 fcbb b9b6 9a3d ae60 743c 3537 f73c
-0.037802387 0.0353064 -0.037269615 0.015095659 -0.0026342494 0.031913936 -0.07959558 -0.07510467
-0.027435264 0.008505549 -0.023191186 0.039823554 -0.12751225 -0.006256219 0.062340476 0.08756168
-0.023084167 0.026399773 -0.1386341 -0.01668121 -0.027700623 0.035401404 -0.050112326 -0.022736087
0.010845816 0.06612122 -0.039736774 0.02972852 -0.120596826 0.058344617 -0.05807132 0.050681025
0.07629452 0.0054197456 0.17868836 0.076110676 -0.046904236 0.004629397 0.113636516 -0.07766369
-0.054411992 0.045966104 -0.058746833 -0.07301874 0.010741056 0.017830463 -0.111815564 -0.0013128157
-0.016971704 -0.08280126 0.12947723 0.07840705 -0.0022904335 0.043382138 -0.13721237 -0.07771764
-0.021530291 0.009931666 -0.065977134 0.12129633 -0.017219098 -0.0050700554 -0.04819558 0.079115495
0.01908288 -0.07955351 0.047109667 0.07728188 0.06560266 -0.07014904 0.015142839 0.020818295
-0.0123229 -0.12745321 0.00042158706 -0.10565821 -0.062354296 0.06710854 -0.07127083 0.05932194
-0.014170659 -0.043518394 -0.070492215 -0.009452401 0.037727516 0.03989261 -0.040958427 -0.016494619
0.06351966 0.15686117 -0.050982714 -0.0037036706 0.0154127665 -0.13673203 -0.087981425 0.0005151475
-0.026397081 -0.05741785 0.021899685 0.12236779 0.0047391406 0.05574467 0.0049874797 -0.1239424
0.109448634 -0.14285365 0.022061164 0.044650216 0.04300787 0.09319043 0.04713901 -0.028015498
0.021729052 0.1105458 0.12539123 0.06072389 0.037272796 0.033638105 0.02214938 0.08277245
-0.13808873 0.093881525 0.049816687 0.03178471 -0.07689085 0.031244723 -0.056563724 0.11268126
-0.08280962 0.041864548 0.030363102 0.030144887 0.051197734 0.06218803 -0.016002206 -0.010111732
0.0051575056 -0.09163345 -0.073328026 0.020893853 -0.03748422 -0.12932202 0.002191457 -0.055863414
0.12637204 0.060468152 0.07987833 0.0412154 0.08467959 -0.11706574 0.033643976 0.054866076
0.120319106 0.019606639 -0.02424798 0.028915886 0.10958444 0.08958256 0.09422961 0.047835592
0.024796994 -0.10600073 0.053726334 0.0022303017 0.029663416 -0.05520325 0.13056518 0.09804366
0.0628096 0.01408545 -0.012695647 0.0013553058 -0.072233416 -0.01572799 0.10014864 0.12098004
0.007480417 0.031812556 -0.0019435601 0.026864698 0.019044641 -0.09393967 -0.031806804 0.0046663843
0.004165457 0.012508632 0.008057114 -0.07453637 0.055201486 0.07213041 0.008710051 0.0519343
0.110223286 0.15207718 0.035401657 -0.0066852667 -0.032675818 0.07771302 -0.07018831 -0.030734226
0.021499872 -0.0895314 -0.007450357 -0.083237864 0.011493421 -0.0072749928 -0.016522584 0.07922909
0.029015232 -0.09033336 0.057271555 -0.08593542 -0.053673796 0.14750458 0.19036108 0.041241203
0.009192859 0.018589202 0.030165842 0.029297983 0.015331695 -0.018484648 0.024797015 0.017975107
-0.029581157 0.06334773 -0.10251374 -0.09840563 0.112015285 0.0873286 -0.10590871 -0.02366703
-0.075885735 0.006007762 0.07914738 -0.10418812 -0.06415331 0.03875972 0.054156825 0.03474987
-0.012813554 -0.10171591 0.042982906 0.053234223 0.06282624 -0.06518919 0.05242484 -0.0871717
0.023998685 -0.06279212 0.014914905 -0.02885721 -0.0077198804 0.07554383 0.014915628 0.030177692

predictor/conv2/b f4 [32]
00000000: 5732 ea3c 78c5 dd3c 791d 2a3c 70a5 a9bb
00000010: b253 14bb ebca 1d3d 49a5 efba 4f3b 34bc
00000020: 52da 6dbb af8e 003d b012 76ba c08c f73c
00000030: 9843 c23b 92d9 2e3c c6bc c23c 4976 4e3c
00000040: 55be c63c 36d7 053d b40d 043d f9a9 60bc
00000050: ff1f ee3c 3d43 0fba 49b8 d53c e047 db3b
00000060: 74d2 a63c 3ad3 5cbc 39d1 003d 3993 173d
00000070: 63f7 803c 2515 1abc 3af7 97bb 7f1c 70bc
0.028588457 0.0270717 0.010383003 -0.0051771924 -0.0022632894 0.038523596 -0.0018283512 -0.011000468
-0.003629346 0.031386074 -0.000938694 0.030218482 0.005928468 0.01067199 0.023771655 0.012601444
0.02426068 0.032675944 0.03223963 -0.0137124 0.029067991 -0.00054650364 0.02608885 0.006691918
0.020364024 -0.013478095 0.03144953 0.037005637 0.015742963 -0.009404455 -0.004637626 -0.0146552315

predictor/fc1/W f4 [512, 32]
00000000: 3d63 b0bb 889b 19be a4d0 303e 06df 3f3e
00000010: d984 113e 82ff 8d3b 3d97 a63e 4174 ef3d
00000020: a850 a53e b5f7 0a3e 9b81 21be 29d9 f43d
00000030: 52f7 91be 5534 7a3e 91e2 c53b 1acf 4e3e
00000040: ae50 b6bc fe5e 3bbd 1466 e9bd b9d0 313e
00000050: 70ad 303c fe78 91bd c80a 4cbe b8f0 35bd
00000060: 8c37 2a3e d3ec 2b3d 23fa fcbd 7a3c 41bd
00000070: fc04 373e 4e94 b2bd e208 a8be a295 dc3d
00000080: c810 073d 650f a43c 3151 363e 30a7 81be
00000090: bf5e aa3d d9dc 36be bb29 143c 8ae2 313d
000000a0: 3dda cbbd 4bc7 8d3e 79ec f3be 7024 9fbe
000000b0: 4b3f 2c3e b799 2b3d a1bb 45be 035f afbc
000000c0: 8ccf b1ba 0951 3e3e 5903 0cbe 7a47 f5bd
000000d0: 126d 4c3d a178 eabc 5ed5 4ebd 15d0 9c3e
000000e0: 2e54 c93e 7e36 43be a4f8 053e 1cde 99bd
000000f0: a832 aabd 5b7d 99be 710b a83d fd27 833e
00000100: 9b66 41bd c8d0 86bd 8934 6b3e 53b0 ba3e
00000110: 4365 053e c22f 743e deb6 803e f9ba 9bbe
00000120: 0b80 95be 531b 1e3d 2718 32be 1a41 24be
00000130: d98e e2bd eb34 96bc 9f33 ec3d 6bf9 423e
00000140: 3f51 083f 94da 9e3c 73c0 3ebe baa8 1dbd
00000150: c22f 12bd c621 4c3d 58ea 50be d5ca 093e
00000160: 62ab d03e b08f 4bbe c650 19be 0a61 693c
00000170: 1e3c e83d fbc0 ea3e 8949 19bf e262 803d
00000180: 4ed9 89bd ac7f 073e d977 7c3d 4ad0 66bd
00000190: ce41 a03e 623a 8e3c 5db1 b23d e45e 78bd
000001a0: f5ad 603e 3e92 1c3d b51c 9abe a875 9a3e
000001b0: 63be d6bd e71b bb3d f4cf 973c adb8 2cbe
000001c0: c604 003d 412d af3d e175 d1bd 3527 18bd
000001d0: 6ab4 2d3e 6fab c0bd 33b4 063e 0b8a 00bc
000001e0: 155e ae3e e71b 2dbe 6f7f 4dbe 2af7 653e
000001f0: fbc5 b6be e045 8cbe 045f 893a 9921 e1bd
00000200: cb58 13be c5e7 133e 445f a13e 3777 7fbe
00000210: ba98 24bd 7f24 9abd c3ad 60be 0913 733e
00000220: d38f 3fbe a1ce e6be 9e7f 3f3d c4f5 a23d
00000230: 7060 233e 00a3 4cbd ff73 bd3d c856 7d3e
00000240: fa22 b43d a5a1 9c3d 4edf aabe 0c96 ef3d
00000250: 2ec7 a6bd 8e4e 4dbe 3b3d 50be 9ad5 753e
00000260: 072f a1be 71d6 95be 4738 97bd fcbb 9fbe
00000270: 83f7 f03d 66b7 603d 77a7 933e 5c19 e6bc
00000280: fb45 9a3e 4dd2 68be 81f7 9b3e 33ac 4c3e
00000290: a098 89be d66d 72be 7d2e b83e 8f97 ac3d
000002a0: 16d3 a63d 33c3 b13c e868 c73e 5b9f 7cbc
000002b0: ead1 373e fd18 b0ba 3230 89bd d00c fa3d
000002c0: 482c 3d3e a398 99be 682c 21bc 3544 9c3e
000002d0: 4e3e 953e 9750 673e 9184 3fbd 4d5d 1e3e
000002e0: da4b c7bd f27e d4bd 5771 943e 16e2 dcbe
000002f0: a883 0b3d 06c3 cebe a22d 39bc 9a19 ae3d
00000300: 5603 21be 6e54 183e 9337 8abd aee3 313e
00000310: 85b4 04bd 0911 85be 8166 1cbe 9de4 073e
00000320: 1da1 693e 1c16 8e3d a43e 30be d492 773e
00000330: 9632 7fbd 304e a8bd 4475 1e3e 3f56 583e
00000340: cd32 b93d f4f5 6fbe 38c5 f0bd b6c5 d4bd
00000350: 2542 f8be 2a8a efbc e40a e53c 98fd 1cbe
00000360: 48f1 c33d cbd5 3c3e c75b 9c3e 2319 f0bd
00000370: 835c d53e dedc ff3d ca7f 5f3d 59ff 84bd
00000380: d916 86be 112f 233e c9a0 593d f832 d9bd
00000390: 14c9 b5bd 0967 453c 8e5c 24bd 52ee 39bc
000003a0: c216 973e 0dad fabb cfca 853c fa49 283d
000003b0: 7e0d 7bbe 4dee bbbd 54b5 253c 3233 d9bd
000003c0: bcc6 adbe 0821 25bc c5b5 48be 41f0 80be
000003d0: e96f a6bc e980 83be 0cc0 5d3e 8c76 78bd
000003e0: fe2b 74be 4b20 a63d 28a4 4b3d 678d 96bd
000003f0: 5660 97be d265 a43d 77e9 3d3d 7e5f afbe
-0.005382924 -0.15000737 0.1726709 0.1873742 0.14210834 0.0043334374 0.3253726 0.116920955
0.32288098 0.13571055 -0.15772097 0.119554825 -0.28509003 0.24434026 0.0060389717 0.2019619
-0.022255268 -0.04574489 -0.11396423 0.17364778 0.010783538 -0.071031556 -0.19925988 -0.04441902
0.16622752 0.0419739 -0.12352397 -0.047176816 0.17872995 -0.08719693 -0.32819277 0.10770728
0.03297499 0.020026872 0.1780441 -0.25322866 0.08318853 -0.17857684 0.009043152 0.043428935
-0.09953735 0.2769111 -0.47641352 -0.31082487 0.1682102 0.04189464 -0.19309856 -0.02140761
-0.0013565882 0.185856 -0.13673152 -0.11976524 0.049908705 -0.028621973 -0.05049645 0.30627504
0.39322037 -0.19063756 0.1308313 -0.07513067 -0.08310443 -0.2997845 0.08205307 0.25616446
-0.047216993 -0.065827906 0.2296926 0.3646265 0.1302691 0.23846343 0.25139517 -0.30416086
-0.29199252 0.038600277 -0.17392026 -0.1604046 -0.11062402 -0.01833578 0.115332834 0.19040458
0.5324897 0.019391336 -0.18628101 -0.03849099 -0.035690077 0.049836896 -0.20401895 0.1345628
0.40755755 -0.19879031 -0.14972219 0.014244327 0.113395914 0.45850357 -0.5987783 0.062688604
-0.06730901 0.13232297 0.061637733 -0.056350984 0.31300205 0.017361823 0.087252356 -0.06063737
0.2194136 0.038225405 -0.30100027 0.3016789 -0.10485532 0.09136181 0.018531777 -0.16867323
0.031254552 0.085535534 -0.10227562 -0.037146766 0.16963354 -0.09407698 0.13154678 -0.007845412
0.34056154 -0.16905175 -0.20068143 0.22457567 -0.35697922 -0.2739706 0.0010480587 -0.10992736
-0.1438934 0.14443882 0.31517994 -0.2494782 -0.040184714 -0.07526492 -0.21941285 0.2373773
-0.18707208 -0.4507952 0.046752565 0.07957032 0.15954757 -0.049960136 0.0925064 0.24740136
0.08795734 0.07648019 -0.33373493 0.11698541 -0.08143459 -0.20049497 -0.20335858 0.24007264
-0.31481192 -0.29265168 -0.07383781 -0.31198108 0.11765959 0.054862402 0.28838703 -0.028088264
0.30131516 -0.22736473 0.30462268 0.19987564 -0.26874256 -0.23674712 0.35972968 0.08427345
0.0814573 0.021699524 0.38947225 -0.015418853 0.1795117 -0.0013435181 -0.06698646 0.12209475
0.18473923 -0.29999265 -0.009837247 0.30520788 0.29149097 0.22589336 -0.046757285 0.15465279
-0.097312644 -0.103757754 0.2899272 -0.4314124 0.034061104 -0.40383166 -0.011302384 0.08500977
-0.15723929 0.14875957 -0.06748881 0.17372009 -0.03239872 -0.2598956 -0.15273477 0.13270803
0.22815366 0.06937811 -0.17211396 0.24177104 -0.062304102 -0.08218038 0.15474421 0.2112665
0.090428926 -0.23433667 -0.117563665 -0.10389273 -0.48487964 -0.029240686 0.027959295 -0.15331113
0.09567505 0.1844093 0.3053877 -0.117235444 0.41672143 0.12493299 0.05456523 -0.06494016
-0.26189306 0.15935923 0.053131852 -0.10605425 -0.08876243 0.012048491 -0.04012733 -0.011348324
0.2950955 -0.007650024 0.016332058 0.041086175 -0.24516866 -0.09176312 0.010114033 -0.10605468
-0.33940685 -0.010078676 -0.1960059 -0.251833 -0.020317035 -0.25684288 0.21655291 -0.06065993
-0.23844907 0.08111628 0.0497171 -0.07351189 -0.29565686 0.08027233 0.046365228 -0.34252542

predictor/fc1/b f4 [512]
00000000: bd56 693c 0000 0000 6d3e e23c 0186 abbc
00000010: 7f88 543c 3b76 f43c 3806 c13a a70b bbba
00000020: 71b2 6abb 7f8b d6bc 1456 7a3c 6257 46bc
00000030: 8ef6 983c bd00 ac3b 17dd 70bc 0000 0000
00000040: b796 283c 72de 163d 5bcd 88bb 3867 3abc
00000050: 19b5 1fbc 0000 0000 37a7 e13a 8912 cdbc
00000060: 6480 39bc ed5b 853b 482f 943c 4ede 61bc
00000070: 3bc7 ad3b 7e03 a2bb 0000 0000 a671 01b9
00000080: 0000 0000 711b 30bc 3f10 d83c fc10 2abb
00000090: 9061 84bc 0000 0000 0819 86bb ea4f 47bc
000000a0: 49ea edba 0000 0000 400c f73c 6c00 8cbc
000000b0: fa6f debb 05b5 ce3c a2d7 6e3c 271c 97bb
000000c0: 0000 0000 8c72 963c 0000 0000 7d3e 6038
000000d0: 99dd 233d a213 c2b8 1903 78bc 9c4e b13c
000000e0: 0000 0000 90ae c6bc 0000 0000 7ee5 51b9
000000f0: 6b09 943b 0343 483c dd14 4a3c f715 75bc
00000100: bd21 82bc 2fd3 8b3b 9691 22bc 2e4a 943b
00000110: 0083 873c a766 31bc 62ed a73a 9f0c d33b
00000120: 5890 28bb 06c7 5f3a e2a8 ffbb ff9a 4cbc
00000130: 0000 0000 f0d5 db3c 1c23 b53b a2d6 c33c
00000140: dd10 86bc 0ed6 96bc 0000 0000 0db7 0c3d
00000150: b490 50bb 5769 3dbb 716d df3c 0b58 bd3c
00000160: a5fd 69bb 8e9f c1bc 52d3 6bbc 0000 0000
00000170: cd23 66bc 5efb 443c e2d8 99bc 9fa3 e0b9
00000180: 0000 0000 86f3 c3bb b9cd ba3c 4bb3 6fbc
00000190: da60 89ba 7deb 1d3b b499 a339 3a8e 57bc
000001a0: 0278 49ba 5ba7 e93b 29b3 b83b 2600 963c
000001b0: 27fe c739 39f7 25bc 4378 b7bc 069b f73b
000001c0: 0000 0000 6a7e cc3a 4f01 ff3c 2980 a63c
000001d0: 7dbf 303c e37d 4d3c 1515 313c e658 2d3c
000001e0: 0000 0000 48f1 95bc 9f00 a3bb 0000 0000
000001f0: db7c c23a 4db4 a0b8 89eb bdbc 1769 793b
00000200: 8729 883b 4ecb 8dbc 3d69 b63b 3497 0dbb
00000210: 2c03 e03b a449 9cbc 0320 d9ba 9361 213c
00000220: 6f51 0e3d 7f5e fabb 9670 f6bb d209 563c
00000230: c509 a93b ae57 3a3c ab16 b4bc 3a31 683a
00000240: a2a9 3c3c 00c6 993c 580a ccbb c94d dbbc
00000250: 9020 3c3c d096 af3c c247 ef3b 4dca acbb
00000260: 8e39 943c e2e1 cd3c 9890 43bc 3c4d 98bc
00000270: df12 99bc 5b3a 9c3b 7cc7 cd3c 83e9 93bc
00000280: 98df a93b cb6d 903b ceba b2bc 2e8e 113d
00000290: 4a22 b63c d86d 8fb9 21c5 4aba 876f 853c
000002a0: 0c9a c33c 18b2 353c 9724 81bc 83e3 88bc
000002b0: e4c4 d53c 0000 0000 744e 1b3b 0459 5b3c
000002c0: 5365 bb3b a615 c7bc d943 dcbb 7c9c ba3b
000002d0: a9aa b1bc c0b8 d83b 0000 0000 1397 c2bc
000002e0: 2437 d63c 477c 64b9 6c42 98bc 0000 0000
000002f0: 002f 0d3d 5cc2 36bc 9f97 e23c fb35 89bc
00000300: cb78 c0bc 220a 0a3d b00a 1c3d 70cc 5fbc
00000310: 0000 0000 fb8b 08ba ab1a 943c 9366 95b9
00000320: 0000 0000 ab76 093d e17d a5bc d318 04bd
00000330: accc e13c ace6 873c 4be0 ad3c 0000 0000
00000340: ecf8 023d 3628 28ba 0bf7 e7ba 226a f03c
00000350: cc67 733c 04a2 bb3c 0000 0000 e624 b53b
00000360: 2939 4f3c 3c51 303c 0000 0000 916b 7a38
00000370: 37e3 22bc 0000 0000 7b3a a4bb 0b3a db3c
00000380: c433 d4bb 517d 093d 98dd bd3c 6f57 d33b
00000390: 2062 523c 56fd a33b 56ba 9d3a 9f76 023d
000003a0: a937 92bc 0000 0000 c1b8 4cbb a88c a33b
000003b0: 4f83 92bc c1b8 d43b b953 583c 82f7 053d
000003c0: 9c18 aebc 7e5c cfbc dd52 133a e46d 263b
000003d0: b73e 32bc d052 513c 84ad fa3b 7455 a6b9
000003e0: 032c 91bb 74b4 623c 1a6c 4dbb deb4 073d
000003f0: de32 cc3c ff72 4c3b 0000 0000 c055 9abb
0.014241871 0.0 0.027617658 -0.020937921 0.012971996 0.029841533 0.0014726585 -0.001427044
-0.0035811926 -0.026189564 0.015279312 -0.012105795 0.018672254 0.0052491114 -0.014701149 0.0
0.0102898395 0.036833234 -0.004174871 -0.011377148 -0.009747767 0.0 0.0017215972 -0.025033252
-0.011322115 0.0040697963 0.018088952 -0.013785912 0.005303291 -0.004944264 0.0 -0.00012344736
0.0 -0.01074873 0.026374934 -0.0025950065 -0.016159803 0.0 -0.0040923394 -0.012165049
-0.0018151487 0.0 0.030157208 -0.017090045 -0.006788251 0.025232801 0.014577778 -0.0046115103
0.0 0.018365167 0.0 5.346396e-05 0.040006254 -9.254298e-05 -0.015137457 0.02164393
0.0 -0.02425316 0.0 -0.00020017286 0.0045177243 0.012223008 0.012334076 -0.01495885
-0.015885228 0.0042671184 -0.009922406 0.0045254445 0.016541958 -0.010827697 0.0012811834 0.0064407135
-0.0025720801 0.00085364317 -0.007802115 -0.012488126 0.0 0.026835412 0.005527867 0.023906056
-0.016365463 -0.018412616 0.0 0.03435426 -0.003182453 -0.0028901899 0.027273865 0.023113271
-0.0035704162 -0.023635652 -0.014393644 0.0 -0.0140466215 0.012022821 -0.018780176 -0.00042846517
0.0 -0.005979958 0.022803174 -0.014630149 -0.0010481135 0.002409666 0.000312043 -0.013156468
-0.0007685424 0.007130546 0.005636592 0.018310618 0.00038145596 -0.010129743 -0.022396212 0.007556322
0.0 0.0015601639 0.031128554 0.020324783 0.010787842 0.012542221 0.010808249 0.010580277
0.0 -0.018303528 -0.0049744393 0.0 0.0014838235 -7.662978e-05 -0.023183601 0.0038057023
0.004155341 -0.017308857 0.0055667446 -0.0021605017 0.0068363156 -0.019078083 -0.0016565326 0.009849924
0.03474563 -0.0076406593 -0.0075207455 0.013063865 0.0051586353 0.0113734435 -0.021983465 0.0008857433
0.011515053 0.018771172 -0.006226819 -0.02677049 0.011482373 0.021434218 0.0073022554 -0.0052731396
0.01809385 0.025132123 -0.011936329 -0.018591516 -0.018685756 0.0047676987 0.025119536 -0.018055683
0.005184125 0.0044076196 -0.021817591 0.035535984 0.022233147 -0.00027356925 -0.0007735063 0.016288532
0.023877166 0.011089824 -0.015764518 -0.016710049 0.026094861 0.0 0.0023697885 0.013387922
0.005718866 -0.024302315 -0.0067219553 0.005694924 -0.021687822 0.006613821 0.0 -0.023753678
0.02614934 -0.00021790071 -0.01858636 0.0 0.03446865 -0.011154737 0.02766019 -0.016749373
-0.023495099 0.03370107 0.03809613 -0.013659582 0.0 -0.0005208847 0.018079123 -0.00028495918
0.0 0.033560436 -0.020201625 -0.032250237 0.027563415 0.016589485 0.021225115 0.0
0.03197567 -0.00064146833 -0.0017697526 0.029347483 0.01485629 0.022904404 0.0 0.0055280803
0.012647905 0.010761555 0.0 5.9704824e-05 -0.009941868 0.0 -0.005011854 0.026761075
-0.0064758975 0.033566777 0.023176953 0.006449632 0.012840778 0.005004565 0.0012033682 0.031851407
-0.017848806 0.0 -0.0031238052 0.0049911328 -0.017884878 0.006491751 0.013203555 0.032706745
-0.021251969 -0.025312658 0.00056199526 0.002539509 -0.01087921 0.012776092 0.007650079 -0.00031725655
-0.0044302954 0.013836969 -0.003134495 0.033131473 0.0249266 0.0031196473 0.0 -0.004709929

predictor/conv6/W f4 [32, 32, 3, 3]
00000000: cb45 8cbd abad e6bc 5a32 593b c8a9 54bd
00000010: 33eb 9cba 1da2 173c 93af 303d e07a 963c
00000020: 1718 293d 55c6 b1bd 388d 553d 2af4 5bbb
00000030: cfbe 6e3c 6fe8 1ebd dda3 eb3b 4d51 60bd
00000040: 23fa 883b 7754 113d c922 1c3d 752c da3d
00000050: baaa 24bd 3dbd 5dbd b9d1 c63a 309e e0bd
00000060: cb38 4dbd bb23 803d e87e 1fbd 2eee a8bc
00000070: 63f9 623c 5547 3bbd fc4c 8c3b f0fd 963d
00000080: 7e04 adbd b770 57bd fdaa 743d e616 ac3d
00000090: 1a33 dc3c f9c7 f9bd 599c df3c f2ae 6bbd
000000a0: 896e 1f3d 5270 03bd 14ed 8f3d 1287 bbbd
000000b0: f0b7 5bbd 5c96 5abd 63e8 ad3c 488c e7bc
000000c0: bcd8 adbd 9e23 97bc ba82 9fbd 5f24 883d
000000d0: 4660 0a3e 548c b03d c26b 9a3d 9a06 9b3d
000000e0: a4bd febd fe49 a83d c8af d23d e684 83bd
000000f0: 3501 c43c a1e4 103d 5577 38bc d1fc 913c
00000100: cc4c 183a f93b 17bd 9544 b4bc d863 dfbd
00000110: 7fdd c03d c9de 4cbd 1664 6ebc f6e0 203d
00000120: 118d 263d 5e28 41bd 0e59 783d e2c9 723d
00000130: 3ce6 e9bd f8b5 09bd 90ab a73c e6a2 103d
00000140: 8e46 22bd f372 7e3d 8abe 8b3c a3e2 2b3d
00000150: e02d 543d 323a c33d a524 be39 5bfc 243a
00000160: fb1c 58bd b24a f83c 2877 0e3e fe1a b7bd
00000170: a36e a03c 4fe7 6dbb 1407 abbc 1dfd 86bd
00000180: d49a 44bd 26cb 963c 4315 be3c 054b 483d
00000190: 13c6 8bbd bc70 923d 6a37 0d3e 8b33 59b9
000001a0: db21 dabc 7b9f 923d 0f9d d33c 4dd8 02bd
000001b0: 63a6 33bd a391 c9bd 9a23 373c 8f5d eb3c
000001c0: 4f10 92bd 6191 5b3d 7e9e a6bd 0e9b 44bd
000001d0: 0ced e03c 4b4e d7bd 2111 a63d bf81 51bd
000001e0: 311b d6bc 2714 ce3c 4360 b83c b245 83bb
000001f0: 6b16 0e3b f659 86bd 005c e2ba 75ba 77bd
00000200: 9a20 d4bc 73d3 ecbc 4b61 bb3d 57fa 3ebc
00000210: 36b1 593c 071d b73d 4891 d1bd 73d1 0f3d
00000220: cc7d 15bd cbe9 ebbd 97c0 d53c ce50 c93c
00000230: bee4 7dbd 0f52 bcbd d8f8 bf3d 97f9 44bc
00000240: 2add 9e3c e13b 04bd 500a 493d b688 6f3c
00000250: 038e 0abd 8dde 003b 5666 6bbd 277b 243e
00000260: dec0 253d 7b3d b4bc 8e67 7ebd ac6b d53b
00000270: ac4d 5cbd 7dc6 a43c 4ee0 a93c ab69 0fbd
00000280: 1639 9abd efd1 aa3d 476a d738 7842 60bd
00000290: 1c6b 6cbd 45e5 7c3d 8bb2 ce3d fac4 acbc
000002a0: a297 7fbd c4cc 56bd c7d2 a23d 90a0 c9bd
000002b0: f9bc 63bc 8b05 81bd 4335 fdbd 4aec 8a3d
000002c0: 1ad6 483d b7e7 0f3d b466 2e3c f967 363d
000002d0: 9bfa b63c d853 463d 09c6 77bb 66fa efbd
000002e0: f3ab a2bd e235 15bc da05 f6bb 5c6a 4ebc
000002f0: 893b efbc 2669 4abc 854b fd3c dc63 a3bc
00000300: c9e0 b43d a7de 253d 90b0 49bc 4cee 27bd
00000310: 3cbc 8ebd f4a7 8c3b 408d 8cbc 6851 c1bd
00000320: 2500 543c 8ad8 cebd de74 163d fb63 4abb
00000330: d0d9 8f3d 67e8 59bd 7746 88bd b4e8 8e3d
00000340: 96a1 36bd efc9 2a3e 9a6d 5c3d f46e af3c
00000350: 4cb6 85bc 7cd6 6d3c 07ec 25bd 844e 86bd
00000360: a771 5abd 18c7 fa3c 5c6a c83d 3ce8 063d
00000370: 800f 2a3d 8ad4 14bd 1687 a6bb 787b 6c3c
00000380: 12b6 383c 4615 d2bd 72a8 b23d 3da9 d93c
00000390: 63cf dcbc 129f 6d3d 544b 203d d983 473d
000003a0: 4a51 74bd e061 593d 8257 84bc 4174 c23c
000003b0: 1907 a03c 9a0c ac3d 445c cdbd 8092 2fbe
000003c0: e2be aabc eebe 42ba 8785 793c 042b 8d3c
000003d0: 8040 b4bd 0ec3 75bd 2d97 84bd cfa8 d83c
000003e0: 2a6d 22bd 58ba a03d c051 29bd cc54 203d
000003f0: 4d52 ba3d dd67 5b3c 885c 2f3d c263 b33d
-0.068492495 -0.028158983 0.0033141584 -0.05191973 -0.001197195 0.009254959 0.04313619 0.018369138
0.04128274 -0.08680407 0.05213663 -0.0033562281 0.0145718595 -0.038795885 0.007191165 -0.054765034
0.0041802092 0.035480943 0.03811911 0.10653011 -0.04020188 -0.05413555 0.0015168703 -0.10967672
-0.05010299 0.06256815 -0.038939387 -0.020621385 0.013853404 -0.045722324 0.004281638 0.073726535
-0.084481224 -0.052597728 0.05973338 0.08402805 0.026879836 -0.12196345 0.027296232 -0.057539888
0.038923774 -0.03208954 0.07027641 -0.09156622 -0.053642213 -0.05336605 0.021228975 -0.028265134
-0.084886044 -0.0184496 -0.07788606 0.06647562 0.13513288 0.086205155 0.075400844 0.075696185
-0.12438515 0.08217238 0.10287434 -0.06421833 0.023926357 0.035374288 -0.01125892 0.017820748
0.00058097835 -0.03692243 -0.022005359 -0.109077156 0.09417247 -0.050017152 -0.01455023 0.03927704
0.040661875 -0.047157638 0.060631804 0.05927456 -0.11420867 -0.033620805 0.02046755 0.035311602
-0.039618067 0.062121343 0.01705863 0.041964184 0.051801562 0.09532584 0.00036266926 0.00062937074
-0.052762013 0.030309055 0.13912642 -0.08940695 0.019584006 -0.00363012 -0.020877399 -0.06591246
-0.047999218 0.018407416 0.023203498 0.04889967 -0.06824889 0.071504086 0.1379067 -0.00020713934
-0.026627472 0.07159325 0.025831727 -0.03194456 -0.04385985 -0.09842231 0.011177922 0.028731136
-0.07132017 0.05360544 -0.08135699 -0.047999434 0.027456783 -0.1051298 0.08108736 -0.051149126
-0.026136013 0.025156094 0.022506839 -0.004006111 0.0021680843 -0.065601274 -0.001726985 -0.060480554
-0.025894452 -0.02890942 0.091494165 -0.011656365 0.013286879 0.089410834 -0.10232788 0.035111856
-0.036496922 -0.11519202 0.02609281 0.024574663 -0.061985724 -0.09195339 0.09373635 -0.0120223975
0.019392569 -0.032283667 0.0490821 0.014619997 -0.03382684 0.00196639 -0.057470642 0.16062604
0.040467136 -0.022001972 -0.062110476 0.0065130796 -0.05378501 0.020114178 0.02073684 -0.035012882
-0.075304195 0.08340823 0.000102717946 -0.05475089 -0.057719335 0.061742086 0.10092648 -0.02109002
-0.062400468 -0.052441373 0.07950359 -0.09845078 -0.013900035 -0.06299885 -0.123636745 0.0678335
0.04903231 0.03513309 0.0106446035 0.04453275 0.022336295 0.048419803 -0.0037807247 -0.117176816
-0.07942953 -0.009107085 -0.007508022 -0.0125986 -0.029203193 -0.012354171 0.0309198 -0.019945078
0.08831937 0.04049554 -0.012310162 -0.040998742 -0.069694966 0.0042924825 -0.017157197 -0.09439355
0.012939488 -0.10099895 0.036732547 -0.0030882347 0.07023966 -0.05320015 -0.06654065 0.06977978
-0.044587694 0.16678594 0.05381546 0.021415211 -0.016322277 0.014516469 -0.040508296 -0.065579444
-0.053331044 0.030612513 0.097859114 0.03293632 0.04151869 -0.036335506 -0.0050820215 0.014433734
0.011273878 -0.10257964 0.08723535 0.026569957 -0.026954358 0.05801303 0.03913434 0.048709724
-0.059647836 0.053071856 -0.016155008 0.023737075 0.019534634 0.08400841 -0.10027364 -0.17145729
-0.020842973 -0.00074289634 0.015229589 0.017232426 -0.08801365 -0.06000047 -0.06474147 0.026447682
-0.03965489 0.07848042 -0.04133773 0.03914337 0.09097729 0.013391462 0.042812854 0.08759262

predictor/conv6/b f4 [32]
00000000: 007a 43ba 9ac8 acb9 e152 033d 0000 0000
00000010: 6c6d 91bc 5da2 6fbc 9906 053d e32f 993b
00000020: c089 50bc 0d5a 2539 0000 0000 06e0 10bc
00000030: 96ce b4bb f82e 27bc a968 5cba 8fe8 8f3c
00000040: a922 a73c 0000 0000 2c3f dc38 5324 e73c
00000050: 906d 64bc ea61 13bb 7144 54bc 4c40 8c3c
00000060: 8649 69bb bcc9 b03c 6638 0cbc fdb9 6bbc
00000070: 66be fa3c 1bf9 bd3c ec74 ab3c e1b7 61b9
-0.0007456839 -0.00032955856 0.03206146 0.0 -0.017752372 -0.014626113 0.032476995 0.004674898
-0.012728155 0.00015769173 0.0 -0.008842474 -0.005517791 -0.010204069 -0.00084079296 0.017566947
0.02040227 0.0 0.00010502184 0.028215563 -0.013942137 -0.0022488781 -0.012955771 0.017120503
-0.0035596802 0.02158057 -0.008558368 -0.014387605 0.030608367 0.023190072 0.020929776 -0.00021526172
